src/projects/scrnaseq_project/lightning_logs/ae_experiment/version_3/checkpoints/epoch=3-step=2788.ckpt (torch, 310195 bytes, 24 tensors)

encoder.l1.0.weight f4 [64, 128]
000000 51 ff e1 bc d6 df 8a 3d 83 b6 9a bd 1c 2e 00 3d
       -0.027587565 0.067809746 -0.075543426 0.031293973
000010 ac f6 32 3d 26 b2 ad 3c 52 ee 53 bd 89 b3 d0 bd
       0.043692276 0.021203112 -0.05174095 -0.101904936
000020 b4 38 9e 3c 7b b4 72 bd 9a 78 65 bd ee f5 b6 bd
       0.019314148 -0.05925415 -0.056023218 -0.08933626
000030 ed ce c3 bd 88 01 a4 bd 5e 4b 3a 3c a2 5d 7d bd
       -0.09560952 -0.080081046 0.011370508 -0.061856873
000040 a5 e9 82 bd 4a 0e a9 3c e1 6e 44 3d a4 2d 7a 3d
       -0.063922204 0.020636696 0.047957305 0.061078683
000050 49 ae a5 bd fe 73 c5 bd 18 e9 a8 bc 07 d4 91 3d
       -0.08089883 -0.096412644 -0.02061896 0.07120519
000060 4f 16 c1 bc 1c 3c cc 3c 85 ed 9a 3c 13 2d 82 37
       -0.023570208 0.024931006 0.018912086 1.5518197e-05
000070 de ad 23 3c 7e af 9f bd 2a a7 b8 3b e9 94 b7 3c
       0.009990184 -0.07797144 0.005635162 0.022409873
000080 f8 0d 1b 3d b5 45 eb 39 57 17 a6 bb 47 ef 27 3c
       0.03785512 0.0004487463 -0.0050687003 0.010249919
000090 10 8c fa 3c 51 ac ac 3c 55 25 36 bd 52 07 58 bd
       0.030584365 0.02107826 -0.044469196 -0.052741356
0000a0 7c 3f 94 3d 9b 44 71 3d 31 80 17 bd ef 55 2a 3d
       0.07238671 0.058903318 -0.036987487 0.04158586
0000b0 c5 41 4f 3c 4d fa 9a bb 1b 37 b8 bd 0f b8 32 3c
       0.012649958 -0.004729545 -0.089948855 0.010908141
0000c0 53 72 67 3d 56 3f 4c bd 20 33 00 3c cb a0 82 3d
       0.056505512 -0.04986509 0.007824689 0.06378325
0000d0 a0 bc 83 bd 84 15 37 bc fa 4a 1d bd a4 7e 97 bd
       -0.06432462 -0.011174563 -0.03840158 -0.07397202
0000e0 0f 04 4f bb 71 c1 2b 3b b8 be c4 bd 26 bf 96 bc
       -0.0031588112 0.002620783 -0.09606689 -0.018401694
0000f0 8c 6f 83 bd 82 ba 39 bd b0 e9 96 bd 1d 8d 72 3d
       -0.0641776 -0.045343883 -0.07368791 0.059216607
000100 1a 2e cd bd a2 2c 81 bd 39 9d 27 bd 7e 19 8e 3d
       -0.10018559 -0.06307341 -0.040921424 0.06938456
000110 38 06 c2 bd 1b 82 c7 3c 1c 7c b4 bd 4d e2 0c 3d
       -0.094738424 0.024354031 -0.088127345 0.034395505
000120 f5 b5 25 3d 96 9e d1 bc 34 36 0c 3d 83 76 f5 bb
       0.04045673 -0.025588315 0.03423138 -0.0074909343
000130 11 8f e5 3c e7 43 92 bc 44 22 73 bd 5c 62 5a 39
       0.028022321 -0.017854644 -0.05935885 0.00020826742
000140 61 d0 80 3d be 7c 54 3d 9f 1b 16 bd 7b 75 68 bd
       0.06289745 0.051876776 -0.036647435 -0.056752663
000150 3b 94 2e 3d ee 78 dd 3c 7b f3 75 bd ff df 0a bc
       0.042621832 0.027035203 -0.060046654 -0.008476256
000160 24 fd 74 3c a8 81 a6 bd cc b6 31 3d 4e ca 90 bd
       0.014952932 -0.08130199 0.04338722 -0.070698366
000170 7e 8b ab bc e0 b9 86 3c 8f 93 7d 3d 3e a3 8d 3c
       -0.020940538 0.016446054 0.0619083 0.017289754
000180 82 f0 8c 3d 55 cd 28 bd cd 43 4c 3d f2 9f 91 bd
       0.06881811 -0.041211445 0.049869347 -0.07110585
000190 fd 7d 4d bd 8c 09 83 3b 81 d3 81 bc bb 0b 6f bd
       -0.05016898 0.003998941 -0.015847923 -0.058360796
0001a0 57 f5 bc bd 54 f0 6b 3d 75 e6 e9 3c 11 f7 7a bd
       -0.09226482 0.05760224 0.028552273 -0.061270777
0001b0 55 54 1a 3d b7 76 6d bd 07 18 f1 bc e4 33 c5 bd
       0.03767808 -0.057974543 -0.029430402 -0.09629038
0001c0 c9 0d e5 bc 96 11 95 bd 63 db a0 bd b9 fc eb 3c
       -0.027960675 -0.07278745 -0.07854345 0.028807031
0001d0 b6 81 56 3d 0d 04 70 3d 5f 96 aa bd 1e e9 44 3c
       0.052369796 0.058597613 -0.08329462 0.01201847
0001e0 e7 06 35 3c 5f bb 64 3d 78 8f bc 3c d8 59 46 3d
       0.011049009 0.055842753 0.02301763 0.048425525
0001f0 8d 33 b8 bd 42 60 3d bd 63 c0 bd bd 47 94 22 ba
       -0.089942075 -0.046234377 -0.092652105 -0.00062019046
000200 b7 c9 99 bd da 8c 8e 3e 58 32 8f bc 64 88 21 3e
       -0.07509177 0.27841836 -0.01748006 0.15774685
000210 90 a7 68 bd 8b cd 10 be 97 8e a6 bd 27 6b 80 bd
       -0.056800425 -0.14140908 -0.081326656 -0.06270438
000220 da 6f e7 bc 40 d4 cd bd 9f 20 43 3e bf a3 92 bc
       -0.028251577 -0.10050249 0.19055413 -0.017900346
000230 9c 2b 13 3d 2e eb b0 bd d5 d9 27 bd 2c 63 cf bb
       0.03593026 -0.08638607 -0.040979225 -0.006328961
000240 2e 92 35 3d 9b 82 18 bd f4 f3 84 bb 89 b2 dc 3c
       0.04432886 -0.03723393 -0.004057402 0.026940601
000250 f4 83 a5 3c f2 44 3a 3d 98 d7 6d bc bb 50 9a bd
       0.020204522 0.045475908 -0.014516734 -0.07534929
000260 b0 eb cc bd 8d f9 95 bc 67 c1 83 3d 28 6d 2c be
       -0.10005891 -0.018307472 0.06433373 -0.16838515
000270 5a 35 4e 3e 0a fe 71 bd 2f 5a e3 3d 73 ea e7 3c
       0.2013754 -0.05908016 0.111011855 0.028310036
000280 fc a4 1b 3e d1 4f 78 3c 9b 3c ef bc cb 90 67 be
       0.15199655 0.015155748 -0.029203704 -0.22613828
000290 ef e4 b9 3d cf 7a b5 3d 5e 2b 8e 3d 3e 0d 22 be
       0.09076869 0.088613145 0.069418654 -0.15825364
0002a0 d2 cf 28 3e 1c 60 a7 3d 81 55 29 3c 50 4c 4a bd
       0.16485527 0.08172628 0.010335327 -0.049389184
0002b0 40 c1 a3 3d d3 46 85 3d 35 69 e8 3d 17 1a f9 bb
       0.07995844 0.06507649 0.11348192 -0.007601987
0002c0 58 93 3c bd b9 f6 01 bd f3 04 80 3e ac 16 21 3e
       -0.046038955 -0.031729434 0.25003776 0.15731305
0002d0 bc 86 ce 3d f2 f7 21 3e 7a 25 82 bc 89 41 2f 3d
       0.10084292 0.1581724 -0.01588701 0.04278711
0002e0 e3 5b 41 3d 86 73 17 3e 22 d4 40 ba f0 c8 b7 3d
       0.04720677 0.14790162 -0.0007355829 0.08973873
0002f0 f1 30 f0 3c 96 16 0f 3e 3f 75 cb 3c af ca b4 bc
       0.029320212 0.1397346 0.02483618 -0.022069303
000300 3b 3e 9c 3d b9 c4 90 bd 4c f3 33 be b3 2c 96 3c
       0.07629057 -0.07068772 -0.17573279 0.018331861
000310 5a 3e 4d b9 e3 71 b0 3d bb 2c da 3d 17 69 3b bd
       -0.00019573551 0.08615472 0.10653063 -0.04575452
000320 20 e1 85 bd df 5f 5f 3d 16 46 8b 3e 45 07 10 3e
       -0.0653708 0.05453479 0.2720191 0.14065273
000330 64 2a ed 3c 93 7f 46 bd 6a 17 78 3b 56 dd f0 3c
       0.028950877 -0.048461508 0.0037855753 0.029402416
000340 0d e7 49 bd 19 39 d7 3d e9 17 92 3d 63 1a 18 3e
       -0.049292613 0.105089374 0.07133467 0.14853816
000350 07 c3 50 bd 16 a3 e5 3d 49 d1 24 3e 8d 46 56 3d
       -0.050967243 0.11212747 0.16095461 0.052313376
000360 29 6d 8b bd 19 97 5f 3c 4c d3 cf 3c ac 3d c2 bc
       -0.0680793 0.013646864 0.025369309 -0.023711048
000370 9d 55 fd 3d 12 86 a0 bd a6 65 58 bd 02 e3 09 be
       0.12369845 -0.07838072 -0.052831315 -0.13465503
000380 70 bc 8e 3d 35 89 ba 3d c5 69 5c bd bb c8 c7 bd
       0.06969535 0.091082014 -0.053811807 -0.09755083
000390 32 ed 51 3d 42 20 ba bd 1c 5e f4 3c 10 d3 1e bc
       0.051251598 -0.09088184 0.029830031 -0.009693876
0003a0 55 27 50 3d bb cb b9 3d 7f 07 cc 3d 19 cb f9 3d
       0.05081876 0.09072062 0.09962367 0.12196941
0003b0 8f f3 74 3c 95 62 14 3d ba fd b4 bc 51 2a 28 3e
       0.014950647 0.036226828 -0.022093643 0.16422392
0003c0 50 9f 7d 3a ad 7b 8a 3d d7 f8 30 bd b9 3a 50 bd
       0.00096749235 0.067618705 -0.043206062 -0.050837252
0003d0 82 2c cd bd 8c b1 03 be c1 c5 56 bd 08 a2 80 3b
       -0.10018255 -0.12860698 -0.052434687 0.0039255656
0003e0 83 f0 f8 3d b4 76 8a bd 59 a3 8a bd d1 46 8a 3b
       0.12155249 -0.06760922 -0.06769437 0.0042198678
0003f0 1c 62 cf bc 09 f2 80 3d b2 dd 4e 3e ff 15 30 be
       -0.025315337 0.062961645 0.20201758 -0.17195891

encoder.l1.0.bias f4 [64]
000000 ee 59 15 3d 61 5d 84 bd ab 3e 67 3d 5a 26 a7 bd
       0.036462717 -0.06463123 0.05645625 -0.08161612
000010 1d a0 30 bd bc eb 00 bd 8d 08 8b 3d 8b 14 93 3c
       -0.043121446 -0.031474814 0.0678874 0.017954132
000020 e3 c6 c7 3d 4e 35 d8 3b 9f 9d 54 3c b9 b5 e1 3c
       0.097547315 0.0065981513 0.012977033 0.027552472
000030 fc b2 82 bc 90 1b c5 bd 4b 21 d3 bd 39 ac 86 3d
       -0.015954487 -0.09624398 -0.103090845 0.065758176
000040 dd 92 83 3c e3 27 31 3d 72 6f c1 3d 18 95 ca 3d
       0.01606124 0.04325093 0.09445085 0.098917186
000050 5c 65 bf 3d a2 29 be bc 61 4e 57 3d 38 5b 67 3d
       0.09345505 -0.023213211 0.052564982 0.056483477
000060 36 52 62 3d 82 e5 25 3c 2f 43 8b bc ef e9 96 bd
       0.055254184 0.01012552 -0.01699981 -0.07368838
000070 fe c6 9d 3d 90 81 0f bb 25 f7 0b 3d 8e 5c b3 bb
       0.077039704 -0.0021897294 0.034171242 -0.00547368
000080 b2 fc c2 3c 67 84 a5 bd ca 5b 0c bd 2d 04 8f 3d
       0.023802135 -0.08081894 -0.034267224 0.06983218
000090 0c b0 71 3d da a8 77 3d fa 3b 07 3d 06 8e 53 bd
       0.059005782 0.060463764 0.033016182 -0.051649116
0000a0 09 9c 14 bb e2 7e f2 3c 59 ec 35 bc ae ce 98 3d
       -0.0022676012 0.029601518 -0.011103713 0.07461296
0000b0 d2 1e 8e 3d 0f 7b 83 3b c4 cd b5 3c bd e5 cd 3d
       0.06939472 0.0040124725 0.022192843 0.10053585
0000c0 15 05 8a bd 2e bf a8 bc d5 40 ed 3d da 67 3d 3e
       -0.067392506 -0.020598974 0.11584631 0.18496647
0000d0 e2 7c 8a 3d bc d3 05 3e 2a d7 f2 3b 1d f5 ad bd
       0.06762101 0.13069052 0.0074109035 -0.08494017
0000e0 91 04 0e bd 93 11 51 bd ab 40 75 3d 91 d5 01 3d
       -0.034672324 -0.05104215 0.059876125 0.031697813
0000f0 c3 51 b8 3d 94 80 ae 3d bd a6 41 bd a0 ae 8f bd
       0.0899997 0.08520618 -0.047278155 -0.07015729

encoder.l1.2.weight f4 [64, 64]
000000 ea 9d 4e 3d 88 53 db 3c f9 39 88 3d 83 a6 f7 bd
       0.050443567 0.02677323 0.066516824 -0.120923065
000010 5d f8 40 3d 50 f2 04 3e 30 5c a2 bd 07 6f c4 3c
       0.047111858 0.1298306 -0.079277396 0.023978723
000020 a9 28 62 bd 24 d9 52 ba a1 bb db bc 15 e0 fc 3b
       -0.055214558 -0.0008043221 -0.026822867 0.0077171423
000030 c9 d1 18 be 5b de f0 3d 21 64 63 bd 43 3a 4d 3e
       -0.14923777 0.11761161 -0.055515412 0.20041756
000040 12 38 12 be 4f 93 05 be b2 39 10 3d 33 2c f2 3b
       -0.14279202 -0.13044475 0.035211273 0.007390523
000050 51 8c 81 3d 43 94 17 be 54 95 a1 3e f9 02 d4 3d
       0.06325591 -0.14802651 0.3155924 0.103521295
000060 67 a4 cf 3d 3e b8 32 bb 63 1e 26 3e 80 e1 02 3e
       0.10138779 -0.0027270461 0.16222529 0.12781334
000070 ed 0e 13 3e 99 92 1d be 0d 71 43 be 97 28 9c 3d
       0.14361162 -0.15387954 -0.19086094 0.076249294
000080 2d 6c 30 bd ca da 4f be b7 ac 8f be ac 5a 45 bb
       -0.043071914 -0.20298305 -0.28061458 -0.003011386
000090 58 f2 77 3e ac 1c 2a bd 1d b8 19 be ec 49 27 3e
       0.2421354 -0.04153125 -0.1501164 0.16336793
0000a0 b9 fc 4c bd d5 21 1b 3d b3 3e ac 3d af 35 fc 3d
       -0.050045703 0.03787406 0.084103964 0.12314927
0000b0 b8 a9 ca bd fd c1 9f bd 8a b3 4a bd a1 a9 b5 3b
       -0.098956525 -0.07800672 -0.049487628 0.005543903
0000c0 57 f4 48 bd 67 83 c8 3d 76 ca 0b 3e 77 a1 fe 3d
       -0.049061146 0.09790688 0.13651451 0.12433141
0000d0 3d 3b 24 bb 2d 92 20 3d a5 e1 ae 3d b5 25 59 bd
       -0.0025059723 0.039201904 0.08539132 -0.053014476
0000e0 fb e3 31 be 16 32 31 bd b0 21 92 bd a3 01 dc 3d
       -0.17372124 -0.043260656 -0.07135332 0.107425
0000f0 ff 82 04 3e f8 db 2a be 42 6c 93 ba 7c 66 6d 3d
       0.12940596 -0.16685474 -0.0011247473 0.057959065
000100 3b 9a 3c 3d a1 04 19 be a6 3f 46 be 19 42 c6 bd
       0.046045523 -0.14943172 -0.19360217 -0.09680576
000110 b3 3a da 3d 48 12 1d 3e 37 ca 94 3d fc 6c 92 3d
       0.10655727 0.15339005 0.07265132 0.07149693
000120 48 2b b1 3b 00 5b 30 bd eb 84 b3 3d 8c 5d f2 bd
       0.005406771 -0.043055534 0.087655865 -0.11834249
000130 26 c8 9e 3c df 41 75 bd 45 62 f6 ba c6 7d 0c 3e
       0.019382548 -0.059877273 -0.0018797597 0.13719854
000140 ae 7d d3 3d 60 ee 3d bd 35 9c 35 3c 2d 08 06 bc
       0.10326706 -0.04636991 0.011084606 -0.00818066
000150 0f 01 38 bd 69 71 78 bd b1 3c 8e 3e 7f 40 55 3e
       -0.044922885 -0.06065503 0.2778068 0.20825385
000160 cb 2c 24 be df f5 02 be 3e da ef bd f4 91 b1 3d
       -0.16032712 -0.12789105 -0.11711548 0.086704165
000170 6e de c2 bd c7 ca 0f be da c4 eb 3c df bf 49 3d
       -0.09515081 -0.14042197 0.02878039 0.04925525
000180 02 58 20 bd 9d 7b 24 be 5e 53 40 3e d5 bd ef 3d
       -0.03914643 -0.1606278 0.18781802 0.117061295
000190 a6 b0 d6 bd 8f 0f 9f be 02 4b dd bd c4 00 7c 3d
       -0.10482912 -0.31066558 -0.10805322 0.061524168
0001a0 9b f4 67 3c 87 06 04 be 2f a6 90 bd 2e a3 86 bd
       0.01415744 -0.12893115 -0.07062947 -0.06574093
0001b0 e5 be 69 bc 35 75 2c 3c 39 e4 88 3d 05 fd 30 3e
       -0.014266704 0.010525991 0.06684155 0.1728402
0001c0 44 71 77 bd f3 93 36 3d b8 1b c9 3d 65 35 f9 3d
       -0.060410753 0.04457469 0.0981974 0.12168387
0001d0 99 d9 58 3e 94 99 d6 bd 7e c5 c5 bd 39 22 b2 bd
       0.21176757 -0.104785115 -0.09656809 -0.08697934
0001e0 3d 48 1f 3e 16 08 e9 3d 58 ac e0 3d ba f7 bc bd
       0.155549 0.113784954 0.10970372 -0.092269376
0001f0 58 7e 21 3c 31 20 12 3e 8c ab f2 3d 76 39 6a bc
       0.009856783 0.14270093 0.11849126 -0.014295926
000200 a6 1d df bc 63 bd 5b bc 61 b9 41 bd a2 28 80 bd
       -0.027235817 -0.0134118525 -0.04729593 -0.0625775
000210 64 bf 18 3d 86 45 e7 3b 59 cc 2b 3d dc 6d 53 bd
       0.0372919 0.0070578484 0.041942928 -0.051618442
000220 7f e0 a1 bc e1 01 bf 3d fb bf 77 bd 95 bc 02 3e
       -0.019760368 0.0932653 -0.06048582 0.12767251
000230 48 91 fe bd b6 d7 90 bc e0 1f 1a 3d 5a 7f 1f 3d
       -0.12430054 -0.017680984 0.037628055 0.03893981
000240 80 22 da bd 86 55 28 3c 45 fc f6 bd 46 d1 f1 3c
       -0.106511116 0.010274297 -0.12059835 0.029518735
000250 cc 2a 05 3e 52 1a f6 3d 29 b2 51 3d e6 95 48 be
       0.13004607 0.12016739 0.051195297 -0.19588432
000260 9f 04 22 3e 8d 9d 59 be ac 43 6e bc 3e f4 98 bc
       0.15822075 -0.21251507 -0.014542501 -0.018671151
000270 d7 c8 10 3e cb 90 69 bd d3 aa ea 3d 4f c5 0d 3d
       0.14139114 -0.05702285 0.114583634 0.034611996
000280 c5 9f 31 bc db eb ac bc 8e 67 cf bd e7 80 81 bc
       -0.010841315 -0.021108558 -0.10127173 -0.015808536
000290 3a 5c ba 3d 06 ab 2a 3e 41 94 fe 3d ce 82 22 3e
       0.09099622 0.16666803 0.12430621 0.1587021
0002a0 ed 2c 2c be 33 bd ef 3d c6 66 56 bd 7e 33 fa bd
       -0.16814013 0.11706009 -0.052344106 -0.122168526
0002b0 00 75 b5 bb 08 ca f4 3d 33 3d d3 3d c6 45 9e bd
       -0.005537629 0.11952597 0.10314407 -0.07728152
0002c0 2c 45 6f 3d a7 1e 0e 3e 46 c4 96 bd ae c6 81 be
       0.058415577 0.1387888 -0.07361655 -0.25346893
0002d0 00 81 13 bd 49 36 fd 3d 46 f7 a5 3d a3 71 c3 3d
       -0.036011696 0.1236387 0.08103804 0.09543159
0002e0 1a 44 e5 3d 24 ec c8 bd 42 0f b6 3d e3 5e 34 bc
       0.1119463 -0.09810665 0.08889629 -0.011008951
0002f0 3a a0 20 be 51 d9 ed 3d 7d bd af bd 3c 9e 9d bd
       -0.15686122 0.116137154 -0.08581064 -0.076961964
000300 ae f1 d7 bd c4 78 4c 3d 37 fd a7 3d 06 ac a8 bc
       -0.105441436 0.04991986 0.08202594 -0.02058984
000310 11 15 8c 3d 66 f9 18 3e cf 91 e7 3d 8a 7d 2f 3e
       0.068399556 0.14938888 0.11307108 0.17137733
000320 d6 19 80 bd 85 d9 87 bd 03 b8 d2 bd 87 3a 85 bd
       -0.06254928 -0.066332854 -0.10289004 -0.06505304
000330 73 7e d1 bd 98 68 f3 bd e6 ad c9 bd 55 6c 8a 3d
       -0.102291964 -0.11885184 -0.098476216 0.06758944
000340 d8 1b 3d bd 25 32 80 3e 7a a9 36 bd 9c 5c c1 39
       -0.046169132 0.25038257 -0.04459522 0.00036880828
000350 c6 50 05 be 95 ed ce 3d 19 71 9d 3d 6e bb 53 3e
       -0.13019094 0.10103909 0.07687587 0.20676968
000360 24 2d 01 be 44 de 36 be e6 13 bd bd b7 b7 cc 3d
       -0.12614876 -0.17858225 -0.09232311 0.09995978
000370 04 9b d9 bd bf b6 3b be 00 5a fd 3d cb 7e c3 3d
       -0.1062527 -0.18331431 0.12370682 0.09545668
000380 dc 2f 08 3e bf 54 8b 3d a8 fe b1 bd dd bd ab bd
       0.13299507 0.068032734 -0.0869115 -0.08385823
000390 34 65 f5 3d 37 ff a2 bd 8d 3c b5 bd 99 eb 05 bd
       0.119821936 -0.079588346 -0.0884944 -0.032695387
0003a0 10 92 e2 3d 1e 2d 1b 3e fe f7 96 3d 2b 35 5d be
       0.110630155 0.1515393 0.073715195 -0.21602313
0003b0 29 45 f2 bb bd ab 75 bc 11 f8 56 be 56 54 f6 bc
       -0.0073934984 -0.014994559 -0.20993067 -0.030069511
0003c0 8b a2 63 3e 9b 13 1d 3d ca 95 15 3e 08 ac 21 3e
       0.22229974 0.038348775 0.14607921 0.15788281
0003d0 86 de 23 3d a3 e0 58 3d 9a a8 68 3d 93 75 74 3d
       0.040007137 0.052948605 0.056801416 0.05968244
0003e0 3a ab 4c be 6c 91 65 ba 1f 50 80 bc f6 ab a1 3c
       -0.19987193 -0.0008757326 -0.015663205 0.019735318
0003f0 7d a4 3f be be d6 7e 3d 5e cd 93 3d fc 58 25 3d
       -0.18715091 0.062216513 0.07216905 0.040368065

encoder.l1.2.bias f4 [64]
000000 07 cc 2b 3d c7 f3 f6 bc b1 1f 35 bd e5 be 85 3d
       0.041942623 -0.030145539 -0.044219676 0.06530551
000010 c2 af c2 bd e0 b9 b1 ba 0a 6b db 3d 10 a6 ef 3d
       -0.095061794 -0.0013559423 0.107137755 0.11701596
000020 ab 75 01 3d f9 ae 14 3d 68 08 a2 3d d7 f2 c4 3d
       0.031606358 0.03629968 0.079117596 0.096166305
000030 5d d4 13 bd 66 a1 96 3d 6b 14 ef bd 35 bd 37 bd
       -0.036091197 0.07355003 -0.11673816 -0.044858176
000040 96 38 a1 bd 5c 2f bc bd 27 af 43 bd c1 d8 ac 3b
       -0.07872121 -0.091887206 -0.04777446 0.0052748625
000050 02 9f ba 3d db a1 66 bd 6f 89 85 3d 68 25 8e 3d
       0.091123596 -0.0563067 0.06520354 0.069407284
000060 c2 7f cb bd d9 18 e2 bd 85 68 0f 3e 39 70 b0 3d
       -0.09936477 -0.110398956 0.14004715 0.08615155
000070 25 af b2 3d 78 d8 bb bd 35 09 4c 3c b9 8a c6 bd
       0.087248124 -0.091721475 0.012453367 -0.09694428
000080 b3 a9 8d bd 86 6f 22 3d 66 c1 1e 3d 12 0b 93 3d
       -0.06917133 0.03965714 0.038758658 0.07179846
000090 dd 96 7a 3d d6 df 9b bd a1 c8 b0 bd a5 e4 9f bb
       0.06117903 -0.07611053 -0.08632017 -0.0048795515
0000a0 01 84 52 39 ed 62 ba bd 7e 23 82 bd ba 95 7b bd
       0.00020076336 -0.091009 -0.06354426 -0.061422087
0000b0 00 6d 48 bc 10 e0 6e 3d 2a bf c5 3d d1 0e ab 3d
       -0.012233019 0.05831915 0.09655602 0.083524354
0000c0 62 32 ea 3c a8 3a a9 3d 9f 90 5d bd c2 cc 60 3c
       0.028588478 0.08263141 -0.054093 0.013720693
0000d0 68 46 3d 3d 6a 2b b9 3d 21 96 d9 bd 90 c8 8f bd
       0.046209723 0.09041484 -0.10624338 -0.07020676
0000e0 18 0d 4a 3d d5 e0 d6 bd 52 78 b0 bd 79 c8 8f 3d
       0.049328893 -0.10492102 -0.08616699 0.07020659
0000f0 08 ae f1 3c eb 4e e5 3b 92 34 94 3d bb 99 e5 bc
       0.02950193 0.006997933 0.072365895 -0.028027406

decoder.l1.0.weight f4 [64, 64]
000000 37 65 45 3d 7e 30 ab 3d c5 22 0e 3e 20 a5 61 be
       0.04819223 0.083588585 0.13880451 -0.22035646
000010 b3 71 18 be 15 25 04 3e 34 b4 56 3e 84 ad a6 3d
       -0.14887123 0.1290477 0.2096718 0.08138564
000020 19 c5 ee 3d 0a 26 22 bd f8 2b 3d 3c 09 7c 27 3e
       0.11658687 -0.039587058 0.0115461275 0.1635591
000030 3e 69 d3 bc 0d 44 f9 3c 2c ad 15 3e a9 65 49 3d
       -0.02580702 0.030427957 0.14616841 0.049169216
000040 29 30 a3 be 33 72 97 be ea 26 3f 3e a6 2e c9 bd
       -0.3187268 -0.29579315 0.18667188 -0.098233506
000050 87 8c 80 bd 09 9a a3 3b f3 aa 82 3b bf 95 77 be
       -0.062768035 0.0049927277 0.003987664 -0.24178217
000060 c3 df 7f bd c8 2e 10 3e 52 9d d7 3d d9 e3 0a 3e
       -0.062469255 0.14080346 0.10528053 0.1356348
000070 8d 1a ba 3d e7 22 ae bd f4 fc 85 bb a8 f8 34 be
       0.090870954 -0.08502751 -0.0040889923 -0.1767298
000080 09 d3 7c be 90 0f f8 3c d6 27 1e 3d 2d 8b 99 3d
       -0.24689879 0.030280858 0.03861221 0.07497249
000090 dd 38 10 be 94 6e e1 3d 1a 1f cc bc 04 ea f3 bd
       -0.14084192 0.11007419 -0.024917174 -0.11909869
0000a0 9d 47 67 3d d1 75 16 3e 31 cc 8c 3c 0e 51 00 3e
       0.05646478 0.14693381 0.01718721 0.1253092
0000b0 f6 21 23 3c 8c 75 f0 bd fc bf a5 bd d0 e6 25 3e
       0.009956827 -0.1174117 -0.08093259 0.16201329
0000c0 f5 37 26 bc 9f 31 61 3e e4 07 cc bc bb fc e4 3c
       -0.010145177 0.21991585 -0.024906106 0.027952543
0000d0 e7 b2 1f 3e 2c 88 a3 3d 50 1f 81 3e b7 0a 46 bd
       0.1559559 0.07984957 0.25219202 -0.048350062
0000e0 99 2d 92 3d 3c 11 bc 3d ba f3 e2 bc 60 60 d5 3d
       0.07137603 0.09182975 -0.027704109 0.10418773
0000f0 37 25 02 3d be 73 5f be ea 7d 0f 3c fa 0c 07 be
       0.031773772 -0.21821496 0.008758048 -0.13188544
000100 2c 5d 72 3d 7a 0d fd 3a df f5 f8 bc 87 35 94 3d
       0.059170887 0.0019306384 -0.030390678 0.07236772
000110 8c 82 ee 3d 0e f5 0a 3e 4b 83 6f bd 43 0c 5d 3c
       0.116459936 0.13570043 -0.05847482 0.013491693
000120 ea fd e2 3c 30 b4 02 be 22 fc d9 3d 57 b8 ab 3d
       0.027708966 -0.12764049 0.10643794 0.083847694
000130 f3 5d 1f 3c 26 6a c2 bc 43 84 e9 bd ce c2 b5 3c
       0.009726989 -0.023732256 -0.1140218 0.022187617
000140 38 ce 85 3d f8 d0 bf bc 36 bd 58 3d 95 c2 3b bc
       0.06533474 -0.023415074 0.05291482 -0.011459966
000150 ae 61 35 bc 56 b3 48 bd 7f 43 e7 3c 8d 7d 85 3d
       -0.011070652 -0.048999153 0.028230427 0.065180875
000160 b8 1c 7a 3d 0a 05 2c 3d 21 99 da 3d c6 41 c6 bd
       0.061062545 0.041996993 0.10673738 -0.09680514
000170 0a d1 d9 bd 7f f4 9e bd 63 83 9d bd 83 06 c1 bc
       -0.10635574 -0.07761478 -0.07691076 -0.023562675
000180 3e 59 1d bd bd 09 39 3d 86 ab 2b bd 3e 2e a6 3d
       -0.038415186 0.045175303 -0.041911624 0.08114289
000190 65 25 eb 3d 20 09 c5 3c 4f 22 42 bd 44 07 81 3d
       0.11481742 0.024052203 -0.047396 0.06300214
0001a0 84 91 e3 3c 1a 3b 98 3c 4c 1e 08 bd 00 86 ab 3d
       0.027779348 0.01858287 -0.03323202 0.08375168
0001b0 ee e5 13 bc 62 4a 98 3b b8 fb d3 bd 9b 4c 9a bd
       -0.0090269875 0.004647539 -0.10350746 -0.075341426
0001c0 1d dd 2a bd ff c1 c1 3c a7 7d 58 3d 0a b0 67 bc
       -0.041714776 0.023652075 0.052854206 -0.014141092
0001d0 85 0a 41 3d 17 0e 84 3c 66 60 ce 3c b7 66 a7 3d
       0.047129173 0.01612 0.02519245 0.08173888
0001e0 d0 e1 ea 3c 5f 51 43 bd 3e 6c c4 bd a2 7a 46 3d
       0.028672129 -0.047685023 -0.09590958 0.048456796
0001f0 0b d8 d5 bd 6f 89 cf 3d 35 ac 13 bd ac 50 9e 3d
       -0.104415976 0.10133635 -0.0360529 0.07730231
000200 5b 08 d0 3d b9 44 b0 bd 93 43 5e bd fb 73 bd bd
       0.10157844 -0.08606858 -0.054263663 -0.09250637
000210 a2 5a a7 bd c6 77 09 3e 2c 57 6a bd 9a e5 91 3c
       -0.08171584 0.13424596 -0.05721204 0.017809678
000220 06 df 6b bd e3 46 d6 3d 52 07 f7 3d 65 15 99 3d
       -0.05758574 0.10462739 0.12061943 0.07474784
000230 f5 87 99 bd 35 3f 25 bd 49 b2 05 bd d8 2c 1a 3d
       -0.07496635 -0.040343482 -0.03264073 0.037640423
000240 bf 0f a5 bd e8 f4 36 bd 56 3a 94 3d 06 42 b3 3d
       -0.08059644 -0.044667155 0.07237689 0.08752827
000250 4f c4 9d 3b 40 df 88 3d 48 9c bd 3d ca 6e d3 bd
       0.0048146616 0.066832066 0.09258324 -0.10323866
000260 d0 68 cc 3d 66 21 af 3d 1a 24 69 bb ed ac 0d bb
       0.09980929 0.08551292 -0.0035574497 -0.0021617964
000270 13 91 07 be 7d 40 37 3d 2a 52 17 bc 34 cc 84 bb
       -0.13238935 0.044739235 -0.009235898 -0.004052663
000280 dd 29 b0 3d db b3 fb 3d 8f 5b d1 3d b2 58 a4 3c
       0.08601735 0.12290164 0.102225415 0.020061824
000290 d0 eb a3 bc 00 4c 8f bd d3 fb d9 bd 9c 70 69 3a
       -0.020009905 -0.06996918 -0.10643735 0.0008905025
0002a0 95 6b 90 3d d2 44 ca 3d 27 05 7f bd 88 02 c3 3b
       0.0705177 0.09876408 -0.062260773 0.0059512295
0002b0 1c 97 09 3e 1c 31 6d 3d 3d bf a0 3d 01 90 3d 3d
       0.1343655 0.057908162 0.07848976 0.04627991
0002c0 02 4a 70 bd eb 19 d7 3c 1e cb 86 3d 9d ca 88 bd
       -0.05866433 0.026257476 0.0658171 -0.066792704
0002d0 fe 28 f5 bd de b6 38 3d 19 b3 a0 bd 1b f8 c9 bd
       -0.11970709 0.04509627 -0.0784666 -0.098617755
0002e0 df 9f fd 3d eb a8 60 bc 80 1f 81 3d c6 b2 6b bd
       0.123840086 -0.013712148 0.06304836 -0.05754354
0002f0 8f ac 8b bd da 31 93 3d 06 8c e2 bd 80 7f 0c 3d
       -0.06820022 0.07187243 -0.110618636 0.03430128
000300 63 93 9f 3d 0b 18 38 be 67 48 a2 bd f5 89 96 be
       0.07791784 -0.17977922 -0.07923966 -0.29402128
000310 50 22 72 be 8f 3d 09 be e9 7d 07 bc fe bd c4 bd
       -0.23645902 -0.13402389 -0.008269765 -0.09606551
000320 27 56 c7 3d 81 cc 10 3b 7c af ab 3d bd 7c d7 3d
       0.09733229 0.002209455 0.0838308 0.10521839
000330 df c5 a0 bc 75 0e 19 bd 99 c7 22 be d4 09 05 3e
       -0.019625602 -0.037367303 -0.15896453 0.1299203
000340 79 f1 e9 be 1a c3 24 be f5 7c e3 bd 61 31 96 3d
       -0.45692042 -0.1609005 -0.11107818 0.07333637
000350 cd 34 6e 3d f2 85 10 be 62 05 e2 3d 18 34 47 3e
       0.058155823 -0.14113596 0.11036183 0.19453466
000360 84 53 05 bd f8 32 43 3d 2b 4d b8 3d 14 d7 07 be
       -0.03255035 0.04765603 0.089990936 -0.1326564
000370 a8 02 c9 3d 1c 8b ba 3d a8 dc f7 3d 85 b5 7d 3d
       0.0981496 0.09108564 0.12102634 0.06194069
000380 fc 84 3c 3e 17 b8 0e 3e 3b 99 a2 3c e0 2d af 3d
       0.18410105 0.13937412 0.019848457 0.08553672
000390 df 60 fd bd 53 db 17 be bf 14 e4 3d 11 a6 84 3d
       -0.12371992 -0.1482976 0.111367695 0.06476987
0003a0 8a 16 9f 3d 4a 57 e2 3d 83 2d 74 3e 2c 6c 1c bd
       0.07767971 0.11051805 0.23845486 -0.0381891
0003b0 58 83 ae bb 67 8e cc bd 99 b7 b2 3d ea c7 fe bd
       -0.005325716 -0.099880986 0.08726425 -0.12440474
0003c0 62 84 bf 3c 51 d6 8d bc bf 24 10 3e 34 0c 91 3d
       0.023378555 -0.017314108 0.14076518 0.07082406
0003d0 27 0e 65 3c 66 be 06 be 86 9f 4e 3d 80 0b a2 bb
       0.013980425 -0.13158569 0.050445102 -0.0049452186
0003e0 88 05 34 be 3c 93 d4 bd 4a af 2c 3d 7e 5d c0 bc
       -0.17580235 -0.10379645 0.042159356 -0.02348208
0003f0 ad 77 84 bd e3 6b 0f 3e 31 c8 51 3c c1 43 d3 bb
       -0.06468139 0.14006 0.012804077 -0.006447286

decoder.l1.0.bias f4 [64]
000000 59 2a 99 3c 93 ab 1a bc ed a6 c8 3d e2 f2 4e bd
       0.01869695 -0.009440321 0.097974636 -0.0505246
000010 74 62 99 bd bc 56 22 bd 73 85 5f bc 94 40 c6 bd
       -0.074894816 -0.039633498 -0.013642657 -0.09680286
000020 b9 56 24 3d 80 0a 86 bd b3 2f 10 be 1b ac 9e bc
       0.040121768 -0.065449715 -0.14080696 -0.019369176
000030 0e 87 f9 3d cd 2d 09 3c 52 cd 0d 3e 26 67 4c bd
       0.12183963 0.008372736 0.13847855 -0.049903058
000040 b7 bc 9d bd 21 7d 8a bd b7 24 cd bd d9 90 2f 3d
       -0.0770201 -0.06762148 -0.100167684 0.042862747
000050 80 cc 01 3e 6a 03 08 be 9d 9a c3 3d a5 6f ca bd
       0.12675667 -0.13282552 0.095509745 -0.09884576
000060 14 01 1b 3d 25 3e c3 3c 18 52 9a bd ae db 6b bd
       0.037842825 0.023833344 -0.075351894 -0.05758255
000070 75 60 12 3d ef 7a f8 3c eb 44 9e 3d f7 00 ab bd
       0.03573652 0.030332057 0.07727989 -0.083497934
000080 46 95 a9 bd db 1e 4f 3d 3e 56 b6 bd 6b 2e 1a 3e
       -0.08280425 0.050566535 -0.08903168 0.1505677
000090 5d 43 8b 3d 1f 35 bc 3d 49 7f 2d bd 55 d8 51 bd
       0.06799958 0.091898195 -0.042357717 -0.0512317
0000a0 6a 4e a8 3d 3d fc 5f 3c e6 ae 2a 3d 99 74 73 3d
       0.08218081 0.013670978 0.041670702 0.059437368
0000b0 8f 1b 9d bc a3 37 b8 bd 32 7c 12 bd 65 39 8f 3d
       -0.01917818 -0.08994987 -0.035762973 0.06993369
0000c0 ce 3a d0 bc 9a ac b8 bc d4 38 a9 3c 6a 1d 11 3d
       -0.025418665 -0.02254324 0.02065698 0.035428442
0000d0 77 a7 90 bb ec d5 94 3c 86 bb b6 3c d8 b7 b6 bc
       -0.0044144946 0.018168412 0.022306215 -0.02230446
0000e0 a9 c5 f9 3d e3 ed ae bc 50 8b 93 bb a6 8a 2f bd
       0.12195904 -0.021353668 -0.0045026913 -0.042856835
0000f0 69 2c 82 3d dc 8e c2 3d a9 16 30 bd 72 51 77 3d
       0.06356127 0.094999045 -0.04299036 0.060380407

decoder.l1.2.weight f4 [128, 64]
000000 e4 05 8a bd bf 96 8b b9 f2 bb a9 bd 38 e8 32 be
       -0.06739405 -0.0002662446 -0.08287801 -0.17471397
000010 3a e6 a7 3c 48 c0 b6 3e 54 ea 8f 3e 01 5e 17 3b
       0.020495523 0.35693574 0.28108466 0.0023096802
000020 f8 b0 45 3d 3c 60 15 3e 8d 65 c1 3d 84 3c 4d 3e
       0.048264474 0.14587492 0.094431974 0.20042616
000030 90 1f 4b be 6b f8 2d be a8 72 b9 3e aa 5d 4c 3e
       -0.19836259 -0.16989295 0.36220288 0.19957605
000040 90 3a 46 be a0 e3 23 3e a4 38 46 be 2a 20 87 3d
       -0.19358277 0.16004801 -0.19357544 0.06597932
000050 d9 28 73 3e e1 9e 85 3d 6f 9b 75 3e 5a 34 31 3d
       0.23746051 0.06524444 0.23985074 0.043262817
000060 8c d4 a4 bc ca c3 2a 3c 0d 7c c9 bd ed 18 e5 bd
       -0.020120881 0.010422656 -0.09838114 -0.11186395
000070 80 14 b9 bd d9 a2 ca 3d b3 5b 39 3d 4e bc 03 bc
       -0.09037113 0.09894342 0.045253467 -0.008040501
000080 36 8f ee 3b 93 dc 2f be 2b f9 ed 3c 74 3b b8 bc
       0.0072802557 -0.17173986 0.029049477 -0.022489287
000090 4b ac 0b 3d e5 31 1c be b0 6b 6d 3e 54 75 47 3e
       0.03409986 -0.15253408 0.23185611 0.19478351
0000a0 19 0b 1a 3d 57 88 a6 bd dd 25 1d 3e 85 9b df bd
       0.03760824 -0.081314735 0.15346475 -0.10918335
0000b0 6d d0 7c 3e a8 9d d8 bd 73 2c 7f bd ff 7e 89 3d
       0.24688883 -0.105769455 -0.06229825 0.06713676
0000c0 e4 9f d7 3d a7 a8 af 3d 82 98 03 bd ca f1 df bb
       0.105285436 0.0857709 -0.032127865 -0.0068342434
0000d0 98 8b 50 be b9 43 1e 3e b8 6e 25 bd 14 bc 39 be
       -0.20365751 0.15455522 -0.040388793 -0.18138152
0000e0 a7 ef 98 bd 93 b1 36 3d 36 96 45 3e c7 87 44 be
       -0.07467585 0.04460294 0.19295582 -0.1919242
0000f0 be 98 cc 3d c1 94 1f be ca 8f 92 3e b9 58 2b bd
       0.09990071 -0.15584089 0.28625327 -0.04183266
000100 ca 9b e8 bc 68 8c e2 bc ca 1d 0c 3e b6 66 35 be
       -0.028394599 -0.027654842 0.13683239 -0.17714962
000110 47 c4 a7 bc cb e3 02 be a4 6b a4 3e 25 71 f1 bd
       -0.020479335 -0.12782209 0.32113373 -0.11789159
000120 b8 cc c3 bd 9a 24 90 3d 68 75 ba bd cf cc db 3d
       -0.095605314 0.07038231 -0.09104425 0.107324235
000130 68 9c ab 3e 06 ef dd 3c 56 ec 2d 3d 51 b5 8d bd
       0.33517766 0.027091514 0.042461716 -0.06919349
000140 85 09 05 3c 05 46 c8 3d ad 9d 8f 3e 90 c8 28 bd
       0.008119945 0.0977898 0.28049985 -0.041206896
000150 cd f9 fa 3d ee 80 92 3d be 5f d8 3d cc 4e 21 3d
       0.12254677 0.07153498 0.105651364 0.039381787
000160 73 a2 e7 bd 0c 53 1e 3d 3a 58 31 bd d8 26 ab 3d
       -0.113102816 0.03865342 -0.04329703 0.08357018
000170 cc 6f 14 3e 54 a0 d1 3c 0c 3f a5 bd ad e7 29 bd
       0.14495772 0.025589146 -0.08068666 -0.04148071
000180 be 16 51 3d c9 c5 60 3e ad 3b 80 bc 99 f0 d2 3d
       0.05104708 0.21950449 -0.015653456 0.102997966
000190 df e4 67 bd 6c cc af be 72 d3 4d 3b 67 a6 23 be
       -0.056614753 -0.3433565 0.0031406549 -0.15981446
0001a0 aa f2 16 3e 26 9e d0 bc 85 98 9a 3d 49 eb d2 be
       0.14741006 -0.025466036 0.07548622 -0.41195133
0001b0 df f0 4e be bb 18 3d 3d a1 20 05 be 1a 28 6d 3d
       -0.20209073 0.046166163 -0.13000728 0.057899572
0001c0 c0 5b 9e 3e 75 46 84 bd ac d9 01 be fa 80 23 3e
       0.30929375 -0.06458751 -0.12680691 0.1596717
0001d0 bc 9f e2 3a 01 43 c4 bd aa f3 46 3e 15 23 a5 bd
       0.0017290036 -0.095830925 0.19428888 -0.08063332
0001e0 69 dd 77 3e 8c 95 e2 3d f2 9d 30 3e d7 95 a1 be
       0.24205555 0.1106368 0.17247751 -0.3155963
0001f0 45 13 e1 bd 3a 60 13 3e 87 da 0c 3e ee de 59 3e
       -0.109900035 0.14392176 0.13755237 0.21276447
000200 72 e6 f6 3d c7 30 40 3d 39 25 d1 bd b1 61 00 bd
       0.12055673 0.046921518 -0.10212178 -0.031343166
000210 09 82 15 bd 1d c6 8a 3e f1 8f 18 3d 4b b0 7a bd
       -0.036500964 0.27104273 0.03724665 -0.061203282
000220 ac 65 f3 3d d8 11 34 be 0d 81 73 bc 0b f5 53 bc
       0.11884627 -0.17584932 -0.014862311 -0.012936841
000230 11 69 f7 bc 9c 79 a9 3d c9 3e a4 be b5 4d 26 3e
       -0.030201467 0.08275148 -0.3207915 0.1624058
000240 5a 26 8d be 19 5f 9a 3e c9 3d a1 bd 6b aa e8 bd
       -0.27568322 0.3015068 -0.07873113 -0.1136063
000250 61 3f b6 3d ec 6d 0b 3e e2 04 ed bd da 0d 64 3d
       0.08898807 0.1361615 -0.11573197 0.055677272
000260 fc 64 f9 3d ca af db 3c 63 97 af bd 3d 7e 17 bd
       0.12177464 0.026817221 -0.085737966 -0.036985625
000270 b9 ed a0 bd a6 b3 17 3e 00 2d 89 bd 79 a7 2f bc
       -0.07857842 0.14814624 -0.06698036 -0.010721081
000280 1e 7b d9 3a 35 63 c3 3c 18 a5 28 bd 95 13 27 3d
       0.0016592478 0.023851017 -0.04117307 0.04079016
000290 c8 6f e6 3c 3d 80 04 be 33 56 32 3d 3b d4 1b 3e
       0.028129473 -0.12939544 0.043539237 0.15217678
0002a0 df 39 0b bd b7 47 da bd bf 79 68 3e 12 bf 8f be
       -0.033990737 -0.1065821 0.22702692 -0.28075463
0002b0 6a 9d 39 be 10 79 0e 3e 42 5c a0 3d ec 66 c4 bd
       -0.18126455 0.13913369 0.07830097 -0.09589943
0002c0 4d 44 97 3e fd c3 e5 bd c6 9a 8f bd b7 6e 15 3d
       0.29544297 -0.112190224 -0.070119426 0.03648254
0002d0 43 3f 34 bd cb f6 a3 3e a4 c8 02 be a1 70 a6 bb
       -0.044005644 0.32024226 -0.12771851 -0.0050793444
0002e0 af 12 0b 3d 24 73 a7 3d ab 37 8d 3d ce 4e ce 3e
       0.033953365 0.08176258 0.068953834 0.40294498
0002f0 75 f8 a5 3d 5e 59 c1 3d 52 55 e0 bd 61 3c db bc
       0.0810403 0.094408736 -0.109537736 -0.02676219
000300 32 26 46 bd 73 d9 f6 3d cb d6 54 3d 60 a5 ac 3d
       -0.04837627 0.12053194 0.051962655 0.0842998
000310 a4 dc c0 bd 95 9d 07 be b0 17 93 3e 78 60 bf bd
       -0.09417084 -0.13243707 0.2872901 -0.09344572
000320 ab 77 c0 3d 88 62 3b ba e7 1f 6c 3d c9 9f 16 be
       0.09397825 -0.0007148166 0.057647612 -0.1470939
000330 a3 e6 af be b7 6c 3e 3d 4a e4 8c be e3 49 a4 3d
       -0.3435565 0.046490397 -0.2751792 0.08021905
000340 77 29 a1 3e fe bd ce 3c 40 b9 a7 3d 5c 6d ef bc
       0.31476948 0.02523708 0.081896305 -0.029226951
000350 74 4f 63 bc 3d 9e 2c bd 4b 16 09 be fa b3 06 bc
       -0.013873924 -0.042143095 -0.1338741 -0.008221621
000360 6b a9 fa 3d 68 37 44 3d 8a 0a 12 bd 41 66 ac bd
       0.12239345 0.047904402 -0.035654582 -0.08417941
000370 9f 71 5f bd 6b 6c 08 3e 33 6c 9d bc 1c 7d 1d bd
       -0.054551717 0.13322608 -0.019216632 -0.03844939
000380 18 2f 2d 3e c1 50 09 3e 02 b9 6d 3d cb 27 7d bd
       0.16912496 0.13409711 0.058037765 -0.061805528
000390 ce c7 ff 3d 79 2f 8c 3d 17 30 91 3e 3c ee 8b bc
       0.124892816 0.06844992 0.28357002 -0.017081372
0003a0 a7 e8 18 3d 3e c8 6e bd 4f 79 06 3e 7b 4d 1f be
       0.03733125 -0.058296435 0.13132213 -0.155569
0003b0 82 4b 8a 3e 50 64 9f ba 5b bb 28 bb da 77 0b 3c
       0.27010733 -0.0012160633 -0.0025746438 0.008512462
0003c0 1d 12 23 3d b8 2d 9e bd 9f ed 1e be 94 32 87 bd
       0.039812196 -0.07723564 -0.15520333 -0.06601444
0003d0 74 97 32 3d 68 21 56 bd 82 ef 7d bd d7 60 90 be
       0.04360147 -0.052277952 -0.06199599 -0.28198883
0003e0 7b ca ac 3d fc a3 55 bd b4 30 d6 3d 29 41 a6 3d
       0.084370576 -0.05215834 0.10458508 0.08117897
0003f0 b6 6c 0b be 6e 61 b4 3d c8 b3 91 3d da a8 c8 3e
       -0.13615689 0.08807646 0.07114369 0.39191324

decoder.l1.2.bias f4 [128]
000000 cc ef 96 3d 15 47 f0 3d 56 6f bd 3d 18 7a 47 bd
       0.073699564 0.11732308 0.09249751 -0.048700422
000010 65 93 31 bd 10 35 fc bc ae ce 58 3d 95 79 e3 38
       -0.043353457 -0.03078702 0.05293148 0.0001084685
000020 19 74 c8 3b 86 4f 11 39 99 47 e5 3d a7 cb 1b 3d
       0.0061173555 0.00013857902 0.11195297 0.038036015
000030 51 17 9b 3d 6d f6 42 3d 28 f5 32 3d 7c 2f 0f 3e
       0.075728066 0.04759829 0.04369083 0.13982958
000040 20 fb e5 3d 2f 41 c2 bd 1e ab 88 3c 7c 3a a8 bd
       0.11229539 -0.09485089 0.016683158 -0.0821428
000050 a9 81 0f 3e 06 7f 54 3d 44 94 c1 3d ad d9 8b bd
       0.14014305 0.05187895 0.094521075 -0.06828628
000060 be 93 d0 3c ac 26 ab 3d ba f6 78 3d 35 ae 10 3e
       0.025461074 0.083569854 0.06078217 0.14128955
000070 03 e9 c4 bc 07 00 6f bc 65 28 d6 bd d7 79 c9 bd
       -0.02403689 -0.014587409 -0.104569234 -0.09837692
000080 ac 94 b8 3d 94 09 97 bd 44 fa e5 3d bf c3 b7 3d
       0.09012732 -0.07374874 0.11229375 0.089728825
000090 76 80 ac 3d d2 ad 2d 3d 4c 9e 11 3c cf b1 a9 3a
       0.084229395 0.042402096 0.008887839 0.0012946668
0000a0 71 47 a3 3d 8a 07 b2 3d 49 ab b4 3c c2 b9 46 3d
       0.07972611 0.08692844 0.022054331 0.048516996
0000b0 bf 23 68 bd f4 68 87 3d 52 d2 ad 3c 2a 70 61 bc
       -0.056674715 0.06611815 0.021218453 -0.013759652
0000c0 97 80 c0 3d 47 82 84 3c 6f e9 c9 bd 8b 11 c2 3d
       0.093995266 0.016175402 -0.09858977 0.09476002
0000d0 d0 ad a6 3d 5a 5c 74 3d 20 34 9a 3d 13 0c b4 3d
       0.08138621 0.059658386 0.07529473 0.087913655
0000e0 92 f7 d1 bc c1 75 1f 3d ff 9d f3 3d 27 28 43 bc
       -0.025630746 0.03893066 0.1189537 -0.0119114285
0000f0 72 7b ec bd 21 71 9a bd ac 6e e1 3d de 43 8a bc
       -0.11546983 -0.07541109 0.11007437 -0.016878065
000100 aa 5c 26 3d 58 4d 06 3c fd e8 83 3d 7b fd 6d bd
       0.040615715 0.008197151 0.06440923 -0.058103066
000110 a4 f2 ed bd c9 f5 c0 3d e7 be 3e bd 86 1f 5b bd
       -0.11618546 0.0942188 -0.046568777 -0.05349686
000120 f5 cf ef bc 34 a2 14 3e 6a 0f e2 3d 28 b7 9a bb
       -0.029273966 0.14515 0.11038096 -0.004721541
000130 ed 0b 03 bd 97 65 a8 bd 77 65 8e 3d 19 b4 fc bd
       -0.031993795 -0.08222502 0.06952947 -0.123390384
000140 04 07 d9 3d 95 6f 06 3d df c2 7d 3d 37 d3 0e bd
       0.10597041 0.032821257 0.06195342 -0.0348694
000150 29 76 d7 3d b7 d5 0e 3e 40 22 1a bd da e8 66 3d
       0.10520584 0.13948713 -0.03763032 0.05637441
000160 af ff 8e 3d 86 cd b8 bd 5f ec 35 3d 49 ef 8b 3c
       0.069823615 -0.090235755 0.044414874 0.017081873
000170 fc f3 46 bd 16 a9 c3 bc 45 ab 00 3e c8 b3 f5 bc
       -0.048572525 -0.023884337 0.12565334 -0.029992953
000180 55 e2 fc 3d 68 29 85 3d f1 43 02 3e b2 e6 ae bd
       0.12347857 0.06502038 0.1272123 -0.085400954
000190 82 26 fb bb ec 1b 11 3e a3 86 57 3d 99 5a 2d bd
       -0.0076645026 0.14170808 0.052618634 -0.04232273
0001a0 0c 6c d3 3d 71 b6 8d 3d 3c bb c8 bd 50 a6 b3 3d
       0.10323343 0.069195636 -0.09801337 0.08771956
0001b0 79 2f e9 3d 0e a5 dc 3c 05 bd aa bd 49 79 7a 3d
       0.11386008 0.026934173 -0.08336834 0.061150823
0001c0 ae a3 d9 3a 91 10 77 3c 69 86 e0 bd 84 18 8a 3d
       0.0016604566 0.015079633 -0.10963137 0.06742957
0001d0 e0 6b 34 bd 7d 2b 91 bd ef 92 8a bd 33 e5 1b 3d
       -0.04404819 -0.07088373 -0.067663066 0.03806038
0001e0 8a de f9 bc ae a9 cd bd 75 f2 c0 bd 9d d0 51 3d
       -0.030501623 -0.100421295 -0.09421245 0.05122434
0001f0 30 88 77 3d ac 5b 72 3d c6 43 83 3d 38 5e 2f bd
       0.060432613 0.059169456 0.06409411 -0.042814463

exp_avg f4 [64, 128]
000000 d2 58 2b 32 51 00 3d 2d f2 25 b3 32 cc 22 f9 31
       9.973705e-09 1.0743476e-11 2.0855598e-08 7.2508097e-09
000010 36 60 2b 32 34 08 f9 31 cd eb 53 ac a0 a4 f8 31
       9.975386e-09 7.2477864e-09 -3.01158e-12 7.2364656e-09
000020 12 2b ee 32 59 9c 3a 07 53 b3 19 ac 38 58 f8 31
       2.7726433e-08 1.4039031e-34 -2.1842153e-12 7.2277793e-09
000030 13 27 86 2d 3c 13 b5 2b 7d eb 80 07 e5 da 53 ac
       1.5251389e-11 1.2866162e-12 1.9397707e-34 -3.0106414e-12
000040 7d eb 80 07 9a b7 2b 32 bb 23 f8 31 50 20 14 2d
       1.9397707e-34 9.995256e-09 7.221812e-09 8.420001e-12
000050 a6 d2 42 2d 04 00 00 00 58 9e 68 2b 39 60 2b 32
       1.1074397e-11 6e-45 8.2642703e-13 9.9753885e-09
000060 b8 c3 f8 31 f8 58 22 2b d9 9c 86 ac d1 db 9a ac
       7.2400006e-09 5.767743e-13 -3.8259227e-12 -4.4013478e-12
000070 05 17 5f 32 7b f3 c5 2d f1 f7 21 2b 09 08 a2 2d
       1.2985542e-08 2.2504434e-11 5.754278e-13 1.8420836e-11
000080 fc ea 3b 2c c6 6d 2b ac d0 63 70 32 84 5f f8 31
       2.670474e-12 -2.4361498e-12 1.3992533e-08 7.228609e-09
000090 58 9e 68 2b 52 db 86 26 9a ba 2b 32 28 f2 4c 2d
       8.2642703e-13 9.357565e-16 9.995938e-09 1.1649827e-11
0000a0 69 7d 7e 32 0b 73 f8 31 97 77 2b 32 52 db 86 26
       1.4813261e-08 7.230829e-09 9.980702e-09 9.357565e-16
0000b0 78 29 f8 31 44 72 2c 15 63 04 e8 19 0e 9b 2b 32
       7.2224644e-09 3.4825263e-26 2.399001e-23 9.988765e-09
0000c0 cf 11 23 2d 52 db 86 26 e8 d6 42 2d 6d e4 0a 1a
       9.269432e-12 9.357565e-16 1.1075342e-11 2.8722252e-23
0000d0 84 08 ff 2c 9f a8 a5 2d e5 da 53 ac f5 e7 9a ac
       7.2484813e-12 1.8833211e-11 -3.0106414e-12 -4.4026957e-12
0000e0 a5 40 8d 2d 58 86 65 2d 52 db 86 26 f1 f7 21 2b
       1.6058552e-11 1.3046973e-11 9.357565e-16 5.754278e-13
0000f0 e5 da 53 ac f2 a8 86 ac 52 db 86 26 aa b9 f8 31
       -3.0106414e-12 -3.8272658e-12 9.357565e-16 7.2388575e-09
000100 44 72 2c 15 7c fc a1 19 94 5c 51 2d 24 07 a2 2d
       3.4825263e-26 1.6748987e-23 1.1900831e-11 1.8420439e-11
000110 58 9e 68 2b 52 db 86 26 9c 5a e8 19 e5 da 53 ac
       8.2642703e-13 9.357565e-16 2.4024835e-23 -3.0106414e-12
000120 63 bd ea 2c 45 f8 56 2d a6 d2 42 2d e4 5f 97 07
       6.671706e-12 1.22196185e-11 1.1074397e-11 2.2776314e-34
000130 bc d7 0d 2d 58 9e 68 2b 52 db 86 26 7c fc a1 19
       8.062825e-12 8.2642703e-13 9.357565e-16 1.6748987e-23
000140 ec 5c 2b ac f1 eb 08 2d 33 6c 49 32 33 3b f6 ac
       -2.4352144e-12 7.7830945e-12 1.17243415e-08 -6.998313e-12
000150 be d8 42 2d df 8a f8 31 d2 58 2b 32 43 9a 76 2d
       1.107575e-11 7.2335378e-09 9.973705e-09 1.4017734e-11
000160 f1 f7 21 2b 65 f6 4c 2d 59 87 f8 31 04 00 00 00
       5.754278e-13 1.1650768e-11 7.233137e-09 6e-45
000170 2a 9f f8 31 53 b3 19 ac 69 10 c2 26 63 04 e8 19
       7.235845e-09 -2.1842153e-12 1.3465902e-15 2.399001e-23
000180 4f fd 17 2d 65 f6 4c 2d 3c f9 ae 2c e5 da 53 ac
       8.639602e-12 1.1650768e-11 4.973048e-12 -3.0106414e-12
000190 f2 d9 42 2d d2 8c 49 32 85 55 2b ac f1 f7 21 2b
       1.1076017e-11 1.1731759e-08 -2.4348034e-12 5.754278e-13
0001a0 52 db 86 26 c2 3d f8 31 1e be 2b 32 69 10 c2 26
       9.357565e-16 7.224771e-09 9.996738e-09 1.3465902e-15
0001b0 10 c3 05 ac 7b b4 f8 31 a3 c4 6c 15 f5 e7 9a ac
       -1.9008718e-12 7.238268e-09 4.781494e-26 -4.4026957e-12
0001c0 9d 20 61 2d d2 42 f8 31 f8 58 22 2b cd eb 53 ac
       1.2797011e-11 7.2253465e-09 5.767743e-13 -3.01158e-12
0001d0 5e 3b 22 2b e5 da 53 ac 04 00 00 00 bf 3d f8 31
       5.763635e-13 -3.0106414e-12 6e-45 7.2247697e-09
0001e0 4d 5d f8 31 28 f2 4c 2d 7d 31 f8 31 76 f9 4c 2d
       7.228357e-09 1.1649827e-11 7.223376e-09 1.1651449e-11
0001f0 c6 6d 2b ac 69 10 c2 26 04 00 00 00 c6 6d 2b ac
       -2.4361498e-12 1.3465902e-15 6e-45 -2.4361498e-12
000200 14 37 8b 37 bd be ca 36 bb c9 1a 38 d3 3c de 37
       1.6595739e-05 6.042274e-06 3.6904337e-05 2.6492786e-05
000210 8f 44 17 36 c6 72 25 38 16 f7 7c 38 0a 39 f2 37
       2.254066e-06 3.9445957e-05 6.03116e-05 2.8875209e-05
000220 a6 5b b9 38 67 31 0b 38 7d 20 a8 37 3f cd 0c 38
       8.838558e-05 3.3186192e-05 2.004229e-05 3.356975e-05
000230 f5 59 91 35 13 b2 17 37 11 c6 68 37 eb 25 38 38
       1.0829523e-06 9.0417625e-06 1.38743935e-05 4.3904332e-05
000240 1d 97 01 38 1d 71 09 b7 03 8e b9 37 da d2 5c 37
       3.0896732e-05 -8.192173e-06 2.2119848e-05 1.3162115e-05
000250 76 41 42 38 21 89 87 38 6c 81 d2 37 89 0a 42 38
       4.631417e-05 6.462844e-05 2.5094218e-05 4.6263016e-05
000260 de 05 9d 37 f1 84 ae 37 46 d6 9c 37 3d a3 98 37
       1.871859e-05 2.0804322e-05 1.8696428e-05 1.8195826e-05
000270 e9 57 d1 37 bb 9b 2e 37 8b 72 ad 37 64 07 3d 38
       2.4955678e-05 1.0407467e-05 2.0676545e-05 4.5067995e-05
000280 89 d6 b2 b7 03 54 a5 37 c4 89 09 36 d6 18 db b7
       -2.1319154e-05 1.9708654e-05 2.049478e-06 -2.61184e-05
000290 92 b1 5f b7 9a 37 d6 37 16 2f 62 36 df 3d 17 37
       -1.333318e-05 2.553668e-05 3.3704032e-06 9.014707e-06
0002a0 d8 03 85 b6 5d c5 56 37 05 aa d8 37 91 7d 0a 38
       -3.9641563e-06 1.2801346e-05 2.5828378e-05 3.3018707e-05
0002b0 2f c9 36 37 4e 91 59 37 65 a8 fa 36 8d 0c 21 36
       1.0894887e-05 1.2968039e-05 7.4701843e-06 2.3998175e-06
0002c0 e0 cb f1 37 be 3b 20 38 17 2b 59 b6 2c 9e 2a 38
       2.8824375e-05 3.8202612e-05 -3.2360601e-06 4.0678467e-05
0002d0 b7 6f 15 38 b0 27 5d 38 c9 dd 88 37 a2 39 27 37
       3.562841e-05 5.2727468e-05 1.631574e-05 9.967394e-06
0002e0 45 8a ac 37 94 6a c1 37 17 58 b6 37 f6 91 5d b6
       2.0568385e-05 2.3057022e-05 2.173711e-05 -3.3016527e-06
0002f0 a2 72 16 37 74 cc b6 b6 1e c0 c4 37 86 a4 54 37
       8.967387e-06 -5.447824e-06 2.3454482e-05 1.2674491e-05
000300 34 1d 66 b6 e7 d1 ef b6 0d e2 dc 37 7b ff 9a b7
       -3.428967e-06 -7.147191e-06 2.6331307e-05 -1.8477198e-05
000310 b0 0e da 37 7e 38 2a 38 2b df 0d 35 7b 2d e8 37
       2.5994465e-05 4.058377e-05 5.2851345e-07 2.7677734e-05
000320 7a 8f 89 b7 90 17 e2 35 96 a9 fa 37 02 ed 32 38
       -1.6398484e-05 1.684517e-06 2.9881292e-05 4.2659238e-05
000330 eb f3 ba 37 e7 d8 39 b7 97 34 ed 37 10 10 3a 38
       2.2286511e-05 -1.1077361e-05 2.827709e-05 4.4360815e-05
000340 7c 25 c6 b7 2a ff 44 37 3f c0 d5 b3 54 0b 99 b7
       -2.3620894e-05 1.174192e-05 -9.953555e-08 -1.8244296e-05
000350 18 15 f5 37 6c 7a cf 37 4e 18 4c b6 b9 f2 24 b7
       2.9216098e-05 2.473333e-05 -3.0412516e-06 -9.831675e-06
000360 60 fb 92 37 d7 61 3d 38 ca ad 66 37 7e c6 dc 36
       1.7521612e-05 4.5152232e-05 1.3749532e-05 6.5796185e-06
000370 a5 4a 2c 38 a5 5f 61 b7 d7 99 9b 36 93 12 46 37
       4.1077514e-05 -1.3433314e-05 4.6372693e-06 1.1806044e-05
000380 fd b8 a4 37 43 c0 af 37 b0 16 d5 35 94 66 b7 36
       1.9636465e-05 2.0951155e-05 1.587634e-06 5.4657667e-06
000390 43 ed 39 36 5d d6 8f b7 9f f8 8e 37 54 d0 c4 35
       2.7705253e-06 -1.7146749e-05 1.7043492e-05 1.466377e-06
0003a0 31 85 00 b7 97 c7 d3 37 5a 8b 73 38 56 f1 e3 37
       -7.660406e-06 2.5246101e-05 5.8065496e-05 2.717289e-05
0003b0 d4 eb 56 37 9d 7f 13 38 1d 2b 07 38 46 0d 0f 38
       1.2810302e-05 3.516638e-05 3.222666e-05 3.410622e-05
0003c0 22 cb 32 38 0f dd 5f 37 ec 6d 88 36 6a 08 1b 35
       4.262769e-05 1.3343305e-05 4.0659124e-06 5.7754244e-07
0003d0 6d a3 59 38 b2 fa ba 36 56 5b c2 37 8f 18 c1 36
       5.1889034e-05 5.5724167e-06 2.3169134e-05 5.754707e-06
0003e0 e5 cf 9d 37 bb 6d d7 34 69 f1 0b b6 81 c3 9e b6
       1.8812667e-05 4.012671e-07 -2.0853133e-06 -4.7315266e-06
0003f0 ed e5 6f 38 c2 96 10 37 e9 5b 21 38 05 d6 b8 37
       5.7196175e-05 8.61817e-06 3.847099e-05 2.203417e-05
