src/projects/scrnaseq_project/lightning_logs/ae_experiment/version_1/checkpoints/epoch=3-step=2788.ckpt (torch, 310195 bytes, 24 tensors)

encoder.l1.0.weight f4 [64, 128]
000000 fe 1d f7 3d 39 7e 2e 3e 82 d9 c8 bd f6 3b c3 bb
       0.120662674 0.17040338 -0.09807111 -0.0059580756
000010 ab 09 a3 ba b8 70 8e 3b 68 9f 49 3e 53 73 fc 3d
       -0.0012438794 0.004346933 0.19689715 0.12326684
000020 90 49 ba 3b 37 4f 56 3d 0d ab ea 3c 31 76 54 bd
       0.005685039 0.05232164 0.028646016 -0.05187053
000030 af 47 a7 3e f9 3c 14 3d 92 ea 8d 3d e0 e5 bf 3d
       0.32671878 0.03619096 0.06929506 0.09370017
000040 64 55 1c 3e d4 ff b1 bd c7 88 f3 3c 3c 88 f9 bd
       0.15266949 -0.086913735 0.029728306 -0.12184188
000050 c0 bb cc 3d 67 e4 b7 3a 85 b7 2c 3e 30 32 18 3d
       0.09996748 0.0014029861 0.16866882 0.037157238
000060 1a 19 31 3e 68 84 41 be 1d a4 db 3d ec 96 22 bc
       0.17294732 -0.18898165 0.107246615 -0.009923678
000070 c6 e7 8d 3d cb 8a 4a be 67 b7 98 3d ef 6b 8e 3d
       0.06928973 -0.19779508 0.07456856 0.069541804
000080 59 18 4d bd 8d 09 c6 3c f5 70 e4 3d 62 92 1d be
       -0.050072048 0.024174476 0.11154357 -0.15387872
000090 09 2a 53 bd af bb a7 3c ee 53 b1 3d 0c 11 e5 3c
       -0.05155376 0.020475237 0.086585864 0.02796223
0000a0 b2 7b cc 3d 7f 48 cd bc f6 d4 4f bc de ea a2 3d
       0.099845305 -0.025058983 -0.012685051 0.079549536
0000b0 21 ab 44 3d 75 20 94 3d 27 56 54 3c b3 fa 2c bd
       0.048014764 0.07232753 0.012959993 -0.042231273
0000c0 d5 1e af 3d d1 f7 ee 3c 19 27 cc 3d 04 47 80 be
       0.085508026 0.029170902 0.09968395 -0.2505418
0000d0 ca ac df bd c2 7e cd 3c 26 d5 c2 3e 4a f8 37 3e
       -0.10921629 0.025084857 0.38053244 0.17965809
0000e0 75 7b 7e 3d 0f d9 82 bd ea d8 b5 bd ec 51 68 3d
       0.062129457 -0.06389057 -0.08879264 0.05671875
0000f0 f0 82 a2 3c 15 70 2d be ef 05 a1 3d 16 31 22 bd
       0.019837826 -0.16937287 0.0786246 -0.039597593
000100 e6 e4 07 bd fc f9 81 3c 3d a7 65 bd c7 93 87 bc
       -0.03317728 0.015866272 -0.056067694 -0.016549958
000110 67 60 87 3d 0c 89 1a 3d 38 18 8a bc ca fb 38 3c
       0.06610184 0.037728354 -0.016857252 0.0112905
000120 0d 59 96 bc 39 61 c1 3c 8f ed cc bc 0f ee 91 bd
       -0.01835301 0.02360593 -0.02501562 -0.07125484
000130 67 fb 48 3d c0 d2 20 be 05 b2 45 3e f3 29 78 bd
       0.04906788 -0.15705395 0.1930619 -0.06058688
000140 09 95 b8 bd c4 98 48 3d cd 3f d7 bb c8 35 0d 3e
       -0.09012801 0.048973814 -0.006568885 0.13790047
000150 4c 0d 7c 3d 13 39 83 3d ed 5a 11 3e a4 28 be bc
       0.06153612 0.064073704 0.14194842 -0.023212738
000160 08 26 d3 bd 4a 6b 83 3d b7 4a 8c bd fe 68 83 bd
       -0.10309988 0.06416948 -0.06850188 -0.0641651
000170 e5 89 a4 3d bf c1 58 3d 2e 6d 1a be d3 3b ff 3c
       0.08034114 0.052919146 -0.15080711 0.031156456
000180 17 84 07 3e 9c 78 a8 3d 13 fc 0a 3e 90 bf 89 3d
       0.13233982 0.082261294 0.13572721 0.06725991
000190 9a 5b 69 3d 1c 9b 91 bc 91 40 cd 3d 81 02 2d 3c
       0.056972124 -0.017774157 0.10022081 0.010559679
0001a0 1d b4 ea 3d 76 93 be 3b 49 63 3e bd e2 c6 5f be
       0.11460135 0.0058159186 -0.046481404 -0.21853212
0001b0 82 c7 fc 3c fe 7c da bd 1e 91 1f 3e 38 5d 8c 3d
       0.030856851 -0.106683716 0.15582702 0.068537176
0001c0 25 5a 76 bd 03 97 08 3e c3 e4 22 bd 3b b9 8d bd
       -0.060144562 0.13338856 -0.039768945 -0.069200955
0001d0 f2 cd 0d be ce 19 1a 3c d8 2b 93 3d d3 93 8f 3c
       -0.13848093 0.009405566 0.07186097 0.017526543
0001e0 26 7f 9a 3d 49 38 28 3a d7 ff d8 3c cc 67 9c 3c
       0.07543783 0.00064170785 0.026489181 0.019092463
0001f0 37 30 66 ba c3 17 11 bd f0 dd 0b be 49 d4 d3 bd
       -0.0008780988 -0.03542305 -0.13658881 -0.103432246
000200 38 cc f2 3c f0 8c a0 3d f9 97 11 3e 72 29 4b 3b
       0.029638395 0.07839382 0.14218129 0.0031000045
000210 39 24 d8 3b 7d 63 19 3e 30 25 20 3c 91 67 d3 3d
       0.006596115 0.14979358 0.009774491 0.10322488
000220 ae 26 cc 3c 81 9a 9c 3c 33 0a 0d be 23 ce 46 3d
       0.024920788 0.019116642 -0.13773422 0.04853643
000230 52 3d 8b 3d 8a 16 d6 bd 08 f2 e4 bd 61 b4 90 3d
       0.06798805 -0.10453518 -0.11178976 0.070656545
000240 55 54 c4 bc 9e 95 28 be 01 3c 3a be 52 ba 1c 3d
       -0.023965994 -0.16463324 -0.18186952 0.038263626
000250 45 62 93 bd 74 6c 10 bc e4 9c be bd ca 73 bc 3b
       -0.07196478 -0.00881492 -0.09307268 0.005751108
000260 5e 1f 6f 3d a3 f8 76 bd 53 d8 87 bd 8c 2a 05 3e
       0.058379523 -0.060295712 -0.066330574 0.13004512
000270 80 5c d1 bc 01 ef f6 3d be 75 61 3d 8f 9b 6f 3d
       -0.025556803 0.12057305 0.05504393 0.05849796
000280 e1 6a b4 bd 39 e4 26 bd 8b db d8 bd 4c fb de bd
       -0.08809448 -0.040744994 -0.105887495 -0.10887775
000290 89 e8 00 be 9d 2c 36 3e 7f 7f 11 3c 12 69 8b 3c
       -0.12588705 0.17790456 0.008880495 0.017017875
0002a0 50 ed 62 be a6 72 8b 3d 5b d1 d8 3c 0d d1 27 bd
       -0.2216084 0.06808977 0.026467016 -0.04097085
0002b0 22 eb ad bc ea b4 8f 3d 37 21 65 3d 07 01 a7 3d
       -0.021230284 0.070169285 0.05593988 0.08154493
0002c0 23 06 c0 3d 07 70 88 bd a9 d1 01 3c 4a 18 8f 3c
       0.093761705 -0.066619925 0.007923522 0.017467637
0002d0 34 ec 35 3d 36 f2 2e 3d 55 f7 c1 bb 00 5c b8 3b
       0.044414714 0.04271146 -0.005919377 0.0056262016
0002e0 9d 6c 9a bd 4d a3 1a 3e 26 f7 b1 3d 5a 94 45 be
       -0.075402476 0.15101357 0.08689718 -0.19294873
0002f0 4a 05 d0 3c 46 c0 c8 3d 5e c3 98 3d cd 83 e5 3d
       0.025393147 0.09802298 0.07459138 0.1120678
000300 c6 75 0c 3e 71 d6 87 bd c2 20 a9 3d f3 3c 3f 3b
       0.13716802 -0.06632698 0.08258201 0.0029180616
000310 14 58 9e 3d 47 b5 ef 3c e8 2f 26 3d 8a 9d 6a 3d
       0.07731643 0.029261244 0.04057303 0.057279147
000320 6f 12 5c bd 1e eb 07 be f8 fc 6d be 2b 1b 19 be
       -0.053728517 -0.13273284 -0.23241031 -0.1495177
000330 12 9b 37 3e 4d 97 fd 3d f3 1c 70 3c 56 c0 68 3e
       0.17930248 0.12382374 0.0146553395 0.2272962
000340 e2 50 db 3d 15 3a a9 3d 3a 2f d1 3d f4 0c 0a 3d
       0.107087865 0.082630314 0.10214086 0.03370376
000350 f8 e7 44 3e 3e 7f 09 3c cd 36 a2 3d 38 7e c2 3c
       0.19229114 0.008392153 0.07920609 0.023741826
000360 7f c6 9b bd 27 ed 89 3d 18 3f 6e bd 56 9a 20 bd
       -0.076062195 0.06734686 -0.05816564 -0.039209686
000370 d7 d7 b4 3b 8d f2 1b be 5f 4f ac bd 93 eb a7 bd
       0.005518894 -0.15229245 -0.08413576 -0.08199229
000380 f8 be 8d bd b9 13 c9 3d 1f c2 c9 bd 59 72 a4 bc
       -0.0692119 0.09818215 -0.09851479 -0.020074056
000390 32 bb 49 3c 44 fc bd 3d 00 10 ca 3d 06 8f 58 3e
       0.012312697 0.092766315 0.09866333 0.21148309
0003a0 32 2d 61 bc 7f fd 87 3d a9 9b 87 bd 5d 45 4b 3a
       -0.013743686 0.066401474 -0.06621487 0.00077541714
0003b0 e5 bb c1 bd 7f a6 19 3d 1a 62 ab bd 08 a3 19 3d
       -0.09459666 0.0375123 -0.08368321 0.037508994
0003c0 99 84 c0 3d 26 48 23 bd 01 ed d1 ba 86 db ed 3b
       0.09400291 -0.039863728 -0.0016016067 0.0072588352
0003d0 1a 9d c0 3d 64 0b a7 3a ab a2 d5 3d bf a1 16 be
       0.09404965 0.0012744484 0.10431417 -0.14710139
0003e0 34 e3 bc bd 74 fb 94 bd 9e 11 39 bd 03 d1 6a 3d
       -0.09223023 -0.072745234 -0.045182817 0.057328235
0003f0 f0 b8 0f 3d 31 04 66 3e 29 48 fc bd 6a 14 a3 bc
       0.03508848 0.22462536 -0.12318451 -0.019907195

encoder.l1.0.bias f4 [64]
000000 d6 58 92 bc d8 57 cc 3d bf 32 5b bd e5 e9 e8 bc
       -0.017864626 0.09977692 -0.053515192 -0.028431842
000010 b6 94 3e 3d eb 56 48 bd 83 e9 9a bc 92 1d 30 bd
       0.04652854 -0.048911016 -0.018910175 -0.04299695
000020 ef 49 30 bd aa 0e fc 3d ac c6 54 bd f6 ac a1 3a
       -0.04303926 0.123074844 -0.05194728 0.0012334872
000030 02 dd 6a bd 69 48 2b bd f8 2d a2 3d 09 18 41 3d
       -0.057339676 -0.041817103 0.07918924 0.047142062
000040 29 ad 85 3c 2e de 94 3b e9 b8 0f 3c 5a b8 f9 3c
       0.01631792 0.0045430874 0.008772113 0.030483413
000050 e0 5b fb 3d b4 09 99 3c 37 4a aa 3d ad c0 7e bd
       0.12273383 0.018681385 0.083149366 -0.06219547
000060 0c aa 0f 3d 34 47 da 3d 30 5a 9e bd c6 1b 05 bd
       0.03507428 0.10658112 -0.07732046 -0.03249719
000070 f9 ff 25 bd 57 18 0c 3e 7d 2e 92 bd b9 60 c0 bc
       -0.040527318 0.1368116 -0.07137773 -0.023483621
000080 ef 72 8d 3c 2d d0 20 3d fa 7f 18 3c a4 3c 4b 3c
       0.017266719 0.039261032 0.009307856 0.012404595
000090 7d f5 fd 3d ce f7 02 3d 9d 0d e0 3d 95 f9 df bd
       0.12400339 0.031974606 0.109400965 -0.10936276
0000a0 74 21 89 bd 30 22 ca bd 6f ea e5 bc 06 6d 1a 3d
       -0.06695834 -0.09869802 -0.028065888 0.03770163
0000b0 32 7c 17 3b b7 ed 03 bc 66 c9 17 bc 38 85 64 bd
       0.0023114798 -0.008052281 -0.009264326 -0.05579111
0000c0 95 62 d0 3d 9a d4 d5 3c f4 f1 2a 3e 9f bd 88 3c
       0.10175053 0.026102353 0.1669386 0.01669198
0000d0 eb d6 2b 3d 3a 14 2b 3c 1a 52 4c ba 6b 22 f8 bc
       0.04195301 0.010441834 -0.00077942165 -0.03028985
0000e0 9e 2a 5f bd 11 4c c7 3c a9 06 71 39 1e c3 32 bb
       -0.054484002 0.024328263 0.00022986032 -0.0027276943
0000f0 01 98 cf bd 86 d6 75 3d 5c 4f e0 3c f3 84 ed 3c
       -0.10136414 0.06001904 0.027381591 0.02899406

encoder.l1.2.weight f4 [64, 64]
000000 2c 2c e6 3d 58 b3 2d be e4 78 c8 bd 46 fd 89 bd
       0.11238894 -0.16962945 -0.09788683 -0.06737761
000010 7e 7d 09 bd f0 f2 34 bd 43 55 ea 3b ae be db 3c
       -0.033566944 -0.044176996 0.0071512773 0.026824322
000020 8d 9c e4 bd 36 40 83 bd 22 03 08 bc 8d 80 f7 bd
       -0.11162672 -0.06408732 -0.008301528 -0.12085066
000030 05 7d af 3e cf b2 8e ba f6 b6 bd 3c a6 ed f3 3c
       0.3427507 -0.0010887029 0.023158532 0.029776406
000040 83 d8 d0 3d 24 dc bc bd a3 c6 39 bb 5d ea 3d be
       0.10197546 -0.09221676 -0.0028347156 -0.18546434
000050 3f 46 f8 3d b4 ad 7d bd 66 c8 82 bd 09 1d 2b 3b
       0.121227734 -0.061933234 -0.06385879 0.0026109836
000060 39 43 62 be d9 20 35 be 14 bc 1e bd f9 2f 1f 3d
       -0.22095956 -0.17688312 -0.038753584 0.03886411
000070 82 7d 46 3c d5 5a 71 be e2 a1 9d bd 48 39 3d 3d
       0.012114884 -0.23569806 -0.07696892 0.046197206
000080 40 11 e8 3d 19 f5 86 bc 10 a0 9b 3d d9 33 bd 3d
       0.11331415 -0.016474294 0.07598889 0.09238405
000090 62 80 17 3d de 50 a1 3d 1b 1f 10 be 56 af e3 bb
       0.03698767 0.07876752 -0.14074366 -0.006948392
0000a0 e3 79 d9 3d ad df 2b 3d 99 0b e2 3d 61 c8 03 3e
       0.10618951 0.04196136 0.11037368 0.12869407
0000b0 ac ac 6f 3b 4f af bc 3d ef 06 54 3d 8d 13 94 bd
       0.0036571426 0.09213125 0.051764425 -0.072302915
0000c0 b7 e1 aa bc c8 d2 31 bd 1b 2b 63 3d 94 7c 05 3e
       -0.020859582 -0.043413907 0.05546103 0.13035804
0000d0 61 a5 2f 3e 43 45 61 3d bf ef 05 be 47 18 08 be
       0.17152931 0.054997694 -0.13079737 -0.13290511
0000e0 57 7d 01 3e 93 4d b3 bd be 74 a1 3d dc a2 ce 3c
       0.1264547 -0.087550305 0.07883595 0.025224142
0000f0 18 d5 97 3c a5 fe 74 3d 8e cd 47 3d 17 22 e4 bd
       0.018534228 0.05981316 0.048780017 -0.111393146
000100 e7 b8 3e 3d 48 46 7b 3d cc c8 08 3d ae 65 63 be
       0.046563055 0.061346322 0.03339462 -0.22206756
000110 c7 30 f1 3d 52 52 50 3d c3 14 8d be 02 fa b6 bd
       0.11776882 0.050859757 -0.27554902 -0.08934404
000120 d8 9e 07 3c 1f 46 e4 3d 75 bf 63 3c 7d 82 95 3c
       0.008277617 0.11146187 0.013900627 0.018250698
000130 cd 00 1f bd ee 89 e9 bd 03 ca 35 3e 24 b2 5b bc
       -0.038819123 -0.11403261 0.17752843 -0.013409171
000140 93 ae 98 be 1c dd a0 3d e3 13 9a 3d 44 c1 e8 bd
       -0.2982069 0.07854673 0.07523324 -0.113649875
000150 0b 5a 5a bd 22 71 f4 bc 1b 73 4d 3c 73 28 7f 3e
       -0.053308528 -0.029839102 0.01253965 0.24917774
000160 09 f2 62 3e 97 cb 98 be 63 06 04 3d 14 9a 8a bd
       0.22162642 -0.29842827 0.032232653 -0.06767669
000170 5b 26 06 3e 83 23 2b be a0 78 23 3e b2 6c 5c 3d
       0.13100569 -0.16712765 0.15963984 0.053814597
000180 ff 73 3d be f8 93 b0 bd e3 97 99 bd ef be 16 bd
       -0.1850128 -0.08621973 -0.07499673 -0.036803182
000190 23 37 ab 3d 7e cc d0 3d 22 ff ce 3d a5 71 c0 bd
       0.08360126 0.10195254 0.101072565 -0.09396676
0001a0 8c e0 d4 3d 27 d5 8d bd b4 76 09 3e b2 30 42 3c
       0.103943914 -0.06925421 0.13424188 0.01185243
0001b0 ae a3 36 3d 5f d6 90 3d c8 6f e9 3d 29 8e fc bd
       0.04458969 0.07072138 0.11398274 -0.123318024
0001c0 bf e5 9f bd f2 7c 88 bd 7f fa bc be 42 de 61 3d
       -0.078074925 -0.066644564 -0.36909863 0.055143602
0001d0 30 c6 8e 3d 93 a4 cf 3d 75 52 94 3c ce b7 2f be
       0.06971395 0.10138812 0.018105725 -0.1715996
0001e0 9a cd bc bc 76 f5 62 3e ae 5b 9f 3d 5e bd 85 3d
       -0.023047257 0.22163948 0.077811584 0.065302595
0001f0 13 08 d1 bd ae 8b e5 bd 5c f6 40 bc 6e 67 ff 3b
       -0.10206618 -0.112082824 -0.011777487 0.007794312
000200 fe 26 fe 3d 7b b7 2e bd 47 81 39 bd 27 71 05 be
       0.12409781 -0.04265545 -0.045289304 -0.13031445
000210 b8 96 58 be 6d 8b da bd 53 bb e1 bd 9c 83 c5 3d
       -0.21151245 -0.106711246 -0.110220574 0.09644243
000220 9c 62 db bd b3 3c 7a bb 91 e3 ce bd 1f 94 47 bd
       -0.107121676 -0.0038183152 -0.101019986 -0.048725244
000230 f4 19 5e 3e 41 b5 4a 3d a2 0d 7d 3d c5 6a b5 3d
       0.21689588 0.049489263 0.06178058 0.08858255
000240 18 85 58 bd 04 0e ef bd c8 13 49 bd 87 89 cb 3c
       -0.052861303 -0.11672595 -0.04909113 0.024845852
000250 a7 e6 d8 bd b6 08 51 3c 6f 9e 5b be 74 07 8f bd
       -0.105908684 0.0127584245 -0.21447156 -0.069838434
000260 af 98 71 3e cc 1a 7b 3b 03 83 0b bd 3a d3 95 bd
       0.235934 0.0038315533 -0.03406049 -0.07315679
000270 d3 d2 20 3c 40 59 08 be f0 86 bb bb d3 4e b0 3d
       0.009815889 -0.13315296 -0.005722873 0.086087845
000280 5a 5e 0c be b5 58 99 3d a6 60 2f 3e 6b 7a 91 3d
       -0.13707867 0.07487623 0.17126712 0.071034275
000290 51 e3 e5 be 30 11 ea 3d bd b2 4e bd a0 ba 13 be
       -0.4489999 0.114290595 -0.050463427 -0.1442666
0002a0 89 56 dd 3c 56 30 3a 3d b4 0b da bd 7c a0 03 3e
       0.027018802 0.045456253 -0.106467634 0.12854189
0002b0 d9 12 73 bd bd 79 92 3b 37 29 9d be 81 6e a5 bb
       -0.059344146 0.0044700787 -0.30695507 -0.0050485735
0002c0 51 5f 63 bd 4b a4 ff bb 44 3e 1e 3c e3 4a e2 3d
       -0.055510823 -0.0078015677 0.0096584 0.1104944
0002d0 54 09 bd 3b f6 7a 9e 3d 16 bc ef bd f4 43 7a ba
       0.0057689343 0.07738297 -0.117057964 -0.0009546869
0002e0 1e a8 02 3e 45 59 06 3e 3a fd ba 3d 89 df 22 be
       0.12759444 0.13119991 0.091303304 -0.15905584
0002f0 23 0a 6f bd 9e 71 96 bd eb f9 3b bd 8b ae 99 3e
       -0.058359277 -0.073458895 -0.045892637 0.30015978
000300 3d 5e ea 3a 4c 50 d8 bc f6 92 04 be 1d 96 8f 3d
       0.0017880868 -0.026405476 -0.12946686 0.07011054
000310 e5 5b 0a be 17 68 15 bd 11 46 23 3d b6 09 f9 bd
       -0.13511617 -0.03647622 0.039861742 -0.12160055
000320 3a 83 28 bd 8f 94 29 3e 9f 32 2a bd 63 8b d7 3d
       -0.041140772 0.16560577 -0.041552182 0.10524633
000330 be 14 1c be f0 51 9f bb 75 d4 f9 3d 2a e6 a0 3c
       -0.15242288 -0.0048620626 0.12198726 0.019641
000340 a4 20 be bd 1e 97 05 3d 3a e6 c0 bd 00 8f 4d be
       -0.092835695 0.03261482 -0.09418912 -0.20074081
000350 44 f1 2f 3e fa 10 af 3d dd e6 9f bd 7e 0d 18 bb
       0.1718188 0.0854816 -0.078077056 -0.0023201401
000360 c7 f2 24 be b1 b7 7e be 5f 73 82 3d a0 ba 92 bd
       -0.16108237 -0.2487476 0.063696615 -0.07164502
000370 c0 54 69 bd ac b9 38 bc df bb 9f bd 5c 1e 4c 3d
       -0.05696559 -0.011274736 -0.077995054 0.04983364
000380 4d 06 12 be c2 2a ee bd 7b f2 8d 3d ad 59 77 bc
       -0.14260216 -0.11629249 0.06931015 -0.015097064
000390 94 31 55 3e 92 33 1e be c6 70 fc 3c 4a 77 d3 bd
       0.20819694 -0.1544936 0.030815493 -0.10325487
0003a0 a1 dd 32 3d a2 12 f5 bd c3 1e a1 bd 10 36 4b 3d
       0.043668393 -0.119664446 -0.078671955 0.049612105
0003b0 c7 66 d6 bd 51 15 cb 3c 8e ed 9d bd 4b 88 3c bd
       -0.10468822 0.024790438 -0.077113256 -0.046028417
0003c0 66 a5 f7 3c 81 99 aa 3d 35 3d 52 3d bf f6 23 be
       0.030230235 0.0833006 0.051327903 -0.16012095
0003d0 b0 e4 0f 3e 63 12 e4 bd 7e 8b b8 bd 52 11 48 3d
       0.14052081 -0.111363195 -0.09010981 0.048844643
0003e0 d5 a0 92 3d ea e1 11 3d 40 95 2d 3e a4 3d bd bd
       0.071595825 0.03561584 0.16951466 -0.09240273
0003f0 11 f3 9a bd 86 04 90 bd 74 c2 c2 ba cd 44 c8 3d
       -0.075658925 -0.07032113 -0.0014858977 0.09778748

encoder.l1.2.bias f4 [64]
000000 db 8c a7 3d cd bd ac 3d 9e df b9 3c 4c 87 56 bd
       0.08181163 0.08434639 0.022689637 -0.052375123
000010 e7 c5 2e bd 30 fa 0f bb e0 4d 03 3b 98 8e 8d bc
       -0.042669203 -0.0021969192 0.002003543 -0.017279908
000020 87 7d 8e 3d 74 9c 32 bb e1 44 e9 bd b0 00 20 3d
       0.06957536 -0.0027253898 -0.11390091 0.039063156
000030 ec d9 0f be 2b 40 0b 3d 7e e8 94 3b 3c 21 d7 bd
       -0.14047974 0.033996742 0.004544317 -0.10504386
000040 05 2d e3 bb f3 b4 a2 bd 29 23 23 bc d5 e5 e3 3d
       -0.006932857 -0.079446696 -0.009957113 0.11127821
000050 ce 08 fb bd ff 49 ef 3d 9b 7b 95 3d 32 72 05 3d
       -0.12257539 0.116840355 0.072989665 0.03257961
000060 e7 d6 b5 3c ee 49 5c bd 0c 34 54 3d f7 d8 a2 bd
       0.0221972 -0.053781442 0.05180745 -0.07951539
000070 72 c1 4f bd 46 27 98 3d 7b 7c a6 bd f6 61 d1 bd
       -0.050721593 0.07429366 -0.081292115 -0.10223763
000080 c9 32 0d 3c a8 f2 df 3b 7b 35 a3 3c bb 88 99 bd
       0.008618065 0.006834347 0.019922962 -0.074967824
000090 58 e7 03 3e 16 db ad bc c9 20 02 be a6 a0 92 3d
       0.1288122 -0.021222632 -0.12707819 0.071595475
0000a0 9e 20 01 bc 3a 62 be bc 4e f8 bd bd 9b f8 4d bc
       -0.007881312 -0.023240197 -0.09275876 -0.012571479
0000b0 51 f0 39 bd 14 bd d4 3c 9a 90 86 3d 72 1b ab bd
       -0.0453952 0.025969066 0.06570549 -0.08354844
0000c0 5d a0 13 be 8a 1a 81 3d a1 2e b3 3d b6 3d 06 be
       -0.14416642 0.0630389 0.08749128 -0.13109478
0000d0 df 50 61 3c 0f a2 5e 3d c5 fa 82 3d ba 56 a7 3d
       0.013752191 0.05435377 0.06395487 0.08170839
0000e0 23 97 85 bd a2 91 b3 ba 3a 3d de 3d 3b 6e 01 be
       -0.06522968 -0.0013700018 0.10851522 -0.12639706
0000f0 d7 e1 e7 bb 6e 61 b7 3c 14 fa 5a 3c d4 25 40 3d
       -0.0070764828 0.022385325 0.013365287 0.046911076

decoder.l1.0.weight f4 [64, 64]
000000 ae 11 87 3d 09 1d b3 3b 19 dc 5b bd 8c d2 2c bd
       0.06595169 0.0054661077 -0.0536767 -0.04219298
000010 f1 29 5d 3d fe 2a f2 bd f5 b3 9c 3c b5 a3 13 bc
       0.053995077 -0.11824606 0.019128779 -0.009011199
000020 a2 f3 c6 ba e9 36 f3 3d 31 16 b2 3d 33 8f 61 3d
       -0.0015178809 0.11875708 0.08695639 0.055068206
000030 c7 17 8c bd 68 63 7f bd 71 bb 93 3d bf 41 93 bc
       -0.06840473 -0.06235066 0.07213486 -0.017975686
000040 6b ef ac 3d a1 ed bd 3b a3 ef db 3c 09 93 81 bd
       0.08444103 0.00579615 0.026847666 -0.06326873
000050 60 13 ca 3c a5 ed 82 bd bc 4f e2 bd 6f fd ac bd
       0.024667442 -0.06392983 -0.110503644 -0.08446776
000060 46 f6 85 bd 6f f8 2e bd 7f 1b 8c bd 36 e3 1c 3d
       -0.065411136 -0.042717393 -0.06841182 0.038302623
000070 aa 28 44 3d 76 13 ed bd 6a 13 ee 3c c2 44 a0 3c
       0.047890343 -0.115759775 0.029061992 0.019564036
000080 2a bf bc 3c 98 b9 8e 3d 6a 50 de 3d 35 24 1e 3d
       0.023040373 0.06968993 0.108551815 0.03860875
000090 66 56 47 bd 71 6f 01 bd 97 5c 83 bc f1 72 c9 3d
       -0.04866638 -0.03160042 -0.016035361 0.098363765
0000a0 ac 1a 14 be 4f 93 86 bd 88 0e ee 3d be 89 a2 bc
       -0.144633 -0.06571066 0.11623865 -0.019841071
0000b0 65 3a b2 bd 1b 14 cf 3c a2 b0 17 bd 5e 09 dd bc
       -0.08702544 0.025278142 -0.037033685 -0.026982006
0000c0 48 e7 f6 bc 43 e2 61 3d f9 67 0c bd d5 f6 da 3c
       -0.03013958 0.05514742 -0.034278844 0.026729027
0000d0 a7 cb 2e 3d 1f ff 56 3d 6d 1d 03 3d 04 0d 8f 3d
       0.042674687 0.052489396 0.032010484 0.069849044
0000e0 3b 15 a8 bd 01 00 dc bd 4d 6a d2 bd e2 c9 9a 3c
       -0.082071744 -0.10742188 -0.102741815 0.018895093
0000f0 b7 b4 89 bd 95 5b 07 bd 7e 06 1e bd 12 3a e2 bc
       -0.06723922 -0.033046324 -0.03858041 -0.02761558
000100 c9 3c 5b bd 56 de bb 3c c7 0a 9d bc 9f 27 dd bd
       -0.053524766 0.022933166 -0.019170178 -0.10798573
000110 f5 fc 2f 3e 82 17 1f 3e b8 13 cf bd 3f b7 2f 3d
       0.17186339 0.15536311 -0.10111183 0.042899366
000120 4d 3e 8c 3d 51 87 70 bd 61 35 af 3d dc ce 7e bd
       0.068478204 -0.058722798 0.08555103 -0.062208995
000130 06 27 dc 3d 6f dc 8a be 9d 8f b9 3d d5 88 6a be
       0.10749631 -0.27121302 0.09060595 -0.2290376
000140 48 2a cd 3c 2f 96 c0 bc a7 50 97 3d 41 b5 3e 3d
       0.025044575 -0.023509113 0.0738843 0.046559576
000150 64 50 e1 bc 3f 75 29 be 96 c6 d8 3d b6 d1 80 3d
       -0.027504154 -0.16548632 0.10584752 0.06289999
000160 d6 c2 04 be 2a 6b 13 3e f7 0e 07 bd 4b f0 d0 bd
       -0.12964949 0.14396349 -0.032973256 -0.10202082
000170 8f e9 ad bd d4 3d 05 bd 7b ac d8 bd 03 88 d2 3d
       -0.084918134 -0.032529667 -0.10579773 0.102798484
000180 f5 67 34 3e 4d c6 65 ba 7a 85 c2 bd 8d 95 c6 3d
       0.17617781 -0.0008765206 -0.09498115 0.09696493
000190 db 15 0b be 81 ff b5 bd d7 01 ef 3d 66 04 04 be
       -0.13582556 -0.08886624 0.11670273 -0.12892303
0001a0 e6 9f 97 3d cf 72 31 be b1 af 02 3d 7e 2a 4f be
       0.07403545 -0.17328952 0.031905834 -0.20231053
0001b0 e8 56 37 3d c3 8a 92 3d bb 0e 49 bb 04 07 10 be
       0.044760615 0.07155373 -0.0030678946 -0.14065176
0001c0 e9 b8 fd 3c 65 7a 68 3e 6c 77 7b 3d 66 b9 fb 3d
       0.030971961 0.2270294 0.061393186 0.12291221
0001d0 f5 9d 2c be b7 d6 8c bc 84 01 a0 3d d8 58 a8 3d
       -0.16857131 -0.017192228 0.07812789 0.082200706
0001e0 6b da e9 ba 9f ee d2 bd 74 05 a7 3b 9c 4a 7f bd
       -0.0017841583 -0.102994196 0.0050970856 -0.062327012
0001f0 8b fe 16 3e 91 6a 0c 3e fa fa 87 3d c5 d9 95 3d
       0.14745538 0.13712527 0.06639667 0.07316927
000200 f3 fb 91 bc f4 d1 5f bd c5 1b fb 3d 89 78 4e 3d
       -0.017820334 -0.054643586 0.12261156 0.05040792
000210 bc 7c 8c bd d9 89 a5 bc 01 8f d0 3d 03 6c 8e ba
       -0.06859729 -0.020207332 0.10183526 -0.001086593
000220 2c 0d e8 bd 27 1d 35 3d b5 f9 85 3d 6e 57 37 bd
       -0.11330637 0.044217255 0.065417685 -0.044761114
000230 96 cb 9d 3c f2 d9 2e 3c 05 78 1c bd 7f f7 f0 3d
       0.019262116 0.010672079 -0.038200397 0.11765956
000240 46 ee 1f 3d ac 37 58 bd a4 16 95 bd dc 06 9a 3d
       0.039045595 -0.052787468 -0.07279709 0.075208396
000250 a4 a7 be 3d 5a e6 05 be 83 d5 71 bd 7f dd d6 bc
       0.09309319 -0.13076153 -0.05904151 -0.026228664
000260 69 87 57 bd 54 de a5 bd 55 b1 b7 bd 2c 09 b0 3c
       -0.05261937 -0.08099046 -0.0896937 0.021488748
000270 47 6e 7d bd 41 db 4b 3d 1f 08 45 3d d7 31 12 3e
       -0.061872747 0.049769644 0.048103448 0.14276825
000280 03 48 68 3c c8 3b 3c bd b7 23 6d 3b be 25 30 3e
       0.014177325 -0.04595545 0.0036184618 0.17201898
000290 2f 65 8f 3b c8 4f 0f bc 5d 3a 18 be ed 96 67 bd
       0.0043760757 -0.008747049 -0.14866014 -0.05654042
0002a0 db d4 f8 bd f6 74 c0 3c 9e f5 9a bd ad 40 91 bd
       -0.12149974 0.023493271 -0.07566379 -0.07092414
0002b0 01 ee 8a bd c0 2d 8f 3d 9e 76 b3 bd f1 70 0e 3e
       -0.06783677 0.06991148 -0.08762859 0.13910271
0002c0 ac 2f 46 bd c1 5e a2 3d ed 46 6b 3c 69 98 f3 bd
       -0.048385307 0.07928229 0.014360172 -0.11894304
0002d0 f5 e6 ae 3d 6f ad a8 bc aa 5b 45 bd 48 78 e2 bb
       0.08540145 -0.020590512 -0.04818312 -0.0069113113
0002e0 ca df 94 3d 2a 19 0b bd a6 9d 8a 3d 6e 27 a4 3d
       0.07269247 -0.033959545 0.0676835 0.08015333
0002f0 bb 34 8c 3d 15 d3 1d 3e 01 e6 63 3d 96 9a b9 3d
       0.06845995 0.15412553 0.05563927 0.09062688
000300 85 2e eb 3b ea 8d a0 bc 0c 64 10 3e 0a ae 11 be
       0.0071771764 -0.01959892 0.14100665 -0.14226547
000310 f2 3b 83 bd 56 2c 76 3d 34 e2 e6 bd 97 df 80 3e
       -0.06407918 0.060100876 -0.112736136 0.25170586
000320 30 1b 1d 3e a9 85 15 3e 30 8c 94 3c f3 70 25 be
       0.15342402 0.14601769 0.018133253 -0.16156368
000330 75 b0 0e be 82 af 6e 3e 11 3f cf 3d 7d 4f 53 be
       -0.139345 0.23309138 0.10119451 -0.20635791
000340 b2 6f 07 be 69 77 fb bb a5 7c 39 ba 69 34 03 3d
       -0.13226202 -0.007674147 -0.00070757634 0.032032404
000350 fd 72 08 3e 9f a1 fb 3d 3e bf 84 3d 40 3c a1 3c
       0.13325115 0.12286686 0.06481789 0.01968205
000360 5c 03 07 be c1 81 fe bd cb 71 3e bc 0c c2 2a 3c
       -0.13184875 -0.12427092 -0.01162381 0.010422241
000370 02 50 a2 bd a8 e7 77 3d 39 57 90 3d f9 b8 ef bc
       -0.079254165 0.06052366 0.070478864 -0.029263007
000380 cb f5 8f be 7b 6e 3d 3c fb f6 c4 3d d2 83 45 bd
       -0.28117213 0.011561985 0.0961742 -0.048221417
000390 df 0a 86 bd 03 ea 1d be bd 7b cb 3c 7f 00 11 be
       -0.06545042 -0.154213 0.024839276 -0.14160345
0003a0 2d 75 9e 3c b5 0a 2a 3d 73 8e 08 bb b8 da 25 3e
       0.019342983 0.041514117 -0.002083686 0.16196716
0003b0 0f bc e7 3d 9b fd 97 bd 0c 34 80 3d 5a ff 57 bc
       0.11315166 -0.07421418 0.06259927 -0.013183439
0003c0 a2 9b 1c 3e 0a 79 38 be 18 23 f8 bd 5f dd 64 3c
       0.15293744 -0.18014923 -0.121160686 0.013968795
0003d0 a8 5e 23 3d e3 a6 d2 bc 04 a2 ed 3d cf 80 9a 3d
       0.039885193 -0.025714343 0.11603168 0.075440995
0003e0 67 86 8a bd ff f0 24 bd 1b 9b d3 3d bc 6e 04 be
       -0.067639165 -0.040268894 0.103323184 -0.12932867
0003f0 30 6e 4e 3e ea c2 0d 3e 7b 06 54 be d4 cf 82 bd
       0.2015922 0.13843885 -0.20705597 -0.06387296

decoder.l1.0.bias f4 [64]
000000 d5 3d 46 3d 10 31 af bd 9c 05 c9 bd 84 db 31 bb
       0.04839881 -0.0855428 -0.09815523 -0.0027138898
000010 b2 77 df bd 44 44 62 3d 5d bd 6e bd d4 be 90 3d
       -0.10911502 0.055240884 -0.05828606 0.070676476
000020 fa cc ab 3d e9 58 2a 3d 2b 1c 85 bd 45 dd f1 3d
       0.083887056 0.041588698 -0.06499513 0.11809782
000030 3a c2 37 bd 2f 2a d2 bd 2d ad e9 3d e4 ad 22 3e
       -0.044862963 -0.10261952 0.11409984 0.15886647
000040 39 56 af 3c 0e 4f 22 be a5 84 b6 3d 1c cd f8 bc
       0.021403419 -0.1585047 0.08912019 -0.030371241
000050 05 c1 cc 3d 7b 1f b5 bd fd c6 23 3d 09 4e c8 bc
       0.09997753 -0.08843895 0.039984692 -0.024451273
000060 61 93 a3 bd 5d 4f b4 bc f3 16 44 3d 32 09 e1 bd
       -0.07987095 -0.0220105 0.04787345 -0.10988082
000070 31 b1 b3 bc 25 45 a8 3c 42 70 72 bc ef 1b 18 bd
       -0.021935077 0.020540783 -0.014797272 -0.037136015
000080 7c f7 a6 bd 83 30 1b bd 4d e9 78 3d 36 1d ec 3c
       -0.08152673 -0.03788806 0.060769368 0.028822523
000090 8d 3c c6 bc 56 27 c9 bd 44 c2 93 bd 6b 46 c6 3b
       -0.024198795 -0.09821956 -0.072147876 0.006050875
0000a0 8b 84 70 bd ae 6f 0b bd d4 74 d4 bc b5 cb a0 3d
       -0.058720153 -0.034042053 -0.025934614 0.07851354
0000b0 bc 15 da bd 60 ea 2f bc d3 20 cd 3d ca 61 f2 bd
       -0.10648677 -0.010737032 0.10016026 -0.11835058
0000c0 f9 6d 5b 3d 27 6e 3c bd 63 53 49 bd 0c fa 00 3d
       0.053571675 -0.046003487 -0.04915179 0.031488463
0000d0 9c 45 b3 bc 22 b0 0e 3d 94 bf 00 be fd c1 ad bd
       -0.021883778 0.034835942 -0.12573081 -0.08484266
0000e0 ba 8c e8 bd b3 b7 86 bd bf e8 c5 bd d6 6d ca 3d
       -0.113549665 -0.065780066 -0.096635334 0.09884231
0000f0 bc 27 1d 3d 89 d4 0c be 2b 48 d6 3b e4 1d 06 3d
       0.03836797 -0.1375295 0.006539365 0.03274335

decoder.l1.2.weight f4 [128, 64]
000000 2f fd 8e bd 43 80 8d 3d b6 2b 05 3e 4f 7b 2e be
       -0.06981885 0.069092296 0.13004956 -0.17039226
000010 78 1a c8 3c 94 89 16 3d 2f 4e 5b bd f6 b3 d4 3d
       0.024426684 0.0367523 -0.05354136 0.10385887
000020 32 5a 37 bd 77 e7 b7 3d 98 93 6d 3e bb f2 09 3e
       -0.04476375 0.08979695 0.23200834 0.134715
000030 25 0e 0f 3d 5a c7 20 bc 5b 79 59 3d 46 13 5f 3e
       0.0349256 -0.009813154 0.05309425 0.21784696
000040 ec 4a db bd eb e7 0d be 7a 2a bb 3e 83 a9 62 be
       -0.107076496 -0.13858001 0.36555845 -0.22134976
000050 55 a5 4e 3e 4c ea 92 3e 05 7a c6 ba 6c 81 63 bd
       0.20180257 0.2869438 -0.0015142566 -0.05554335
000060 60 45 06 3d 24 df 33 be 1d b3 c1 bd 4b 7b 9e 3c
       0.032781005 -0.1756559 -0.09457991 0.0193459
000070 27 c4 ba 3e e7 ab 37 3d a0 e0 7c 3e e0 ba ca bc
       0.36477777 0.044841673 0.24695063 -0.024747312
000080 bf d4 ad bd 4a 96 94 bd 33 1b da bd 1a 43 2f bd
       -0.08487844 -0.07255228 -0.10649719 -0.042788602
000090 eb 0b aa 3b 3b e2 cd 3c 07 e6 e2 bd 48 61 f7 3d
       0.005189409 0.02513229 -0.110790305 0.12079102
0000a0 f5 ad 41 bd d6 bb ab be ad 77 44 bd ed 56 a8 3e
       -0.04728504 -0.33541745 -0.047965694 0.3287882
0000b0 a2 4d ad bd 19 93 88 be a3 f4 42 3e 8e 45 b3 3d
       -0.08462073 -0.26674727 0.19038634 0.08753501
0000c0 be 18 e7 bd 6e 1c 99 bd af 05 5c 3e aa a7 89 be
       -0.11284016 -0.07476126 0.21486543 -0.2688573
0000d0 b8 8e a6 bd f4 d7 c7 3d 0f 07 e5 3d 6c af b9 bc
       -0.0813269 0.09757987 0.11182987 -0.022666655
0000e0 df 34 81 3e 91 0b 18 3d 3b bf 3d bd f9 f1 98 bc
       0.2523565 0.037120406 -0.04632495 -0.018670069
0000f0 22 4c af be b2 68 c6 bd d6 3a 8c 3d 5e fe eb 3d
       -0.34237772 -0.09687938 0.068471596 0.11523126
000100 81 05 89 bd a4 5e ba 3d eb 56 99 bc 7a f8 57 3d
       -0.06690503 0.091000825 -0.018718204 0.0527272
000110 4e db 6d bd ed bf 67 3d 10 07 cf 3b b5 d0 55 3e
       -0.058070473 0.05657952 0.0063179806 0.20880397
000120 cc 81 e8 bb 5b 61 f2 3d 1c 84 44 bc 9e f2 ea bc
       -0.007095551 0.11834975 -0.011994388 -0.028680142
000130 0f 2a 6c 3d 9b 78 b4 ba c4 ef 80 bd 39 75 9b 3d
       0.057657298 -0.0013768853 -0.06295732 0.07590718
000140 67 63 3f 3e 62 36 4c 3d 1e fa 26 3e 13 cd cf be
       0.18690263 0.04985655 0.1630635 -0.40586147
000150 0f a3 38 3e 4e 46 de bd b7 0b e3 3d bf 4f af 3d
       0.18030952 -0.10853253 0.11086219 0.08560132
000160 f1 11 9a 3c 44 c6 ae bc 19 5a 98 3d fa d3 4d bd
       0.018807383 -0.021334775 0.0743906 -0.050250985
000170 95 1c e2 3d 40 39 0e bf b0 df 6d bd fb 07 63 bd
       0.11040608 -0.55556107 -0.058074653 -0.055427533
000180 c7 6f 83 3d f6 77 a7 bb b1 d7 ab 3d e7 a7 24 ba
       0.06417804 -0.005110736 0.08390749 -0.0006281123
000190 7e 1a b3 be f4 85 94 bd bc e4 81 3e 9f 53 cc 3b
       -0.3498115 -0.07252112 0.25369823 0.0062355543
0001a0 1e 43 14 3c 31 a0 89 3e 57 91 65 bd e3 6c 43 3d
       0.009049205 0.2688003 -0.05604681 0.047711264
0001b0 70 7e 92 bd d0 7d d9 3d 68 31 ed bc 9b 2e d4 3d
       -0.07153022 0.106197 -0.028954223 0.10360452
0001c0 02 dc ce 3d b3 46 6d bb 3c 01 2c 3e 42 a4 1c bd
       0.10100557 -0.003620547 0.16797346 -0.038242586
0001d0 b1 b1 e9 bd b2 3b ee bd 25 b5 f6 3d d6 e7 6d bc
       -0.11410845 -0.1163248 0.12046269 -0.014520606
0001e0 13 a4 1b 3e db 83 93 3d 36 5f 83 3d 29 e5 27 bd
       0.15199308 0.07202884 0.064146444 -0.04099003
0001f0 17 cc c6 3e 38 d2 0d 3e f2 2f 90 3b 00 7b f6 3d
       0.38827583 0.13849723 0.004400247 0.12035179
000200 0d bf 4e b9 60 fb b6 3d 3a 3b 47 3d 30 3e 54 3e
       -0.00019716863 0.08934665 0.048640467 0.20726848
000210 57 ca 9c 3d 5a 52 82 3d da b2 29 bc 8d 4b a2 bd
       0.07655781 0.063633636 -0.010357583 -0.079245664
000220 91 53 10 3d 1b 97 b7 bd 07 9b c6 3c 9a 91 d1 bb
       0.035235945 -0.08964368 0.024243845 -0.006395531
000230 14 6d b8 bc b7 63 5b 3d 9c 3e 67 3d ef 1e f4 3d
       -0.02251295 0.053561892 0.056456193 0.119199626
000240 ac b3 dd bd 3f 69 67 3d dc fb 01 3f 1d 9d 34 be
       -0.10825285 0.056496855 0.5077493 -0.17638059
000250 a7 a0 a0 3c e3 62 93 bd a7 7b 5d 3c 3f 5c bc bc
       0.019607855 -0.071965955 0.013518251 -0.022993205
000260 a2 f8 35 3e 4c 9c 0e 3e 48 74 67 bc a5 f8 83 bd
       0.17770627 0.1392681 -0.014126845 -0.064439096
000270 cc 7e bd 3c 26 0d 89 3e cd ae b8 3d c2 23 1d bb
       0.02313175 0.26767844 0.090177156 -0.0023977612
000280 fd 10 07 3d 11 6c 98 bd e2 1d 4c bd bb 84 28 bd
       0.032975186 -0.07442487 -0.049833186 -0.041142207
000290 40 e0 d5 be cb 8c f5 bd b0 ac 2d bd 8a 8a 1f 3e
       -0.41772652 -0.11989745 -0.042401016 0.15580192
0002a0 14 71 1d bd be ae 54 3d ea 20 8c bc 44 f4 7a 3d
       -0.038437918 0.05192446 -0.017105538 0.061268106
0002b0 6e e3 d9 bc 2d 22 80 3e 1d eb 94 3c 66 9e 0a 3e
       -0.026597705 0.25026074 0.018178517 0.13536987
0002c0 83 55 da bc 47 a0 84 bd 4e 96 8f bd 3e 53 1e 3e
       -0.026652103 -0.06475883 -0.0701109 0.15461442
0002d0 29 e7 f6 bd 8e 8a d0 bd 2c c3 8b bc 37 bc 88 bd
       -0.12055809 -0.10182677 -0.017060839 -0.06676524
0002e0 02 e8 cd 3c d4 8b bb bc a6 ce 30 bd 03 8b 02 bd
       0.025135044 -0.022893824 -0.043165825 -0.031870853
0002f0 90 7a 28 be d1 a0 78 bb 24 62 ee 3d f3 b0 fb bd
       -0.16453004 -0.003793765 0.116398126 -0.1228961
000300 53 1f d8 ba 8f 79 00 be c2 28 79 3d cf 6c 5e be
       -0.0016488828 -0.12546371 0.060829885 -0.21721195
000310 0f 35 01 3e ed 17 46 3e ee 5c 72 bc e7 25 14 3e
       0.12617896 0.19345064 -0.014792664 0.14467584
000320 86 c1 49 3d 36 09 6d bd c2 ce 4e 3e 47 69 1b be
       0.049256824 -0.057870112 0.2019606 -0.15176879
000330 7d a2 44 3e a8 dc 8c bc 2f 96 b2 3c da 4e 81 3d
       0.1920261 -0.01719506 0.021800129 0.06313868
000340 d1 8a 1d 3c 89 cf 1a bd 32 c2 26 3d 53 8d 2c bc
       0.009615616 -0.037795577 0.040712543 -0.010531741
000350 1c 85 8a 3e aa 74 69 3e 9f 49 ea bd 8f 5a de bd
       0.2705468 0.2279841 -0.11439823 -0.108571164
000360 db d4 9a 3d 17 73 9f 3e ea 0f 00 3d 0a dc 60 3d
       0.0756013 0.31142494 0.031265177 0.054897346
000370 f9 69 da be 47 9f 91 bd 43 e1 98 3e 56 f8 0d 3e
       -0.42658976 -0.07110458 0.2985936 0.13864264
000380 7c 34 87 3b cc fc 7e bd 2e 5a ba 3d 4f ff 27 be
       0.0041261297 -0.062252805 0.09099232 -0.16405986
000390 8b 7c 62 be a2 82 96 bd d9 e3 05 3e 7e 05 5d 3c
       -0.22117822 -0.07349135 0.13075198 0.013490079
0003a0 47 d5 bd bc 04 ec a0 bc 83 ca 5f 3c f3 bb 75 be
       -0.023172988 -0.019643791 0.013659122 -0.23997478
0003b0 af de e4 3d e9 70 9d 3b fc 72 b5 3d 27 e1 2f 3d
       0.11175286 0.0048047197 0.08859822 0.04293933
0003c0 34 9c 47 3d 02 17 84 3c 54 e5 21 be a4 00 72 3e
       0.04873295 0.016124252 -0.15810138 0.23633057
0003d0 36 f5 0b 3e 28 b5 5d 3d ce d4 aa bd 3c ea b6 bb
       0.1366776 0.054127842 -0.083413705 -0.005582122
0003e0 62 77 1f be ec 58 48 3c 33 93 21 bc 23 a0 a5 3d
       -0.15572885 0.012228232 -0.009861755 0.08087184
0003f0 5e 5f 91 3d 9a 5a a6 bd 56 fa c1 3d 79 b8 7c 3e
       0.07098268 -0.081227496 0.09471576 0.24679746

decoder.l1.2.bias f4 [128]
000000 e0 9b 20 bd 26 28 c4 3d 5a d8 29 3c 05 c3 71 3c
       -0.039211154 0.0957797 0.010366524 0.014755969
000010 f7 40 be 3d 52 5e 30 be 98 27 cf 3d 98 59 07 bd
       0.09289735 -0.1722348 0.10114974 -0.033044428
000020 c6 58 1d 3e 3c f8 41 bc e2 10 c7 bd d1 6f 06 3e
       0.15365896 -0.011838969 -0.09720017 0.13128592
000030 d3 68 16 3d 16 f5 80 3d 69 d1 f4 3b b4 73 10 bc
       0.036721062 0.062967464 0.0074712527 -0.008816648
000040 7a c6 b3 bc 15 da a7 bd 05 82 95 bd 22 5e 85 bd
       -0.021945227 -0.08195893 -0.0730019 -0.06512095
000050 13 24 bf bc 18 b4 11 be 12 e3 34 3c a5 d4 cb bd
       -0.023332631 -0.14228857 0.011040466 -0.09952668
000060 b5 d3 c4 bb 18 06 3b bd 87 82 72 bb d1 29 86 bc
       -0.0060066828 -0.04566011 -0.003700407 -0.016377361
000070 54 9b 0a 3e b9 81 56 bb 97 b6 52 3c c2 f8 9d bd
       0.13535815 -0.003273113 0.012860916 -0.077134624
000080 01 3d 73 3d fd 63 f4 bd 68 45 b7 3d 5e 23 42 3d
       0.05938435 -0.11933134 0.08948785 0.04739701
000090 50 29 17 3d 51 eb 0c bd 51 d4 9f 3b 9f 2e 54 bd
       0.036904633 -0.034404103 0.004877605 -0.051802274
0000a0 c7 1b 1a bd bf f6 9f bd f5 55 22 bd 19 24 1b 3d
       -0.037624147 -0.07810735 -0.039632756 0.037876222
0000b0 6d a7 ac bc 45 e5 8a bd 11 3a dc bd ed d3 53 bd
       -0.021075929 -0.06782011 -0.10753263 -0.05171578
0000c0 cc 06 f5 3c 58 10 a7 bc 17 6f 6e bd 70 13 21 bd
       0.029910468 -0.020393535 -0.058211412 -0.039325178
0000d0 e3 6f 05 3e 8e 9b f0 3d 1a 64 a4 bc 90 58 91 bd
       0.13030963 0.1174842 -0.020067263 -0.0709697
0000e0 98 e9 f8 3d e9 1b d6 bc 6e ac bc 3c a3 f8 10 3d
       0.121539295 -0.026136355 0.02303144 0.03539337
0000f0 d2 ed 68 3b 9e a6 f8 bd d3 1f 07 3e 25 4c 80 3d
       0.0035542143 -0.12141155 0.13195734 0.062645234
000100 99 3b 3f bd ff 92 cc 3d 21 d1 bb bd 56 86 d6 bc
       -0.046687696 0.09988975 -0.091707475 -0.026187103
000110 c2 8a b5 3d 24 54 41 3d b1 9c 61 bd 30 6b a8 bd
       0.088643566 0.047199383 -0.055081073 -0.082235694
000120 20 93 24 3c 41 1f 11 bd 2e 2f a9 bd a3 a6 5b bd
       0.010044843 -0.035430197 -0.08260952 -0.053625714
000130 60 f8 e3 3d 10 2c e4 3d a4 ad e8 3d 88 6e 41 3b
       0.11131358 0.11141217 0.11361244 0.0029515345
000140 f7 32 b2 3d a9 22 90 bd 3e 0d 4d bd 4d c9 9e bb
       0.08701127 -0.07037861 -0.050061457 -0.0048457743
000150 6d 58 da 3d 55 45 5d bd dc 4b 0d 3e 58 09 bd bc
       0.10661397 -0.0540212 0.1379847 -0.023075745
000160 2a 4c 8a 3c cd 49 c2 bc ea 15 c0 3d 59 fb fe 3d
       0.016882021 -0.023716832 0.0937918 0.124502845
000170 2f e1 aa 3d 4c 9f 80 bd d2 9c fd 3d 5c 11 70 bc
       0.083437316 -0.062803835 0.12383427 -0.014652576
000180 d8 d3 c2 bc aa 76 73 3b c1 65 0e 3c 57 6d 41 bd
       -0.023782656 0.0037149587 0.008691252 -0.047223415
000190 b1 d2 0f 3e 18 0e 9a 3d 8c 82 59 3d b1 e6 c6 bd
       0.14045216 0.075222194 0.053103015 -0.0971197
0001a0 e6 69 90 3d a4 ad bd bd 8e 64 9f 3d 60 15 65 3d
       0.070514485 -0.09261635 0.07782851 0.055928588
0001b0 08 8f 93 3c cb 2f 83 bc 17 c0 bc bc b5 44 e1 ba
       0.018012539 -0.016014 -0.023040814 -0.0017186614
0001c0 8d 6a 41 3d 0f 55 88 3d 5c b0 a2 3d 0b 4f d2 3d
       0.047220755 0.06656849 0.07943794 0.102689825
0001d0 d4 36 de 3d ee 1c 64 bd ba 03 bb bd 42 c5 99 3d
       0.108503014 -0.055691652 -0.0913157 0.07508327
0001e0 68 e2 c5 3d c3 c7 5e 3b 5f 99 c9 bc 11 e3 d9 bd
       0.09662324 0.003399358 -0.024609266 -0.106390126
0001f0 c8 46 f6 3b af e2 16 bd 53 b1 00 3e 38 53 80 bd
       0.007515762 -0.036837276 0.12567644 -0.06265873

exp_avg f4 [64, 128]
000000 45 04 87 38 68 80 05 39 fd 4c 36 38 1a bf 66 38
       6.438097e-05 0.00012731703 4.3463882e-05 5.501425e-05
000010 ce 64 05 37 51 95 54 38 91 89 c2 38 fe ed 57 38
       7.950888e-06 5.06838e-05 9.2762646e-05 5.1481642e-05
000020 3b ce 37 39 fe 11 5c 37 36 48 f9 36 3f ca 86 38
       0.00017529067 1.3117211e-05 7.4291847e-06 6.427289e-05
000030 5d 2e 3a 38 4c cc a5 38 a9 4d 25 38 22 b4 8c 36
       4.4389035e-05 7.9058664e-05 3.9411392e-05 4.1932954e-06
000040 77 cc 0a 38 a2 6b a9 38 96 d5 06 38 6f 1d f9 37
       3.3092187e-05 8.078596e-05 3.2147007e-05 2.969682e-05
000050 10 ef 8f 37 63 44 d2 37 62 0e 08 38 9e a8 df 38
       1.715825e-05 2.5065796e-05 3.243832e-05 0.00010664876
000060 cb 0c 48 38 cb e7 f8 37 f2 c3 62 38 ab 97 6e 38
       4.769563e-05 2.967184e-05 5.4065087e-05 5.6884874e-05
000070 e3 c8 91 38 01 36 48 38 71 cd 7f 38 ea 10 64 38
       6.951557e-05 4.773401e-05 6.098807e-05 5.437519e-05
000080 69 c1 71 37 6d 4f 27 38 d3 c9 36 38 94 e7 54 37
       1.4409751e-05 3.9889874e-05 4.3580145e-05 1.2690103e-05
000090 25 02 72 37 42 72 87 b7 ef 43 d5 38 79 25 7a 38
       1.4424823e-05 -1.614646e-05 0.00010169285 5.9639544e-05
0000a0 00 83 46 38 8c 73 f7 37 b2 ae 85 38 94 94 a0 37
       4.7328882e-05 2.94985e-05 6.374474e-05 1.9142673e-05
0000b0 60 67 cb 37 f0 70 26 38 5b 1f d3 37 a4 64 82 38
       2.4247624e-05 3.9682665e-05 2.5167761e-05 6.217629e-05
0000c0 f5 40 30 38 61 38 85 38 ca cd 73 37 af ba 43 38
       4.2022166e-05 6.3524356e-05 1.4531843e-05 4.6665486e-05
0000d0 8a 10 3e 38 79 bb a2 38 13 f0 f6 36 09 ea 64 38
       4.5314933e-05 7.7596815e-05 7.3593196e-06 5.45774e-05
0000e0 42 8d 9e 38 6b aa 90 38 d5 7f be 37 0f f8 2b 38
       7.5603384e-05 6.898198e-05 2.2709291e-05 4.10006e-05
0000f0 be a2 99 37 bf 46 13 38 c6 6a 4a 38 c6 ea 11 38
       1.8314804e-05 3.511342e-05 4.8259993e-05 3.4789344e-05
000100 a3 a9 90 38 69 fa 2a 38 ff f6 64 38 15 46 07 38
       6.8980524e-05 4.076437e-05 5.458947e-05 3.2251777e-05
000110 b8 b6 1e 38 d0 89 da 36 33 ca a1 36 58 b4 bb 36
       3.7840306e-05 6.5129498e-06 4.821713e-06 5.594029e-06
000120 ec 5a bf 37 7f 9c dc 37 7d 6e a4 37 7d 52 a5 36
       2.2811313e-05 2.6298918e-05 1.9601774e-05 4.926986e-06
000130 5c 99 de 37 e7 c9 04 38 78 bf bd b5 f7 00 23 38
       2.6535876e-05 3.165929e-05 -1.4137322e-06 3.8863127e-05
000140 53 53 00 38 9c 40 80 38 07 ff 53 38 97 b8 6b 37
       3.059518e-05 6.11555e-05 5.0543833e-05 1.405007e-05
000150 83 7c 37 38 1c 49 69 38 5e 9a 2b 38 95 6d 82 38
       4.374656e-05 5.5619617e-05 4.0913343e-05 6.219294e-05
000160 aa 51 9f 37 cb 45 ce 37 71 39 22 38 80 cd aa 37
       1.8992305e-05 2.4589614e-05 3.8677306e-05 2.0361273e-05
000170 43 c1 72 38 e0 a3 94 37 db 67 52 38 3f 74 0e 38
       5.7877285e-05 1.7719285e-05 5.0164625e-05 3.39637e-05
000180 6e d3 01 38 8c b2 e9 37 b9 0d 3d 38 8d c9 57 38
       3.0952906e-05 2.7858907e-05 4.507389e-05 5.1447703e-05
000190 81 44 b7 38 2c 9d 14 38 41 b3 3e 38 b4 ed be 37
       8.73888e-05 3.5432327e-05 4.5466473e-05 2.2760454e-05
0001a0 f4 3c c0 37 14 fb 12 38 47 30 f1 38 00 59 14 38
       2.2916567e-05 3.5042947e-05 0.00011500768 3.5368837e-05
0001b0 57 f1 20 38 74 a9 a7 38 b0 ca 6e 37 af 8a bc 37
       3.8371738e-05 7.994744e-05 1.4233097e-05 2.2475926e-05
0001c0 85 fc 19 38 66 4e a4 38 34 23 4e 38 d8 1e 74 37
       3.671322e-05 7.834732e-05 4.9147013e-05 1.4550715e-05
0001d0 74 48 a2 38 e8 ce 77 38 b6 7b 38 38 7f 07 fa 37
       7.7382574e-05 5.9082085e-05 4.3984233e-05 2.9805813e-05
0001e0 5e ff 46 38 e9 97 96 36 3d 78 92 37 0e 0a 6c 38
       4.7444708e-05 4.488033e-06 1.7460547e-05 5.627615e-05
0001f0 6a d0 83 37 07 36 d0 37 7b c4 a9 37 21 8b b6 37
       1.5713467e-05 2.482069e-05 2.0237863e-05 2.1760878e-05
000200 fc 57 1b 38 f1 57 cf 38 87 f8 0f 38 ef c5 54 38
       3.703682e-05 9.8869095e-05 3.4325316e-05 5.072908e-05
000210 ca 42 45 37 6d 54 82 38 09 9c 8d 38 fa 4a 96 38
       1.1757666e-05 6.2146086e-05 6.752468e-05 7.166523e-05
000220 c9 b2 11 39 eb cc 2d 38 a3 0c 48 b7 e9 be 90 38
       0.0001389488 4.143726e-05 -1.1923871e-05 6.902015e-05
000230 f2 4b 20 38 e9 cf 59 38 95 20 2b 38 93 7c 4f 37
       3.8217702e-05 5.1930463e-05 4.079992e-05 1.2367166e-05
000240 c7 a5 6d 38 9a 0a bf 38 a2 76 9d 38 c6 74 81 38
       5.6659595e-05 9.1095644e-05 7.5084405e-05 6.17295e-05
000250 47 f0 79 b6 5c af 5e 38 6f 1d b5 38 75 71 93 38
       -3.7243751e-06 5.309224e-05 8.636235e-05 7.030639e-05
000260 66 fa 12 b7 c6 09 9a 37 f8 ca 40 38 49 74 83 38
       -8.760579e-06 1.8362782e-05 4.5965397e-05 6.2682266e-05
000270 95 a9 52 38 c7 55 68 b7 81 21 2b 38 af e4 16 37
       5.0225837e-05 -1.3848249e-05 4.080078e-05 8.993941e-06
000280 83 c8 b0 37 be b9 86 37 b9 1d 69 37 64 01 44 38
       2.1074206e-05 1.6060538e-05 1.3894803e-05 4.6731337e-05
000290 7b ca c7 37 e2 26 08 38 e8 fb 80 38 7d 90 c3 38
       2.3816936e-05 3.246114e-05 6.150437e-05 9.3252376e-05
0002a0 53 13 8b 37 fd 26 4f 38 23 5d 44 38 da 61 4b 38
       1.657909e-05 4.9388957e-05 4.6816782e-05 4.8490103e-05
0002b0 4d 38 ef 37 37 13 d2 36 c4 7d 74 38 3e f3 8d 37
       2.8517237e-05 6.2607246e-06 5.829126e-05 1.6921778e-05
0002c0 a3 9a 60 37 b9 1d 3e 38 97 ae 7d 37 7c db e0 37
       1.3387445e-05 4.532721e-05 1.5120625e-05 2.6805086e-05
0002d0 eb 60 09 38 15 46 be 38 1c 65 e7 b6 ba 35 a1 38
       3.2753607e-05 9.07296e-05 -6.896107e-06 7.6870856e-05
0002e0 ee 63 b7 38 ef a4 0d 38 9e 26 dd 37 1b 6a e6 37
       8.744733e-05 3.3770626e-05 2.6363236e-05 2.7467546e-05
0002f0 a1 6a b1 38 a7 ae 87 37 04 11 25 38 7f 6a 48 35
       8.459879e-05 1.6174583e-05 3.9354913e-05 7.466078e-07
000300 26 fd a5 38 22 1b b1 37 55 5f 96 37 32 3b dc 37
       7.914966e-05 2.1112679e-05 1.7925786e-05 2.6253609e-05
000310 cf 5d 08 38 31 67 83 38 04 4b f1 36 91 7e 6f 38
       3.2512293e-05 6.265788e-05 7.1910927e-06 5.7099915e-05
000320 ca ce 71 38 24 4f 33 38 c0 1b bf 37 89 d8 b9 37
       5.7651465e-05 4.275063e-05 2.2781896e-05 2.215455e-05
000330 0a 48 9a 38 73 8e 98 36 d7 c8 88 b6 93 07 e8 37
       7.3567106e-05 4.5465363e-06 -4.0764967e-06 2.7660082e-05
000340 bc 6a 73 b7 bb 93 49 38 28 f3 0f 38 a8 6b e7 37
       -1.450878e-05 4.805972e-05 3.4320314e-05 2.7587477e-05
000350 7a fc 3e 38 60 92 78 38 d3 80 47 38 05 52 74 38
       4.5534667e-05 5.926413e-05 4.7565274e-05 5.825052e-05
000360 4d 7d 0d 38 46 dd f0 37 91 58 46 38 bd 91 62 37
       3.3733715e-05 2.8713268e-05 4.7289363e-05 1.3504582e-05
000370 ae af b7 38 63 de d1 37 57 09 27 38 b1 d1 2b b7
       8.758843e-05 2.5018298e-05 3.98246e-05 -1.0241217e-05
000380 09 a0 88 38 54 80 5b 35 ca fd 7c 38 df de 34 38
       6.514794e-05 8.17706e-07 6.031784e-05 4.312291e-05
000390 d9 05 52 38 4f f8 7e 38 a7 20 81 38 53 63 d9 37
       5.0073348e-05 6.0789574e-05 6.157281e-05 2.5914667e-05
0003a0 f7 54 37 38 2e a6 dc 37 da e2 b0 38 9b bd 96 37
       4.370973e-05 2.6303427e-05 8.4345884e-05 1.7969685e-05
0003b0 96 5b 0a 38 8d d1 8c 38 f6 20 42 b7 56 97 0a 36
       3.298706e-05 6.714752e-05 -1.1570975e-05 2.0651692e-06
0003c0 ce 59 21 38 9a 90 9a 38 3d bf 03 38 83 7e 6b 37
       3.846903e-05 7.3702264e-05 3.141094e-05 1.4036547e-05
0003d0 c8 2a 6c 38 51 1b 8b 37 8a 8c c7 37 7f 18 03 37
       5.6306628e-05 1.6582811e-05 2.3788092e-05 7.813912e-06
0003e0 c9 6a a6 38 da be f6 b6 af 2c f7 37 01 54 01 b6
       7.935387e-05 -7.3535894e-06 2.9465502e-05 -1.9271395e-06
0003f0 79 d9 3a 38 73 c9 f4 36 ff 15 cb 37 12 d0 01 37
       4.4548393e-05 7.2952184e-06 2.4209729e-05 7.737444e-06
