src/projects/scrnaseq_project/lightning_logs/ae_experiment/version_6/checkpoints/epoch=3-step=2788.ckpt (torch, 310195 bytes, 24 tensors)

encoder.l1.0.weight f4 [64, 128]
0.1941831 0.16782969 -0.14211504 0.04784584 -0.13984174 -0.088176124 -0.04969883 -0.0160314
0.15415893 0.13187416 -0.014677756 -0.11916166 -0.054087564 0.08708634 0.15374458 -0.14562269
-0.13492417 0.08711496 -0.10046481 0.10543442 -0.100567326 0.073733665 0.049785264 -0.02356171
-0.05515769 -0.030125478 0.1156589 -0.05674434 -0.09295968 -0.018473415 0.0689116 0.1698787
0.14289102 -0.049932726 -0.057772674 0.2214888 0.009657388 0.0064837667 0.0019604848 0.301255
0.053118348 0.06353814 0.056349285 -0.08938204 -0.0870842 0.0036738596 -0.023462396 -0.004666032
0.07898289 -0.008526913 -0.11614921 -0.14712113 -0.09661087 0.022370556 -0.08229944 0.068856195
0.042306077 0.15667163 -0.065131515 -0.009498877 -0.008440295 -0.025422212 0.067992814 -0.06950578
0.06523011 0.02830432 0.059652507 0.08167496 0.082642354 -0.0019893695 0.037019353 -0.17699851
0.106116146 0.09193989 0.016995583 0.11063735 -0.10232568 -0.044042077 -0.043956466 0.19826984
-0.0115323 -0.05017125 -0.11802538 -0.106607065 0.04276424 -0.01924872 -0.15259726 0.04056847
-0.09138658 0.16907305 0.098076664 0.03298735 0.047954686 0.095893085 -0.19421767 -0.012213386
0.054282673 -0.044761527 0.13702123 -0.042232353 0.01907639 -0.014086802 0.10446555 -0.08763682
-0.029232794 0.023675997 0.03337395 0.10947305 0.11716828 -0.15419704 -0.024649043 -0.0881377
-0.058000624 -0.021975655 -0.003105422 0.12575062 -0.009012635 0.070105 -0.046187162 0.07093754
0.013037075 -0.041422248 0.0147111 -0.079606876 0.11226539 -0.0024387443 0.121589586 -0.0642744
-0.041928753 -0.108513646 -0.07833547 -0.057675 0.04117462 -0.0978885 0.0680337 0.011645185
-0.011262812 -0.08055135 -0.048310176 0.018716171 0.048865233 -0.036846947 0.062218837 0.041715346
-0.020026525 -0.021824084 -0.06381332 -0.06341332 0.003368795 -0.033777665 0.07292789 0.015136182
-0.045722228 0.013015573 -0.062136717 -0.028300587 -0.037966125 -0.04217583 -0.007356927 0.056783408
0.041316435 -0.0026194975 -0.0912764 0.04886306 0.012763442 -0.09348337 -0.04979518 0.020559244
-0.023505636 -0.03888777 -0.08548067 -0.034415916 -0.012078889 0.042582434 0.07047386 0.0015931949
-0.01797897 -0.05467228 -0.068687774 -0.04226509 -0.086350225 -0.069767155 -0.08582171 0.015873924
-0.0019514455 -0.09192955 -0.0016884059 -0.041665662 0.03537427 0.040624768 0.027073225 -0.04829389
0.016516926 -0.089821324 0.05298352 -0.100346155 0.021188334 -0.0071791112 0.043351676 0.012999676
0.01207754 -0.058241427 0.044661038 -0.04306941 -0.05632814 0.06926843 -0.004806135 0.046329964
-0.04851857 -0.009522815 -0.066342525 -0.010360907 -0.07360986 -0.063986756 -0.03131208 0.0010443183
-0.082080364 0.015429874 -0.09947813 0.08127735 -0.0067078704 0.064700745 0.05670517 -0.022457937
-0.021906143 -0.08331229 -0.08699853 -0.018217953 -0.010106951 -0.087678805 -0.08996914 -0.07544678
-0.05837203 0.014706281 0.047261175 0.0025821074 -0.035932723 -0.09373813 -0.06704684 0.06547381
-0.043417003 0.064280234 -0.10379673 -0.020829476 -0.09871027 -0.06999709 0.064018175 0.041953374
0.00658001 0.009015814 0.056104 -0.015586409 0.02887576 -0.012647681 -0.016597189 0.04949964
00000000: efd7 463e 8cdb 2b3e 9b86 11be 00fa 433d
00000010: ac32 0fbe af95 b4bd 0091 4bbd 4854 83bc
00000020: d7db 1d3e 050a 073e f87a 70bc 070b f4bd
00000030: ec8a 5dbd 535a b23d 386f 1d3e 1d1e 15be
00000040: 9029 0abe 5469 b23d 7fc0 cdbd 00ee d73d
00000050: 3ef6 cdbd ad01 973d a2eb 4b3d 7d04 c1bc
00000060: 08ed 61bd b5c9 f6bc 93de ec3d c16c 68bd
00000070: a561 bebd 8f55 97bc 8621 8d3d aff4 2d3e
00000080: 0652 123e 4286 4cbd 0aa3 6cbd f6cd 623e
00000090: 053a 1e3c c775 d43b 7a7b 003b 183e 9a3e
000000a0: a092 593d 4920 823d 82ce 663d ee0d b7bd
000000b0: 3359 b2bd 23c5 703b 3634 c0bc 83e5 98bb
000000c0: c8c1 a13d 77b4 0bbc a3df edbd eca6 16be
000000d0: ebdb c5bd 7542 b73c 9c8c a8bd 7a04 8d3d
000000e0: 2349 2d3d 876e 203e ac63 85bd 2ea1 1bbc
000000f0: 2a49 0abc 3e42 d0bc d13f 8b3d 0c59 8ebd
00000100: 5d97 853d 76de e73c 3056 743d 3445 a73d
00000110: 6540 a93d 1560 02bb 9ba1 173d 193f 35be
00000120: 6c53 d93d fb4a bc3d 523a 8b3c d695 e23d
00000130: 2090 d1bd 7765 34bd b20b 34bd 4007 4b3e
00000140: f9f1 3cbc 5e80 4dbd 4ab7 f1bd ce54 dabd
00000150: 8e29 2f3d 7eaf 9dbc 7542 1cbe 202b 263d
00000160: e328 bbbd 7c21 2d3e 6bdc c83d be1d 073d
00000170: 226c 443d 9863 c43d ffe0 46be a71a 48bc
00000180: 8257 5e3d dd57 37bd 4b4f 0c3e d5fb 2cbd
00000190: 1746 9c3c 54cc 66bc 09f2 d53d ef7a b3bd
000001a0: 9d79 efbc 2af4 c13c 1fb3 083d 6833 e03d
000001b0: ecf5 ef3d d4e5 1dbe caec c9bc 8a81 b4bd
000001c0: 1092 6dbd 4a06 b4bc 5684 4bbb c5c4 003e
000001d0: bba9 13bc 3693 8f3d c02e 3dbd b347 913d
000001e0: 7599 553c 60aa 29bd d306 713c ee08 a3bd
000001f0: 66eb e53d 57d3 1fbb f603 f93d 4ca2 83bd
00000200: 7cbd 2bbd 673c debd 596e a0bd 9f3c 6cbd
00000210: b8a6 283d c479 c8bd 4155 8b3d 72cb 3e3c
00000220: a887 38bc 1bf8 a4bd e4e0 45bd a852 993c
00000230: e926 483d d3ec 16bd 2ed9 7e3d b6dd 2a3d
00000240: ab0e a4bc 6cc8 b2bc 8fb0 82bd d8de 81bd
00000250: 00c7 5c3b 735a 0abd 385b 953d c0fd 773c
00000260: 3b47 3bbd 453f 553c 1283 7ebd a2d6 e7bc
00000270: 5e82 1bbd 90c0 2cbd 6012 f1bb b895 683d
00000280: 6c3b 293d e0ab 2bbb 1fef babd a224 483d
00000290: c11d 513c 3674 bfbd 08f6 4bbd dc6b a83c
000002a0: e48e c0bc c848 1fbd 7d10 afbd b4f7 0cbd
000002b0: 88e6 45bc eb6a 2e3d 9954 903d c0d2 d03a
000002c0: a248 93bc 0af0 5fbd 2dac 8cbd 291e 2dbd
000002d0: 63d8 b0bd 15e2 8ebd 4bc3 afbd 080a 823c
000002e0: a5c7 ffba 8f45 bcbd 804d ddba 9da9 2abd
000002f0: 9ce4 103d 2866 263d abc8 dd3c d0cf 45bd
00000300: 814e 873c 3ef4 b7bd 3f05 593d 4982 cdbd
00000310: 2893 ad3c c03e ebbb 8791 313d 98fc 543c
00000320: e0e0 453c 908e 6ebd 7eee 363d 8d69 30bd
00000330: 56b8 66bd 9bdc 8d3d c87c 9dbb 7dc4 3d3d
00000340: 68bb 46bd 9505 1cbc 97de 87bd cbc0 29bc
00000350: c4c0 96bd 7d0b 83bd 1841 00bd 82e1 883a
00000360: c019 a8bd 95cd 7c3c 31bb cbbd bd74 a63d
00000370: b2cd dbbb d381 843d ae43 683d b5f9 b7bc
00000380: 8374 b3bc a29f aabd 492c b2bd d13d 95bc
00000390: a097 25bc f290 b3bd be41 b8bd d783 9abd
000003a0: 8217 6fbd 9df2 703c ef94 413d 9338 293b
000003b0: 312e 13bd c7f9 bfbd db4f 89bd 2217 863d
000003c0: 07d6 31bd 5ba5 833d 6193 d4bd 94a2 aabc
000003d0: 9c28 cabd a25a 8fbd f61b 833d 4dd7 2b3d
000003e0: 209d d73b 11b7 133c 4fcd 653d 235e 7fbc
000003f0: dc8c ec3c 3838 4fbc d4f6 87bc 22c0 4a3d

encoder.l1.0.bias f4 [64]
0.025180165 -0.07381942 0.11342292 0.084229045 -0.05834633 -0.0536962 0.05389558 0.0401708
0.09663393 -0.013289314 0.011185144 -0.057669144 0.047221787 0.004112781 -0.008962151 0.008184914
-0.026181916 0.018719364 -0.07187174 0.10593541 0.017987473 -0.0627409 0.046686422 0.07383156
0.06548249 0.06910611 -0.029667627 0.055292994 -0.030373298 0.055276297 0.040638935 0.1291408
0.027447337 -0.060554754 0.008733642 0.012620338 0.099265434 0.06796155 0.09103588 -0.085662484
0.07798091 -0.04431124 0.07028352 0.018155692 0.10469271 0.008143597 0.06934582 0.051300906
-0.026876232 0.12076972 0.026314093 -0.086691864 0.0013867842 -0.015867744 0.0033797678 0.011548159
0.015080848 0.017815594 0.028331116 0.020296685 0.03999935 -0.049155544 0.04897391 -0.06968157
00000000: a246 ce3c a32e 97bd 474a e83d 4780 ac3d
00000010: 90fc 6ebd 8cf0 5bbd 9dc1 5c3d 238a 243d
00000020: 03e8 c53d 6cbb 59bc e541 373c 7b36 6cbd
00000030: a26b 413d 82c4 863b fcd5 12bc 041a 063c
00000040: 757b d6bc 5a59 993c 7e31 93bd aaf4 d83d
00000050: 775a 933c 4d7e 80bd 433a 3f3d 0035 973d
00000060: af1b 863d 8187 8d3d 8609 f3bc e87a 623d
00000070: 6cd1 f8bc 6669 623d 0375 263d 7c3d 043e
00000080: 3dd9 e03c 4308 78bd 8d17 0f3c 89c5 4e3c
00000090: ad4b cb3d 6d2f 8b3d 0571 ba3d d06f afbd
000000a0: 75b4 9f3d b47f 35bd cef0 8f3d 3fbb 943c
000000b0: 2269 d63d b96c 053c 2e05 8e3d e620 523d
000000c0: 8b2b dcbc 1d56 f73d a790 d73c 818b b1bd
000000d0: c2c4 b53a 12fd 81bc 187f 5d3b 7d34 3d3c
000000e0: a915 773c 02f2 913c a816 e83c 3c45 a63c
000000f0: 5cd6 233d 5357 49bd de98 483d 36b5 8ebd

encoder.l1.2.weight f4 [64, 64]
-0.13401882 -0.07633827 -0.08514032 0.15380326 -0.12873553 0.09495033 0.053049933 -0.09178364
-0.023482239 -0.20922078 0.1889803 -0.118815 -0.012191017 -0.07269847 0.13511375 -0.037680734
0.10821751 -0.0393741 0.05437799 0.18864128 -0.18435644 -0.07018688 0.10585432 0.08525482
-0.00050990545 0.07149716 0.068517625 0.08657805 -0.13100864 0.032295194 -0.2055406 0.15035124
0.034105476 -0.06352718 -0.018943135 -0.00085658114 0.0010888074 -0.091986716 -0.2938366 -0.07076329
0.20582317 0.07924694 0.020272838 -0.16084638 -0.023899615 0.0064506787 -0.15415314 -0.09032554
0.07247509 -0.10848575 -0.14667219 -0.048684884 -0.114943504 0.09833844 -0.020025462 0.009175909
0.09356627 0.100173816 0.0053942404 0.06051588 -0.13383737 0.097884394 -0.0076589193 -0.009009321
-0.036202714 0.012567064 0.024070488 0.025143625 -0.10569008 -0.0633276 -0.00074757566 -0.11963837
-0.15800257 0.0014671392 -0.11264181 0.012479144 -0.039430108 -0.068679065 -0.06469687 0.049050957
0.0048314836 0.16818179 -0.16762114 0.03618717 -0.03759668 -0.10857024 -0.012194392 0.09888369
0.03898526 0.001234881 -0.021662697 0.06971948 0.0095789805 0.22688933 0.013027877 0.04139493
0.14351963 -0.12127957 -0.17196655 0.04779799 0.044913962 0.055343956 -0.1413849 -0.02025637
-0.050667617 0.10219983 0.12701036 0.097253494 -0.10677781 0.14971282 -0.090141386 -0.048876133
0.010812609 -0.08525244 -0.09628972 0.05732197 -0.16884497 -0.0062421924 -0.049005106 0.047705825
-0.21276796 -0.12482294 0.09445896 0.10635779 -0.13904886 -0.043309588 -0.11237271 -0.10187291
0.06830788 0.12241511 0.021649415 -0.17305982 0.1292118 0.036985163 0.08201188 -0.13590164
-0.0053896564 -0.08859218 -0.11386433 -0.04327587 0.06409815 0.17534702 0.041783486 -0.07756168
0.11262441 -0.0039762077 0.15533482 -0.047041185 0.13143456 -0.11362585 -0.15333675 -0.0109508075
-0.07132987 0.023721622 -0.23363669 -0.0741675 0.110566966 -0.15424305 -0.04945837 0.108673595
-0.14298223 0.0033780464 -0.06781947 0.092821255 -0.014524018 -0.18437111 -0.16152467 -0.05952142
0.117295995 0.051622596 0.018894719 0.0014964032 0.22762527 -0.027501678 0.16054158 -0.054939132
0.064552546 0.07162579 0.043824166 -0.026123289 0.09231625 0.058279626 0.019119611 0.15372199
-0.09421138 -0.15602018 -0.020747237 0.0073158173 0.020092664 -0.07564008 0.17510472 -0.069394656
0.029137054 -0.083632395 -0.033813678 -0.20029232 -0.10485608 -0.12929876 0.048745878 -0.0007075375
0.16338101 0.11590286 -0.084178254 0.07516516 -0.017954038 -0.10019328 0.1999433 0.03872648
0.02673868 0.03951642 -0.18322468 -0.15197657 0.12930565 -0.10418225 0.13812293 0.012311846
-0.10765363 0.07449082 -0.15108122 -0.06000979 -0.05924026 0.019780755 -0.053974204 0.04315351
-0.10927285 -0.007301422 -0.19462907 0.29006243 -0.0082974555 0.13943362 -0.18876974 -0.088094674
-0.060668644 0.0638426 0.007770589 -0.15694025 -0.27249604 -0.13412115 0.052838065 -0.034343377
0.19609922 -0.07296895 -0.010258522 0.01410088 0.08937241 -0.041326325 -0.07274561 0.0018436847
-0.07728026 -0.0121223545 0.10874245 -0.11537635 -0.11349711 0.18720706 -0.19862585 0.10155514
00000000: 3b3c 09be 3d57 9cbd 0c5e aebd 9a7e 1d3e
00000010: 3fd3 03be 5275 c23d e34a 593d 10f9 bbbd
00000020: d35d c0bc f93d 56be 0d84 413e 4755 f3bd
00000030: d5bc 47bc efe2 94bd 425b 0a3e 1d57 1abd
00000040: 24a1 dd3d bc46 21bd 75bb 5e3d 2e2b 413e
00000050: efc7 3cbe 24be 8fbd 26ca d83d 149a ae3d
00000060: 2dab 05ba 1a6d 923d f852 8c3d d54f b13d
00000070: 2127 06be f747 043d 3c79 52be adf5 193e
00000080: 2fb2 0b3d 8a1a 82bd a22e 9bbc 308c 60ba
00000090: 50b6 8e3a 8863 bcbd c071 96be 58ec 90bd
000000a0: 4fc3 523e 384c a23d 3913 a63c eab4 24be
000000b0: 20c9 c3bc 3760 d33b 52da 1dbe 99fc b8bd
000000c0: d26d 943d c72d debd 3c31 16be cd69 47bd
000000d0: 8067 ebbd aa65 c93d 700c a4bc 8d56 163c
000000e0: ac9f bf3d ee27 cd3d 2bc2 b03b 80df 773d
000000f0: aa0c 09be 9d77 c83d acf7 fabb d59b 13bc
00000100: 4c49 14bd 16e6 4d3c 792f c53c 01fa cd3c
00000110: 0a74 d8bd e7b1 81bd f4f8 43ba f604 f5bd
00000120: 6dcb 21be 064d c03a c0b0 e6bd 5375 4c3c
00000130: 7781 21bd 9ca7 8cbd cb7f 84bd a8e9 483d
00000140: 6c51 9e3b d937 2c3e e0a4 2bbe ff38 143d
00000150: fafe 19bd 135a debd fdca 47bc 8883 ca3d
00000160: 02af 1f3d bbdb a13a f875 b1bc 16c9 8e3d
00000170: 28f1 1c3c ad55 683e e072 553c bb8d 293d
00000180: cff6 123e 6c61 f8bd 0018 30be d3c7 433d
00000190: b4f7 373d 58b0 623d 34c7 10be b0f0 a5bc
000001a0: d988 4fbd 254e d13d 010f 023e d72c c73d
000001b0: 53ae dabd 514e 193e 0c9c b8bd 5732 48bd
000001c0: 5f27 313c d598 aebd 8b33 c5bd 71ca 6a3d
000001d0: b2e5 2cbe 4e8b ccbb 94b9 48bd 2f67 433d
000001e0: d8df 59be 2ba3 ffbd b373 c13d 1dd2 d93d
000001f0: d362 0ebe 6565 31bd aa23 e6bd bfa2 d0bd
00000200: 00e5 8b3d c6b4 fa3d 1d5a b13c 9836 31be
00000210: 1950 043e c17d 173d d8f5 a73d cd29 0bbe
00000220: b79b b0bb d16f b5bd b431 e9bd 0a42 31bd
00000230: e445 833d 2b8e 333e 2925 2b3d a8d8 9ebd
00000240: a0a7 e63d d94a 82bb 1710 1f3e 42ae 40bd
00000250: c896 063e abb4 e8bd 4f04 1dbe 046b 33bc
00000260: 6515 92bd d953 c23c 753e 6fbe 21e5 97bd
00000270: ef70 e23d e4f1 1dbe dc94 4abd 4390 de3d
00000280: ef69 12be 3762 5d3b efe4 8abd 1219 be3d
00000290: 26f6 6dbc c8cb 3cbe b966 25be bccc 73bd
000002a0: e238 f03d 3772 533d 19c9 9a3c f622 c43a
000002b0: 9916 693e 334b e1bc 0365 243e db07 61bd
000002c0: 2034 843d 8bb0 923d f880 333d 8200 d6bc
000002d0: 4d10 bd3d 9eb6 6e3d bba0 9c3c 4c69 1d3e
000002e0: e5f1 c0bd c1c3 1fbe 1cf6 a9bc 86b9 ef3b
000002f0: 5f99 a43c 30e9 9abd a74e 333e c91e 8ebd
00000300: d5b0 ee3c 7647 abbd 3680 0abd 6e19 4dbe
00000310: c9be d6bd e566 04be c2a9 473d 0a7a 39ba
00000320: 5a4d 273e 7b5e ed3d a665 acbd 31f0 993d
00000330: 5914 93bc 2232 cdbd f0bd 4c3e a89f 1e3d
00000340: 140b db3c f8db 213d 409f 3bbe bf9f 1bbe
00000350: b368 043e 815d d5bd 1970 0d3e a0b7 493c
00000360: 8279 dcbd a58e 983d 09b5 1abe d3cc 75bd
00000370: eaa5 72bd 400b a23c 0e14 5dbd bcc1 303d
00000380: 72ca dfbd c440 efbb d84c 47be 1083 943e
00000390: 0df2 07bc b0c7 0e3e db4c 41be fb6a b4bd
000003a0: af7f 78bd e9bf 823d 6da0 fe3b f2b4 20be
000003b0: 9a84 8bbe 0e57 09be ba6c 583d a4ab 0cbd
000003c0: 3cce 483e bf70 95bd 5c13 28bc 6107 673c
000003d0: e208 b73d cb45 29bd a6fb 94bd cba7 f13a
000003e0: 1d45 9ebd d79c 46bc 5db4 de3d 704a ecbd
000003f0: 2c71 e8bd 35b3 3f3e 9364 4bbe 24fc cf3d

encoder.l1.2.bias f4 [64]
-0.07424304 0.07723441 -0.0019168176 -0.023619045 -0.06409154 -0.026360197 -0.0604461 -0.08035658
0.08235445 -0.053596776 0.04700113 0.12188246 -0.08596765 0.04698935 -0.05862366 0.101710334
-0.034474127 -0.020640561 0.11344483 -0.0550337 0.031186843 0.015315196 0.036648016 0.011741947
-0.08494841 0.023907227 -0.02206362 0.055461966 -0.117057696 0.08605262 0.009438518 -4.4798384e-05
-0.013478846 -0.03552922 -0.0017185587 -0.06109341 0.103959434 0.08570336 0.042208415 0.03663697
-0.10138663 0.00476469 -0.14417006 -0.064065844 -0.08229643 -0.08070115 0.059495986 -0.06878826
0.023852795 -0.005266169 0.05585157 -0.047396023 0.059502095 0.09916194 0.114294216 0.06758736
0.11318332 0.11912154 -0.051812846 0.03345046 -0.070255496 -0.032466393 0.07149557 -0.11258521
00000000: bc0c 98bd 132d 9e3d ba3d fbba ba7c c1bc
00000010: 6d42 83bd 57f1 d7bc 5496 77bd fe91 a4bd
00000020: 73a9 a83d 4b88 5bbd 4284 403d 839d f93d
00000030: cf0f b0bd e877 403d 5d1f 70bd 824d d03d
00000040: be34 0dbd 6516 a9bc c355 e83d 046b 61bd
00000050: 8d7b ff3c 96ec 7a3c 3b1c 163d 4c61 403c
00000060: 6ff9 adbd 17d9 c33c c4be b4bc 162c 633d
00000070: f2bb efbd 5b3c b03d 04a4 1a3c e6e5 3bb8
00000080: 61d6 5cbc 1687 11bd 4341 e1ba 153d 7abd
00000090: afe8 d43d 3e85 af3d bbe2 2c3d a610 163d
000000a0: cba3 cfbd 1e21 9c3b 51a1 13be f434 83bd
000000b0: 088b a8bd a546 a5bd 10b2 733d dce0 8cbd
000000c0: f066 c33c d48f acbb 9ec4 643d 5522 42bd
000000d0: 78b8 733d 6a15 cb3d 1613 ea3d 3e6b 8a3d
000000e0: a8cc e73d fef5 f33d b539 54bd 5903 093d
000000f0: 1de2 8fbd 7bfb 04bd 456c 923d 1393 e6bd

decoder.l1.0.weight f4 [64, 64]
-0.05416219 -0.050476547 0.0619266 -0.04926793 0.010748966 0.07634934 -0.00975787 -0.12340923
-0.00020994587 0.097790174 0.097491816 -0.111292586 0.103469856 -0.035816707 0.07648271 -0.031975713
0.021610396 -0.038500555 -0.020477528 -0.047945622 -0.065176636 0.04713534 0.10249746 0.083954215
0.08303198 -0.11213896 0.032650914 -0.03818963 0.024734553 0.0043094195 -0.114121035 0.011444941
0.11173727 0.048155166 0.11629588 0.07864948 0.093089774 0.016350377 0.0842493 0.030790562
0.03944276 0.08410475 0.04502949 0.06883712 -0.102697544 -0.084988445 0.07908804 -0.007999419
0.057285577 -0.123493776 -0.04924445 -0.024221666 -0.011718213 0.042260017 0.029376715 0.029732535
-0.082552 -0.07062433 -0.09530987 -0.09698467 -0.011319775 0.016307391 0.082272485 0.01475508
0.06332142 -0.047384515 -0.1203955 -0.12795866 -0.16212545 0.005920906 0.12649792 0.1350557
-0.0754722 -0.07527498 0.13413608 0.0013334618 0.08179449 -0.080102295 0.06461891 0.19054283
0.058092713 0.0048510707 -0.12664722 0.11288998 0.07243397 0.23630941 -0.024368731 0.07167905
-0.057709754 -0.12814151 -0.10661378 -0.051172342 -0.15019476 -0.17203973 -0.025164349 0.14111105
-0.1946698 0.054217655 -0.16662568 -0.08680437 -0.04024509 -0.10562213 0.030364858 -0.09924361
-0.1157624 0.09824449 -0.014278235 -0.08336819 -0.0459102 -0.11630743 -0.20625424 -0.06301078
-0.12630752 0.1781885 -0.05693635 0.108275846 -0.13968398 0.025651034 0.29715633 0.3594054
-0.0006034307 -0.04971885 0.19117299 0.015439199 -0.06045272 -0.14369154 -0.288991 -0.191079
-0.12186507 -0.17043997 -0.2736364 -0.1796507 0.28918192 -0.122891404 -0.027127825 -0.124120325
0.0846206 -0.10862223 0.03054753 0.107600406 -0.035476107 0.05803978 -0.027087782 0.0675936
-0.111336 0.006954033 0.09202261 -0.19027396 0.01880573 0.05621999 -0.099726126 0.00023440178
0.039058775 0.04772537 -0.050797604 -0.040637564 0.19479206 -0.076087564 -0.053270366 -0.022325894
-0.058451593 0.043816775 0.15390982 -0.13050905 0.09908117 -0.14801453 0.0035251044 0.057286933
-0.09107427 0.24014752 -0.02887747 -0.15292795 -0.049141202 0.04915949 0.12394871 0.16538489
0.07566754 -0.04365305 -0.11611134 0.12816224 0.16674848 -0.18190058 -0.11340301 0.14244397
-0.040101357 -0.011169721 0.0017387054 0.066247575 0.07546204 -0.092116356 0.09326647 -0.11990173
0.085497275 0.07896835 -0.097219996 0.044191442 0.025000937 0.019959597 0.014265003 -0.01595559
0.11137165 0.019466354 0.008961853 0.007820992 0.04413915 -0.014755833 -0.050108086 -0.079083666
-0.014188728 0.0037107395 0.0518737 0.0052677295 0.02948468 -0.0713543 0.023466917 -0.07128268
-0.016679354 0.036436386 0.028755715 -0.096299484 -0.09309988 0.023119763 0.047360446 0.027015543
-0.043654732 -0.14343882 0.06406051 0.15319997 -0.047891185 0.04365088 0.021898296 -0.06711276
0.15106294 -0.09519105 -0.026826076 -0.015861765 -0.053197388 -0.045119368 -0.10964444 -0.01716361
-0.06478067 -0.027246716 0.155264 0.13482109 -0.1396025 0.029318573 0.08853216 0.057019774
-0.04103727 -0.01587914 -0.045858115 -0.06017159 -0.0774391 0.08763325 -0.03517713 -0.04752163
00000000: 2cd9 5dbd 7fc0 4ebd bfa6 7d3d 2bcd 49bd
00000010: 6e1c 303c 0b5d 9c3d 79df 1fbc fabd fcbd
00000020: ea24 5cb9 3746 c83d caa9 c73d 5eed e3bd
00000030: 01e8 d33d 8ab4 12bd f8a2 9c3d f7f8 02bd
00000040: 4908 b13c c2b2 1dbd 7dc0 a7bc a162 44bd
00000050: 547b 85bd fc10 413d 30ea d13d 30f0 ab3d
00000060: ac0c aa3d 1ca9 e5bd f7bc 053d bb6c 1cbd
00000070: 1ea0 ca3c 0836 8d3b 4ab8 e9bd 9083 3b3c
00000080: 83d6 e43d 5a3e 453d 892c ee3d fb12 a13d
00000090: daa5 be3d 3af1 853c e68a ac3d 7d3c fc3c
000000a0: bb8e 213d 1c3f ac3d d870 383d 7afa 8c3d
000000b0: 1753 d2bd 6c0e aebd e9f8 a13d ff0f 03bc
000000c0: 48a4 6a3d 4eea fcbd 8cb4 49bd 846c c6bc
000000d0: bffd 3fbc d718 2d3d 70a7 f03c a591 f33c
000000e0: 0611 a9bd 7da3 90bd d231 c3bd e69f c6bd
000000f0: 9476 39bc 1497 853c 7a7e a83d 4bbf 713c
00000100: a9ae 813d 4416 42bd ea91 f6bd 9807 03be
00000110: 3704 26be 2904 c23b ac88 013e 0b4c 0a3e
00000120: 2b91 9abd c529 9abd f85a 093e 8ec7 ae3a
00000130: df83 a73d ac0c a4bd eb56 843d a91d 433e
00000140: a0f2 6d3d bbf5 9e3b cfaf 01be dd32 e73d
00000150: 4358 943d 18fb 713e efa0 c7bc 77cc 923d
00000160: 1061 6cbd 8737 03be 5358 dabd 179a 51bd
00000170: a8cc 19be 2f2b 30be 7725 cebc 6a7f 103e
00000180: 8557 47be 5513 5e3d ec9f 2abe 7dc6 b1bd
00000190: 09d8 24bd 6a50 d8bd b9bf f83c 3c40 cbbd
000001a0: d614 edbd 6834 c93d 42ef 69bc f1bc aabd
000001b0: 550c 3cbd 9732 eebd 5034 53be cc0b 81bd
000001c0: c256 01be 0c77 363e 1736 69bd babf dd3d
000001d0: 5109 0fbe 1e22 d23c e024 983e fc03 b83e
000001e0: 8c2f 1eba fea5 4bbd dac2 433e b2f4 7c3c
000001f0: 459d 77bd e023 13be a1f6 93be 37aa 43be
00000200: 6594 f9bd d187 2ebe 121a 8cbe 5af6 37be
00000210: a70f 943e 7dae fbbd 2c3b debc cc32 febd
00000220: 914d ad3d 5575 debd d03e fa3c 9a5d dc3d
00000230: 654f 11bd 1fbb 6d3d 32e7 ddbc 836e 8a3d
00000240: 2104 e4bd a8de e33b 5a76 bc3d 2dd7 42be
00000250: 790e 9a3c ef46 663d 363d ccbd c0c9 7539
00000260: 18fc 1f3d ad7b 433d 2611 50bd 9373 26bd
00000270: 9277 473e ccd3 9bbd 0732 5abd cbe4 b6bc
00000280: f06a 6fbd 3879 333d 899a 1d3e 2aa4 05be
00000290: 12eb ca3d 1f91 17be 7005 673b b4a5 6a3d
000002a0: 2685 babd 3be9 753e 7290 ecbc 2599 1cbe
000002b0: 4948 49bd 765b 493d d2d8 fd3d a85a 293e
000002c0: 95f7 9a3d 8acd 32bd c8cb edbd f63c 033e
000002d0: 1dc0 2a3e 2544 3abe d63f e8bd d5dc 113e
000002e0: 5241 24bd 3501 37bc 46e5 e33a cfac 873d
000002f0: d88b 9a3d 80a7 bcbd 7e02 bf3d 0a8f f5bd
00000300: 3219 af3d 29ba a13d 471b c7bd 1602 353d
00000310: c4ce cc3c 4f82 a33c c2b7 693c 4cb5 82bc
00000320: d216 e43d e777 9f3c bcd4 123c 9e23 003c
00000330: 41cb 343d 73c2 71bc 233e 4dbd 9ef6 a1bd
00000340: d777 68bc e12f 733b 8479 543d eb9c ac3b
00000350: db89 f13c 3422 92bd b13d c03c a7fc 91bd
00000360: 24a3 88bc 523e 153d 1b91 eb3c aa38 c5bd
00000370: 26ab bebd a865 bd3c 07fd 413d b34f dd3c
00000380: 4ecf 32bd a0e1 12be 2832 833d 74e0 1c3e
00000390: 8c29 44bd 44cb 323d 0e64 b33c 6a72 89bd
000003a0: 3eb0 1a3e 86f3 c2bd 5cc2 dbbc 88f0 81bc
000003b0: 81e5 59bd 16cf 38bd 448d e0bd b39a 8cbc
000003c0: baab 84bd 8134 dfbc 87fd 1e3e 8a0e 0a3e
000003d0: f5f3 0ebe 812d f03c 5950 b53d 918d 693d
000003e0: b216 28bd f814 82bc b8d5 3bbd 7c76 76bd
000003f0: 6498 9ebd 1079 b33d e515 10bd 0aa6 42bd

decoder.l1.0.bias f4 [64]
-0.018933902 -0.017634531 -0.089676104 -0.13994688 0.0120644085 0.0768838 0.11787118 -0.09347647
0.0954819 0.06745753 0.004439747 -0.014545981 0.048353884 -0.09929877 0.10003695 0.02047702
0.10214411 0.02449224 0.14994583 0.08112989 0.06831138 0.014652937 0.0583989 -0.061992995
0.1263984 -0.053026736 0.011666641 0.07151816 -0.06287241 -0.081064984 0.043733496 -0.005439965
-0.096512586 0.12133433 -0.021553114 -0.07899592 0.05284556 0.075332195 0.047898963 -0.06906726
0.12744197 -0.025356816 -0.11232585 0.008730344 0.015394325 0.09118044 0.023048924 -0.06833037
0.120914675 0.06273183 -0.07468426 0.040231407 -0.0068949275 -0.010353565 0.07531233 -0.08424022
0.03478298 6.56296e-05 0.029087355 0.10085522 -0.09907738 0.0048140325 -0.020530857 -0.027176125
00000000: 451b 9bbc 4b76 90bc 1ba8 b7bd 3c4e 0fbe
00000010: cca9 453c 4175 9d3d 7266 f13d 9770 bfbd
00000020: 048c c33d 2c27 8a3d 4c7b 913b 4452 6ebc
00000030: b90e 463d 275d cbbd 2ce0 cc3d 6cbf a73c
00000040: ee30 d13d f3a3 c83c 668b 193e 6e27 a63d
00000050: d6e6 8b3d df12 703c af33 6f3d 5eec 7dbd
00000060: 956e 013e 9032 59bd 7025 3f3c 1d78 923d
00000070: 40c3 80bd 6605 a6bd e521 333d bc41 b2bb
00000080: 64a8 c5bd 227e f83d 2890 b0bc 9dc8 a1bd
00000090: 9674 583d c447 9a3d b431 443d 2373 8dbd
000000a0: 2680 023e 19b9 cfbc 180b e6bd b709 0f3c
000000b0: 7b38 7c3c cfbc ba3d 19d1 bc3c cbf0 8bbd
000000c0: 1da2 f73d 8c79 803d 10f4 98bd b0c9 243d
000000d0: d8ee e1bb 00a2 29bc 5a3d 9a3d 2386 acbd
000000e0: 9978 0e3d a0a2 8938 9b48 ee3c 2e8d ce3d
000000f0: 15e9 cabd 08bf 9d3b 5430 a8bc 77a0 debc

decoder.l1.2.weight f4 [128, 64]
0.04216512 0.2248803 -0.25450334 0.0022250998 0.25054795 -0.083692096 -0.20588362 -0.026894195
0.02882857 0.13123554 -0.1214887 -0.041241653 0.19059347 0.044210907 0.17995912 -0.10883085
-0.17654759 0.23616345 -0.16410992 0.1477806 0.10108989 -0.034539536 -0.0573342 0.10414808
0.017336309 0.16956863 0.11378248 0.11608265 0.01794891 -0.26475686 0.08340804 0.05894828
0.016000405 0.22066025 -0.18667069 -0.3609709 0.030019326 -0.063155964 0.073191665 0.095460035
-0.117844254 -0.2681366 -0.1855143 0.18511243 0.19961317 0.046829514 0.16012236 -0.2773986
-0.20635116 0.234579 0.011418646 -0.029712074 0.08056444 0.10914697 0.061833963 0.19108352
0.25748554 0.06776715 -0.059380848 -0.033594847 -0.11394737 0.24068569 -0.033133257 0.22876729
0.07967544 -0.25248826 -0.09825831 -0.043081697 0.163207 0.08672001 0.14347205 0.009022841
0.07604855 -0.016448153 0.10454354 -0.032664314 0.21047044 -0.12285126 -0.07463442 -0.054828893
0.10349135 -0.04211744 -0.102921925 -0.022729952 0.08428819 0.0839872 -0.039419558 -0.11180755
-0.21555737 -0.31072178 0.5571679 0.09445969 0.15388912 0.13052684 -0.037833605 -0.057981532
-0.007072732 0.059000075 0.46389845 -0.064017475 -0.080994956 -0.020130344 0.081881076 0.031943835
0.19923519 -0.060349923 0.08790571 0.0473445 0.25426596 -0.0029498641 0.031328075 -0.51677704
0.16565701 0.037317384 0.13005364 0.092518196 0.06935198 -0.029951032 -0.055348814 -0.17070201
0.1373061 0.30062032 0.16108434 0.17961647 -0.04924666 -0.024020528 0.05390869 -0.098439224
-0.06489524 0.104186095 -0.080543414 -0.0935134 0.047672734 -0.03659119 -0.196174 0.011251985
-0.16177344 0.2987389 0.032351565 -0.016356995 0.07415484 -0.17988822 -0.010660576 0.15796264
0.10645547 -0.20026939 -0.09803022 0.10633896 -0.085145116 -0.04678313 0.010533202 -0.21913001
-0.05463643 0.26073167 0.16493773 -0.0032864606 0.023379285 -0.094285 -0.07092715 0.16658339
0.07367356 0.12607096 0.13837534 -0.29066798 0.03152208 -0.12029388 0.006618665 -0.063270435
0.15794985 -0.043641135 0.055166118 0.09397705 -0.04750303 -0.101615556 -0.012665847 0.3310772
-0.042145077 0.057672236 -0.06779526 0.09655563 0.009090712 0.11047281 -0.011857046 0.26302993
-0.12538862 0.14329493 0.27027455 -0.04422278 -0.0132348025 -0.014587127 0.02822303 0.22203645
-0.014874856 -0.21372345 0.13707997 -0.09009609 -0.13500077 -0.15158148 0.13191175 0.08321323
0.11997487 0.02540048 0.037656743 0.023816677 0.022511717 0.022498097 -0.013493822 -0.2652907
-0.015380273 -0.008205519 0.020015309 0.10421334 0.24800198 0.111053854 -0.093354166 0.11618954
-0.42053002 0.3368535 -0.23240873 -0.09375276 -0.05195252 0.094315514 0.05571723 0.026476275
0.2594556 0.19924086 -0.29001865 -0.077427916 -0.07262197 -0.010148421 -0.027826402 0.05435605
0.008063923 0.116492435 0.0448947 0.02316866 -0.26145968 -0.007428884 0.085840665 -0.26665124
0.07096109 0.1323098 -0.054365233 -0.10024466 0.121448524 -0.012968558 -0.030264458 0.058632422
-0.043249756 0.4410771 0.22586504 0.018985203 0.03699791 0.050618924 0.019607274 -0.008503614
00000000: 55b5 2c3d 0547 663e 434e 82be fbd2 113b
00000010: d247 803e c366 abbd 28d3 52be 3751 dcbc
00000020: e529 ec3c 9c62 063e 11cf f8bd 02ed 28bd
00000030: ef2a 433e 7f16 353d 3447 383e b5e2 debd
00000040: e4c8 34be d5d4 713e 6e0c 28be cc53 173e
00000050: 3708 cf3d 5479 0dbd 44d7 6abd 974b d53d
00000060: e004 8e3c 66a3 2d3e ca06 e93d bebc ed3d
00000070: 9809 933c 368e 87be d6d1 aa3d c073 713d
00000080: 4813 833c c3f4 613e 9a26 3fbe 2ed1 b8be
00000090: 17eb f53c ea57 81bd 83e5 953d 8d80 c33d
000000a0: 5458 f1bd 3349 89be 76f7 3dbe 1d8e 3d3e
000000b0: 6567 4c3e 4ed0 3f3d 1ef7 233e 3007 8ebe
000000c0: b84d 53be 7a35 703e 4615 3b3c bc66 f3bc
000000d0: f8fe a43d 7288 df3d 9c45 7d3d 66ab 433e
000000e0: 25d5 833e 81c9 8a3d 5539 73bd c09a 09bd
000000f0: 3d5d e9bd 4f76 763e bdb6 07bd f941 6a3e
00000100: e12c a33d 2446 81be a73b c9bd 6f76 30bd
00000110: bc1f 273e 439a b13d 56ea 123e 8ad4 133c
00000120: 58bf 9b3d 47be 86bc ec1a d63d 04cb 05bd
00000130: 9085 573e 7199 fbbd eed9 98bd 4394 60bd
00000140: 46f3 d33d 5683 2cbd bbc8 d2bd 2a34 babc
00000150: 499f ac3d 7b01 ac3d 6776 21bd 5bfb e4bd
00000160: 12bb 5cbe ed16 9fbe 8ea2 0e3f 1574 c13d
00000170: 1c95 1d3e d4a8 053e 69f7 1abd 0b7e 6dbd
00000180: 60c2 e7bb 10aa 713d 1984 ed3e 981b 83bd
00000190: afe0 a5bd 64e8 a4bc 44b1 a73d 8ad7 023d
000001a0: 4f04 4c3e 7b31 77bd e907 b43d 4eec 413d
000001b0: 262f 823e 8252 41bb de51 003d 804b 04bf
000001c0: fea1 293e 1dda 183d c82c 053e 2e7a bd3d
000001d0: 6908 8e3d de5b f5bc 70b5 62bd 82cc 2ebe
000001e0: f899 0c3e e8ea 993e 4bf3 243e 61ed 373e
000001f0: deb6 49bd b3c6 c4bc 5ccf 5c3d 819a c9bd
00000200: cce7 84bd 855f d53d f2f3 a4bd f483 bfbd
00000210: 7c44 433d a5e0 15bd d6e1 48be 3f5a 383c
00000220: f0a7 25be 4ef4 983e 1383 043d 1bff 85bc
00000230: 7ede 973d 9e34 38be b2a9 2ebc f5c0 213e
00000240: 5305 da3d 6b13 4dbe 11c4 c8bd 3ec8 d93d
00000250: 9060 aebd ab9f 3fbd 7493 2c3c 9e63 60be
00000260: 73ca 5fbd 9f7e 853e 70e5 283e a961 57bb
00000270: ea85 bf3c 7e18 c1bd 4142 91bd d694 2a3e
00000280: 2ae2 963d bf18 013e 44b2 0d3e 6fd2 94be
00000290: 4c1d 013d a35c f6bd 63e1 d83b ee93 81bd
000002a0: 9bbd 213e 0cc1 32bd def5 613d 0a77 c03d
000002b0: 8a92 42bd d11b d0bd 6a84 4fbc f382 a93e
000002c0: 51a0 2cbd b939 6c3d 3ed8 8abd f5be c53d
000002d0: 36f1 143c 923f e23d 0e44 42bc dcab 863e
000002e0: e065 00be e8bb 123e 6d61 8a3e f222 35bd
000002f0: c9d6 58bc d8fe 6ebc fc33 e73c 865d 633e
00000300: abb5 73bc 52da 5abe b15e 0c3e 4d84 b8bd
00000310: a43d 0abe 2d38 1bbe e013 073e b36b aa3d
00000320: 62b5 f53d ab14 d03c f53d 1a3d 311b c33c
00000330: 7e6a b83c ee4d b83c 3115 5dbc 2fd4 87be
00000340: 8afd 7bbc 7170 06bc 25f7 a33c ce6d d53d
00000350: 3bf4 7d3e 3470 e33d 7830 bfbd c8f4 ed3d
00000360: b64f d7be 1078 ac3e 8efc 6dbe 7201 c0bd
00000370: 2acc 54bd 7e28 c13d c037 643d c6e4 d83c
00000380: 5dd7 843e cc05 4c3e 537d 94be 8792 9ebd
00000390: d4ba 94bd 9045 26bc 32f4 e3bc 73a4 5e3d
000003a0: 8b1e 043c 9693 ee3d 81e3 373d 34cc bd3c
000003b0: 0bde 85be ff6d f3bb 3bcd af3d 8386 88be
000003c0: 0c54 913d 387c 073e 14ae 5ebd 134d cdbd
000003d0: 01ba f83d 137a 54bc 2bed f7bc 8d28 703d
000003e0: a826 31bd dcd4 e13e 2a49 673e db86 9b3c
000003f0: 1f8b 173d ca55 4f3d 6f9f a03c be52 0bbc

decoder.l1.2.bias f4 [128]
0.04515456 0.048575528 0.08973898 0.059363335 0.099383935 -0.05337345 0.11247209 -0.03260125
0.14252764 0.06910719 -0.04113434 0.015476614 0.031487625 0.1108268 -0.11247367 0.12564015
-0.032139484 -0.066504486 0.0633164 0.114014514 0.032288134 0.04580013 0.06913071 -0.075635746
0.019331394 0.08445856 0.040480625 -0.07542433 -0.105309986 -0.043632995 -0.04616559 -0.016403357
0.09098031 0.088606104 -0.014215858 -0.0015944671 -0.0064463946 0.046920985 0.004527369 -0.052201934
-0.08166955 -0.057157665 -0.0774295 0.09400742 0.08682114 -0.05668451 -0.11799775 -0.024775533
-0.011942663 0.09469242 0.006209814 -0.030597636 0.1240148 -0.060404174 -0.087192856 -0.0884776
0.115090154 -0.06765275 0.05576429 -0.081133164 -0.0036266535 -0.082953535 -0.060921215 -0.1179651
0.0518073 0.016062513 -0.008962225 0.0091297915 0.014733486 -0.09335896 0.010344413 0.017178077
0.07166511 0.11172309 -0.010997696 -0.08860759 0.025834631 -0.065141775 -0.067709744 -0.08930489
0.042665176 -0.035201337 -0.030681247 0.084742196 0.02597285 0.004610963 -0.045454733 0.009044096
-0.08235451 -0.005691838 0.053277425 0.0155317485 -0.0154774245 -0.07003608 0.05690481 -0.04504542
-0.06863377 -0.12239849 0.0657921 0.095329836 0.15171106 0.03780857 -0.09654266 -0.07921
-0.043055505 0.10927022 0.02468125 -0.01452169 -0.117044345 -0.075419225 -0.007832692 -0.103839636
-0.08444017 -0.023745604 0.010581209 0.05924023 -0.078578025 0.04513454 0.05351634 -0.043721378
-0.008603557 -0.022084305 -0.054481253 -0.05189046 -0.13654369 0.10180071 -0.03615324 -0.059119374
00000000: fdf3 383d 22f7 463d 12c9 b73d f826 733d
00000010: ce89 cb3d 1e9e 5abd c457 e63d e388 05bd
00000020: c4f2 113e 1288 8d3d 7b7c 28bd a091 7d3c
00000030: 2bf9 003d 29f9 e23d 9858 e6bd d0a7 003e
00000040: b1a4 03bd 8133 88bd 07ac 813d 7180 e93d
00000050: 9040 043d eb98 3b3d 6794 8d3d eae6 9abd
00000060: df5c 9e3c 9cf8 ac3d 03cf 253d 1278 9abd
00000070: c3ac d7bd 83b8 32bd 2118 3dbd 5560 86bc
00000080: e353 ba3d 1e77 b53d a1e9 68bc 70fd d0ba
00000090: 473c d3bb 3830 403d 535a 943b b2d1 55bd
000000a0: 5d42 a7bd 281e 6abd 5c93 9ebd f686 c03d
000000b0: 48cf b13d 042e 68bd cea8 f1bd 0ff6 cabc
000000c0: 29ab 43bc 19ee c13d b27b cb3b e5a7 fabc
000000d0: 79fb fd3d 5e6a 77bd 2b92 b2bd be33 b5bd
000000e0: 63b4 eb3d 868d 8abd 1969 643d 2529 a6bd
000000f0: 26ad 6dbb 8be3 a9bd 8688 79bd b097 f1bd
00000100: e433 543d 8895 833c 4cd6 12bc 1f95 153c
00000110: b864 713c fb32 bfbd 9d7b 293c 0ab9 8c3c
00000120: 28c5 923d 13cf e43d ae2f 34bc e577 b5bd
00000130: 26a3 d33c 0d69 85bd 68ab 8abd 7be5 b6bd
00000140: aec1 2e3d 472f 10bd 3d57 fbbc 518d ad3d
00000150: 04c5 d43c 9017 973b be2e 3abd b02d 143c
00000160: 7ba9 a8bd 9982 babb 6e39 5a3d e078 7e3c
00000170: 0695 7dbc 146f 8fbd 0515 693d 8c81 38bd
00000180: dd8f 8cbd 0fac fabd 02be 863d 4a3c c33d
00000190: 255a 1b3e 29dd 1a3d 28b8 c5bd da38 a2bd
000001a0: f85a 30bd 11c9 df3d 5530 ca3c 62ec 6dbc
000001b0: f2b4 efbd 6575 9abd b154 00bc e0a9 d4bd
000001c0: f8ee acbd 2486 c2bc cf5c 2d3c e2a5 723d
000001d0: 84ed a0bd ffde 383d f333 5b3d 3015 33bd
000001e0: eff5 0cbc 25ea b4bc bc27 5fbd 178b 54bd
000001f0: 1cd2 0bbe e47c d03d 6b15 14bd 2827 72bd

exp_avg f4 [64, 128]
1.025918e-05 2.5566467e-05 6.974268e-05 5.5683736e-06 1.5301306e-05 4.840631e-06 -5.7037476e-05 -4.4244483e-05
-2.8437164e-05 -1.5291918e-05 -2.631548e-05 -3.2024076e-05 5.659136e-07 -3.8242408e-05 -1.5343367e-05 -3.9552422e-05
5.3461144e-06 3.884634e-07 5.7794634e-05 -8.5273816e-05 -1.3039788e-05 2.8597278e-05 2.5870537e-05 4.373142e-05
-3.5448968e-05 -3.284088e-06 -3.774612e-05 -2.286502e-05 -3.34855e-05 -1.2749846e-06 1.1533536e-05 3.7713027e-05
-2.112993e-05 7.4585645e-05 -1.2076893e-05 8.266857e-06 1.3611381e-05 5.8197485e-05 -4.788259e-05 -3.0799274e-05
-3.1200416e-05 -1.9278954e-05 -3.1731533e-06 -1.1778547e-05 -1.2418817e-06 4.5543467e-05 -1.2089971e-05 1.5212698e-05
1.1903469e-06 -1.5780768e-05 3.2522676e-05 -2.022259e-05 2.2249696e-05 -2.7829496e-05 -3.807621e-05 1.2292243e-05
-5.1011673e-05 -4.202424e-05 -9.264461e-06 7.4949394e-06 1.4540868e-05 -1.3356559e-05 6.715333e-05 -3.40522e-05
4.5337467e-05 -2.868107e-05 1.0355385e-05 4.593849e-05 1.7267683e-05 -1.7381779e-05 8.099167e-06 -1.4777037e-06
-1.25792485e-05 1.5952155e-05 -3.7381513e-05 -3.841683e-05 -1.9567764e-05 3.1568827e-05 2.2621645e-05 -5.5396562e-05
8.47601e-06 -3.430293e-05 -2.0568607e-06 4.279113e-05 4.1645708e-05 2.897169e-05 1.5219394e-05 2.1050606e-05
-5.963249e-06 5.1160887e-06 -6.816739e-06 1.0733161e-05 -3.5225705e-05 4.2006122e-05 4.7031703e-05 -4.6432087e-05
-3.6251255e-05 1.8372702e-05 -1.396575e-05 4.004518e-05 1.35055325e-05 3.913914e-05 -8.260227e-06 -2.2085855e-05
-9.11366e-06 4.716372e-06 -3.268664e-06 2.2043557e-06 4.609289e-06 2.0916807e-05 -3.5290806e-05 4.2506283e-05
-3.888515e-06 -2.342853e-05 -3.8414917e-05 -4.6867422e-05 -1.2689887e-05 -1.5913196e-06 -2.9155286e-05 -1.6498969e-05
4.6365796e-05 -2.2698707e-05 4.7960043e-06 -1.4480088e-06 -2.735656e-05 -7.470337e-06 3.2304828e-07 3.4377907e-05
6e-45 6e-45 0.0 6e-45 6e-45 6e-45 6e-45 6e-45
6e-45 0.0 6e-45 6e-45 6e-45 6e-45 0.0 0.0
6e-45 6e-45 0.0 6e-45 0.0 6e-45 6e-45 6e-45
6e-45 6e-45 6e-45 0.0 6e-45 6e-45 6e-45 6e-45
6e-45 0.0 6e-45 6e-45 6e-45 6e-45 6e-45 6e-45
0.0 6e-45 0.0 6e-45 0.0 6e-45 6e-45 0.0
6e-45 0.0 6e-45 6e-45 6e-45 6e-45 6e-45 6e-45
6e-45 6e-45 0.0 6e-45 0.0 6e-45 6e-45 6e-45
6e-45 6e-45 6e-45 6e-45 0.0 0.0 6e-45 0.0
0.0 6e-45 0.0 0.0 6e-45 6e-45 6e-45 6e-45
6e-45 6e-45 6e-45 6e-45 6e-45 6e-45 6e-45 6e-45
0.0 6e-45 6e-45 0.0 6e-45 6e-45 6e-45 6e-45
6e-45 6e-45 6e-45 6e-45 0.0 6e-45 6e-45 6e-45
6e-45 6e-45 6e-45 6e-45 6e-45 6e-45 6e-45 6e-45
6e-45 6e-45 6e-45 0.0 6e-45 0.0 6e-45 6e-45
6e-45 6e-45 6e-45 6e-45 0.0 0.0 6e-45 6e-45
00000000: d81e 2c37 9277 d637 d142 9238 f7d7 ba36
00000010: 4e5b 8037 b46c a236 863b 6fb8 2793 39b8
00000020: 588c eeb7 2547 80b7 10c0 dcb7 9751 06b8
00000030: 49e9 1735 7966 20b8 a1b5 80b7 17e5 25b8
00000040: c662 b336 018e d034 8468 7238 08d5 b2b8
00000050: 77c5 5ab7 30e4 ef37 8e04 d937 416c 3738
00000060: 0aaf 14b8 3464 5cb6 9651 1eb8 42ce bfb7
00000070: c872 0cb8 2320 abb5 2980 4137 0e2e 1e38
00000080: 2e40 b1b7 dd6a 9c38 dc9d 4ab7 e1b1 0a37
00000090: 705c 6437 1319 7438 8ad5 48b8 782e 01b8
000000a0: 31dd 02b8 3db9 a1b7 5cf2 54b6 799c 45b7
000000b0: bbae a6b5 ed05 3f38 08d6 4ab7 0a3a 7f37
000000c0: 02c4 9f35 f160 84b7 f568 0838 aea3 a9b7
000000d0: dca4 ba37 6373 e9b7 05b4 1fb8 c83a 4e37
000000e0: 5ef5 55b8 2f43 30b8 8f6e 1bb7 0a7d fb36
000000f0: 8df4 7337 fc15 60b7 abd4 8c38 45d3 0eb8
00000100: bc28 3e38 2198 f0b7 0abc 2d37 14ae 4038
00000110: 11da 9037 16cf 91b7 a8e1 0737 8355 c6b5
00000120: 760b 53b7 fed0 8537 18ca 1cb8 c221 21b8
00000130: 7425 a4b7 c568 0438 9dc3 bd37 9b59 68b8
00000140: 3034 0e37 7ee0 0fb8 9908 0ab6 a07a 3338
00000150: bdac 2e38 3b08 f337 cd56 7f37 d595 b037
00000160: eb17 c8b6 deaa ab36 58bb e4b6 9312 3437
00000170: 50bf 13b8 bb2f 3038 e843 4538 13c0 42b8
00000180: 7d0c 18b8 141f 9a37 714e 6ab7 2ff6 2738
00000190: d295 6237 5529 2438 6895 0ab7 0345 b9b7
000001a0: dfe6 18b7 5441 9e36 385b 5bb6 8bee 1336
000001b0: 7ea9 9a36 8076 af37 3705 14b8 c648 3238
000001c0: 177a 82b6 6388 c4b7 b41f 21b8 8393 44b8
000001d0: a6e6 54b7 5395 d5b5 8092 f4b7 4467 8ab7
000001e0: e578 4238 1a69 beb7 5ded a036 3459 c2b5
000001f0: c47b e5b7 b5a9 fab6 6b6f ad34 ff30 1038
00000200: 0400 0000 0400 0000 0000 0000 0400 0000
00000210: 0400 0000 0400 0000 0400 0000 0400 0000
00000220: 0400 0000 0000 0000 0400 0000 0400 0000
00000230: 0400 0000 0400 0000 0000 0000 0000 0000
00000240: 0400 0000 0400 0000 0000 0000 0400 0000
00000250: 0000 0000 0400 0000 0400 0000 0400 0000
00000260: 0400 0000 0400 0000 0400 0000 0000 0000
00000270: 0400 0000 0400 0000 0400 0000 0400 0000
00000280: 0400 0000 0000 0000 0400 0000 0400 0000
00000290: 0400 0000 0400 0000 0400 0000 0400 0000
000002a0: 0000 0000 0400 0000 0000 0000 0400 0000
000002b0: 0000 0000 0400 0000 0400 0000 0000 0000
000002c0: 0400 0000 0000 0000 0400 0000 0400 0000
000002d0: 0400 0000 0400 0000 0400 0000 0400 0000
000002e0: 0400 0000 0400 0000 0000 0000 0400 0000
000002f0: 0000 0000 0400 0000 0400 0000 0400 0000
00000300: 0400 0000 0400 0000 0400 0000 0400 0000
00000310: 0000 0000 0000 0000 0400 0000 0000 0000
00000320: 0000 0000 0400 0000 0000 0000 0000 0000
00000330: 0400 0000 0400 0000 0400 0000 0400 0000
00000340: 0400 0000 0400 0000 0400 0000 0400 0000
00000350: 0400 0000 0400 0000 0400 0000 0400 0000
00000360: 0000 0000 0400 0000 0400 0000 0000 0000
00000370: 0400 0000 0400 0000 0400 0000 0400 0000
00000380: 0400 0000 0400 0000 0400 0000 0400 0000
00000390: 0000 0000 0400 0000 0400 0000 0400 0000
000003a0: 0400 0000 0400 0000 0400 0000 0400 0000
000003b0: 0400 0000 0400 0000 0400 0000 0400 0000
000003c0: 0400 0000 0400 0000 0400 0000 0000 0000
000003d0: 0400 0000 0000 0000 0400 0000 0400 0000
000003e0: 0400 0000 0400 0000 0400 0000 0400 0000
000003f0: 0000 0000 0000 0000 0400 0000 0400 0000

exp_avg_sq f4 [64, 128]
7.108636e-07 1.3476705e-06 6.7448883e-07 6.3722814e-07 1.5940822e-07 5.6916946e-07 5.768507e-07 3.6368326e-07
3.921753e-06 1.1085738e-07 1.7008298e-07 5.441876e-07 1.9853795e-07 5.4223574e-07 1.2004021e-07 1.6034637e-07
1.6502298e-07 3.3339091e-07 2.0531556e-07 5.889779e-07 1.8566105e-07 3.829356e-07 1.7448635e-07 5.936427e-07
2.6736416e-07 2.8580786e-07 1.9928339e-07 3.022011e-07 2.940312e-07 1.4264167e-07 3.171388e-07 2.1305904e-07
1.3731368e-07 2.247588e-07 1.3754482e-07 1.1544868e-07 5.6493693e-08 7.9962284e-08 6.0965203e-07 3.0632484e-07
1.0022066e-07 2.0571427e-07 4.6943023e-07 1.3228146e-07 1.7314116e-07 2.2182999e-07 2.3122206e-07 1.2786725e-07
2.611653e-07 3.210086e-07 1.07423475e-07 2.2611914e-07 5.513705e-07 8.3847056e-07 1.4587e-07 2.4298808e-07
3.6424524e-07 3.7510816e-07 2.9775342e-07 1.2602139e-07 1.8380062e-07 1.08087136e-07 1.6880986e-07 2.3689569e-07
6.337843e-07 1.6996725e-07 3.4524157e-07 3.355177e-07 1.5581648e-07 7.976625e-08 3.3667186e-07 9.600434e-08
1.6094364e-07 1.4393353e-07 4.2731426e-08 1.312773e-07 1.3403395e-07 1.1534458e-07 1.2126866e-07 1.3721699e-07
9.76992e-08 5.035703e-07 4.832806e-07 7.0136444e-08 3.0940333e-07 6.189304e-07 1.6512544e-07 3.2387828e-07
6.1268615e-08 8.8246445e-08 1.5278678e-07 1.0202824e-07 4.887209e-07 1.2095566e-07 9.5084026e-08 7.252881e-08
1.2260234e-07 1.0871415e-07 2.40492e-07 1.7989042e-07 4.987531e-07 1.4296417e-07 2.5983064e-07 1.0918605e-07
1.02694415e-07 1.6864006e-07 7.88404e-07 9.713055e-08 1.2412124e-07 4.3543426e-07 2.0086699e-07 6.437652e-08
2.8990894e-07 8.728064e-07 1.3656471e-07 2.5647735e-08 4.1682335e-07 8.691338e-08 7.2908165e-08 7.405771e-08
4.2069286e-07 7.007732e-08 1.4146137e-07 1.0314876e-07 1.0235122e-07 9.982082e-08 1.2058211e-07 1.7079655e-07
1.1738437e-13 1.6346745e-12 0.0 3.489399e-14 8.8977366e-13 6.7800567e-13 1.2244872e-12 1.1776527e-12
5.1428527e-12 0.0 2.794021e-13 1.049642e-12 1.1387178e-12 6.960433e-13 0.0 0.0
5.0743063e-13 7.984792e-14 0.0 6.4923432e-15 0.0 5.0743063e-13 8.8977366e-13 1.4111941e-12
5.0743063e-13 5.542651e-13 3.7666124e-13 0.0 8.172762e-14 6.4923432e-15 8.651165e-14 8.172762e-14
1.2144144e-12 0.0 8.821987e-14 6.2742444e-13 8.5366306e-13 6.851649e-13 4.6833766e-14 6.341119e-13
0.0 4.6833766e-14 0.0 8.8977366e-13 0.0 7.335578e-14 2.8315964e-13 0.0
7.2831807e-13 0.0 3.489399e-14 3.489399e-14 9.366088e-13 1.2018922e-13 1.2018922e-13 7.335578e-14
5.536178e-13 3.489399e-14 0.0 5.0743063e-13 0.0 7.3480984e-13 3.489399e-14 4.1386297e-14
5.536178e-13 1.0164542e-12 8.821987e-14 5.8915833e-13 0.0 0.0 8.601562e-13 0.0
0.0 6.4923432e-15 0.0 0.0 8.8977366e-13 7.8409794e-13 7.069574e-13 5.0743063e-13
6.672959e-13 7.959379e-13 3.489399e-14 3.489399e-14 5.3326294e-14 5.4881663e-13 1.2668213e-13 3.435536e-13
0.0 5.8915833e-13 1.049642e-12 0.0 8.7070184e-13 6.004521e-13 9.631306e-13 5.80787e-13
8.651165e-14 8.8977366e-13 2.2348775e-13 6.288367e-13 0.0 1.3437526e-13 1.4284021e-13 6.4923432e-15
1.3437526e-13 6.2761954e-13 6.9993105e-13 6.3532935e-13 1.5227759e-13 5.0743063e-13 9.762849e-13 8.651165e-14
5.542651e-13 1.242476e-12 8.9626836e-13 0.0 1.2449003e-12 0.0 5.0743063e-13 5.542651e-13
4.6833766e-14 8.172762e-14 7.3480984e-13 2.8850763e-13 0.0 0.0 5.9394254e-13 5.8915833e-13
00000000: 2dd2 3e35 9be1 b435 850e 3535 fc0d 2b35
00000010: cc29 2b34 07c9 1835 e1d8 1a35 3f40 c334
00000020: 9a97 8336 7d10 ee33 0ea0 3634 4a14 1235
00000030: b22d 5534 288e 1135 67e4 0034 ad2b 2c34
00000040: 2c31 3134 e6fc b234 b674 5c34 411a 1e35
00000050: 1f5a 4734 4596 cd34 715a 3b34 d15a 1f35
00000060: 408a 8f34 2271 9934 9afa 5534 343e a234
00000070: 57db 9d34 0b29 1934 3a43 aa34 39c5 6434
00000080: 7f70 1334 3a55 7134 08b0 1334 95ec f733
00000090: 79a3 7233 bbb7 ab33 f8a6 2335 f774 a434
000000a0: e438 d733 4fe2 5c34 0006 fc34 4009 0e34
000000b0: aee8 3934 2a30 6e34 d645 7834 e24b 0934
000000c0: 4936 8c34 1657 ac34 aeb0 e633 28cb 7234
000000d0: e401 1435 4213 6135 71a0 1c34 0774 8234
000000e0: 7c8d c334 7962 c934 ebda 9f34 7f50 0734
000000f0: bb5a 4534 881d e833 1a42 3534 645d 7e34
00000100: 5321 2a35 3e80 3634 a459 b934 3421 b434
00000110: 824e 2734 f64b ab33 d4bf b434 f22a ce33
00000120: dacf 2c34 268c 1a34 b387 3733 3bf5 0c34
00000130: f9ea 0f34 5ab3 f733 1336 0234 eb55 1334
00000140: b4ce d133 162d 0735 caba 0135 eb9d 9633
00000150: 121c a634 9324 2635 564d 3134 7ee1 ad34
00000160: c792 8333 ff81 bd33 b60d 2434 9e1a db33
00000170: a530 0335 0ae0 0134 ff30 cc33 23c1 9b33
00000180: ada4 0334 3c76 e933 f81c 8134 e727 4134
00000190: 0de2 0535 b181 1934 da7e 8b34 aa79 ea33
000001a0: da88 dc33 6d13 3534 b6a2 5335 1696 d033
000001b0: 3046 0534 a1c5 e934 e6ad 5734 5e3f 8a33
000001c0: c8a4 9b34 cd4a 6a35 9fa2 1234 f74f dc32
000001d0: c4c7 df34 23a5 ba33 b091 9c33 a809 9f33
000001e0: 96db e134 6a7d 9633 9be4 1734 a182 dd33
000001f0: 2ecc db33 135d d633 5c79 0134 3364 3734
00000200: be29 042a 5b0f e62b 0000 0000 0826 1d29
00000210: f372 7a2b 75d7 3e2b cd54 ac2b 69bd a52b
00000220: b3f2 b42c 0000 0000 164a 9d2a 57b9 932b
00000230: a242 a02b 35eb 432b 0000 0000 0000 0000
00000240: 3bd4 0e2b 31cd b329 0000 0000 4ce9 e927
00000250: 0000 0000 3bd4 0e2b f372 7a2b a09b c62b
00000260: 3bd4 0e2b 0203 1c2b 9b0a d42a 0000 0000
00000270: c408 b829 4ce9 e927 92ce c229 c408 b829
00000280: e4e9 aa2b 0000 0000 4ba7 c629 b29a 302b
00000290: e848 702b 56db 402b a8eb 5229 947c 322b
000002a0: 0000 0000 a8eb 5229 0000 0000 f372 7a2b
000002b0: 0000 0000 ba2e a529 9b67 9f2a 0000 0000
000002c0: d900 4d2b 0000 0000 0826 1d29 0826 1d29
000002d0: e3d0 832b 2f52 072a 2f52 072a ba2e a529
000002e0: 5ed4 1b2b 0826 1d29 0000 0000 3bd4 0e2b
000002f0: 0000 0000 a1d4 4e2b 0826 1d29 2763 3a29
00000300: 5ed4 1b2b 9f0d 8f2b 4ba7 c629 55d5 252b
00000310: 0000 0000 0000 0000 c91c 722b 0000 0000
00000320: 0000 0000 4ce9 e927 0000 0000 0000 0000
00000330: f372 7a2b 36b4 5c2b a6fd 462b 3bd4 0e2b
00000340: bdd3 3b2b 5f09 602b 0826 1d29 0826 1d29
00000350: 0829 7029 687a 1a2b a3a1 0e2a 4b67 c12a
00000360: 0000 0000 55d5 252b 57b9 932b 0000 0000
00000370: ae14 752b 2203 292b 708c 872b 1d7a 232b
00000380: 92ce c229 f372 7a2b f59f 7b2a 7600 312b
00000390: 0000 0000 084b 172a e3d2 202a 4ce9 e927
000003a0: 084b 172a c1a8 302b 5903 452b 4ed4 322b
000003b0: 0773 2b2a 3bd4 0e2b 5f66 892b 92ce c229
000003c0: 0203 1c2b eadc ae2b f146 7c2b 0000 0000
000003d0: 4334 af2b 0000 0000 3bd4 0e2b 0203 1c2b
000003e0: a8eb 5229 c408 b829 a1d4 4e2b 556a a22a
000003f0: 0000 0000 0000 0000 122e 272b 55d5 252b

exp_avg f4 [64]
3.9297443e-06 6e-45 1.7925991e-05 -2.045557e-05 8.687747e-06 6e-45 1.7901607e-08 -2.803741e-05
1.2639351e-05 2.2767328e-05 -2.1265596e-06 1.4025672e-09 3.0405728e-05 -2.1778393e-05 6.946472e-06 7.707717e-13
-4.8805712e-05 -3.1475844e-05 -2.318531e-05 -1.60135e-05 -2.3743261e-05 6e-45 -9.491695e-06 6e-45
8.38612e-21 3.5995452e-06 -3.7330283e-05 -3.3865577e-05 7.020121e-06 -8.836171e-06 -4.913976e-05 4.3930584e-05
-2.6224017e-05 5.653064e-29 -3.515653e-05 3.6243528e-05 3.9898838e-05 7.55743e-07 -1.7680673e-05 6.7291563e-09
5.576404e-05 5.5273264e-05 2.9592597e-05 2.3213297e-05 -1.0741991e-06 -2.6583217e-05 1.9443973e-05 -4.819632e-05
-1.4048106e-05 -3.4145687e-05 7.001145e-15 1.4606321e-08 -3.2147396e-05 -1.3462168e-06 9.448112e-10 -2.6988369e-06
-2.6220254e-05 -1.9536046e-05 -2.9792247e-05 6e-45 -3.6539118e-13 -3.2967077e-05 3.2666423e-05 6e-45
00000000: 3fdc 8336 0400 0000 c65f 9637 0198 abb7
00000010: 97c1 1137 0400 0000 0dc6 9932 e131 ebb7
00000020: 990d 5437 77fc be37 04b6 0eb6 72c4 c030
00000030: ce0f ff37 beb0 b6b7 bd15 e936 f4f3 582b
00000040: bcb4 4cb8 ee04 04b8 137e c2b7 bb54 86b7
00000050: 442c c7b7 0400 0000 853e 1fb7 0400 0000
00000060: ca68 1e1e b78f 7136 1693 1cb8 e30a 0eb8
00000070: 618e eb36 113f 14b7 6a1b 4eb8 1b42 3838
00000080: a6fb dbb7 7c52 8f10 0975 13b8 3104 1838
00000090: 0d59 2738 43de 4a35 f550 94b7 4936 e731
000000a0: 2fe4 6938 37d5 6738 9e3d f837 2dba c237
000000b0: 332d 90b5 06ff deb7 9d1b a337 6826 4ab8
000000c0: 28b0 6bb7 a737 0fb8 2a3e fc27 47ef 7a32
000000d0: 01d6 06b8 a8af b4b5 97da 8130 aa1d 35b6
000000e0: 91f3 dbb7 57e1 a3b7 5dea f9b7 0400 0000
000000f0: 6bb2 cdaa 2146 0ab8 4e03 0938 0400 0000

exp_avg_sq f4 [64]
1.4731572e-07 1.8565612e-13 4.2501018e-08 9.545212e-08 1.2186204e-07 1.6213109e-11 5.0531507e-10 1.6405708e-07
1.5634588e-07 9.164179e-08 1.4794493e-07 4.777728e-10 1.14643036e-07 1.6795701e-07 2.3092957e-07 2.0741855e-09
3.249891e-07 1.2567196e-07 1.7802824e-07 1.0983246e-07 1.3253371e-07 9.0656177e-13 1.0315149e-07 4.452063e-11
5.0917217e-09 5.948848e-08 1.858753e-07 2.5462137e-07 1.2242215e-07 1.0602558e-07 1.3745164e-07 2.6293517e-07
1.6459818e-07 1.37618935e-11 3.4925463e-07 1.516818e-07 2.0392538e-07 1.923488e-07 2.3332075e-07 1.2760962e-10
1.7479913e-07 2.4912526e-07 1.550696e-07 8.944655e-08 1.3026963e-07 2.5911282e-07 1.1427399e-07 7.9006114e-08
1.7767603e-07 1.15629746e-07 1.2685789e-10 1.1620596e-10 1.3809341e-07 1.181379e-07 3.8418366e-10 9.513876e-08
1.0894169e-07 1.13883566e-07 9.7475734e-08 4.804908e-13 5.002209e-10 2.9532205e-07 1.401959e-07 1.5427092e-11
00000000: d62d 1e34 bc07 512a 5d8a 3633 5cfb cc33
00000010: 2fd9 0234 ad9c 8e2d 63e6 0a30 ab27 3034
00000020: 07e0 2734 9bcc c433 cbda 1e34 4654 0330
00000030: ad31 f633 ac57 3434 70f5 7734 7589 0e31
00000040: 297a ae34 72f0 0634 0828 3f34 09dd eb33
00000050: 974e 0e34 a92c 7f2b 2284 dd33 c6cd 432e
00000060: 42f3 ae31 4780 7f33 0395 4734 e5b2 8834
00000070: 2573 0334 2eb0 e333 6b96 1334 8929 8d34
00000080: 67bc 3034 0f1a 722d 3181 bb34 fadd 2234
00000090: 95f6 5a34 7088 4e34 b886 7a34 ea4e 0c2f
000000a0: 6bb0 3b34 84bf 8534 3581 2634 c315 c033
000000b0: 3ee0 0b34 321c 8b34 ca66 f533 12aa a933
000000c0: 37c7 3e34 2050 f833 527b 0b2f 248a ff2e
000000d0: d446 1434 ffb2 fd33 0b35 d32f 164f cc33
000000e0: 54f3 e933 2790 f433 da53 d133 033f 072b
000000f0: eb7f 0930 c18c 9e34 c188 1634 b9b2 872d
