src/projects/scrnaseq_project/lightning_logs/ae_experiment/version_5/checkpoints/epoch=3-step=2788.ckpt (torch, 310195 bytes, 24 tensors)

encoder.l1.0.weight f4 [64, 128]
0.08592929 0.09264148 -0.0033725132 0.0047474597 -0.16690403 -0.0055011553 0.12893838 -0.11071278
-0.0061048227 0.04020701 0.0038270522 -0.052390486 0.025136719 0.048166495 -0.15853932 0.13819985
-0.14775158 0.12964393 0.10179148 0.056759175 -0.020404162 -0.013357276 -0.108402394 -0.06936888
-0.10837444 -0.0736129 0.023316557 0.14570318 -0.019357277 -0.010838682 0.15183577 -0.02828803
0.1247518 -0.20802289 0.069040835 -0.0064570913 -0.059995525 -0.02349835 0.097930275 -0.10162032
0.11087367 0.069630384 0.026701838 -0.020653857 0.16920525 0.12200116 -0.011568825 0.04660016
-0.006371524 0.12722652 -0.03546966 -0.07705167 0.06285946 0.09288825 -0.04665849 0.009785443
-0.035504177 0.020307729 0.09508985 -0.055634152 -0.036977287 0.19360416 0.097809546 -0.04863223
-0.019245546 0.041686613 0.056693826 0.12238581 -0.13579498 0.22705145 0.2324564 -0.014134522
0.121378176 0.011420727 0.07932049 -0.07253163 -0.010271512 0.23082991 -0.06498418 0.03165616
-0.041424178 0.028519297 -0.08876825 0.20816416 -0.09417479 -0.072201625 0.0048124446 0.023478089
-0.08882131 -0.036353394 -0.13793951 -0.0752577 0.07438938 0.033135407 0.028924037 -0.37092876
1.6066631e-05 0.15053442 0.089702286 -0.07077107 0.010878422 -0.10707437 0.18304929 0.120887205
-0.09693246 0.039455988 0.11741183 0.15599187 0.11945732 -0.039600253 -0.060948465 -0.0077851443
-0.14900562 0.07440574 0.050411586 -0.077102475 0.08228401 -0.04106373 -0.09004854 -0.12499472
0.0066435486 0.012222306 0.1472087 0.118120246 0.16946232 0.030134678 -0.117390394 0.0069460263
-0.12941387 -0.07430904 0.13219523 0.13842899 0.12420434 0.006092255 0.022897463 0.11731574
0.2727174 0.07985508 -0.09708467 0.03009016 0.07928558 0.17310795 -0.11938714 0.039465692
-0.15171267 0.110373326 0.004159538 -0.06196326 0.09490607 0.057916492 0.07915366 -0.079532556
-0.032489624 -0.14975458 0.16037573 -0.06848902 -0.07258521 0.08786991 -0.01178935 0.083047666
0.08142089 -0.04159849 0.095175385 0.0523958 0.031959314 0.24563847 0.0015799182 -0.07546358
-0.124903955 0.11735999 0.0076755304 0.08507501 0.09874645 -0.07982432 0.011572689 -0.12714674
-0.12344446 -0.031523377 -0.15218206 -0.2051257 0.054219402 -0.031524528 0.055552304 0.01979229
0.002181306 0.00063181564 -0.01632416 0.0020002418 0.09848346 0.1666297 0.14268577 -0.0123941135
-0.04072932 0.057875 -0.044895455 0.040387273 -0.17824385 0.013254676 -0.05156641 -0.15055488
0.063712694 0.037669744 -0.111897476 0.106783256 -0.19910407 0.030031797 0.07085784 -0.04015813
0.00030963594 0.10675261 -0.07804444 0.0062078196 0.15940878 -0.12306316 0.12858157 -0.036877085
-0.05793251 -0.027024308 -0.03418911 0.015214431 0.057559073 -0.058108702 -0.09616211 0.1599523
0.034297045 0.16887386 0.16096966 0.04272258 -0.071353026 -0.16820404 0.044343747 -0.1236067
-0.057688203 -0.10132671 -0.0026816435 -0.17276838 0.08151974 0.05250688 0.054751236 0.13599719
-0.06938398 0.055700824 0.0137948105 -0.01746029 0.021741612 -0.000719673 0.05482476 0.095807895
0.048017956 0.14788832 0.15690972 0.00457584 0.0071114893 0.0030561641 0.018759886 0.03954743
00000000: b2fb af3d d1ba bd3d 6205 5dbb 9490 9b3b
00000010: e4e8 2abe 0943 b4bb 6c08 043e 62bd e2bd
00000020: f70a c8bb 1bb0 243d 48cf 7a3b 6897 56bd
00000030: 85eb cd3c 3b4a 453d 2258 22be 4384 0d3e
00000040: 314c 17be 61c1 043e 0d78 d03d 4f7c 683d
00000050: a126 a7bc 7ad8 5abc 1302 debd 4511 8ebd
00000060: 6bf3 ddbd 5cc2 96bd 5d02 bf3c 3733 153e
00000070: 2793 9ebc ba94 31bc d67a 1b3e 4cbc e7bc
00000080: df7d ff3d f403 55be 4865 8d3d 0296 d3bb
00000090: debd 75bd 9d7f c0bc ab8f c83d 501e d0bd
000000a0: bc11 e33d 609a 8e3d d0bd da3c 4732 a9bc
000000b0: 2444 2d3e bfdb f93d 2b8b 3dbc cfdf 3e3d
000000c0: 38c8 d0bb ab47 023e a248 11bd 44cd 9dbd
000000d0: 76bc 803d 323c be3d f91c 3fbd 1f53 203c
000000e0: d46c 11bd 655c a63c 78be c23d a3e0 63bd
000000f0: 7f75 17bd 2b40 463e 5f50 c83d 9732 47bd
00000100: d6a8 9dbc 95bf 2a3d c937 683d 69a5 fa3d
00000110: d70d 0bbe 2d80 683e 0d09 6e3e 7b94 67bc
00000120: 1f95 f83d 001e 3b3c c872 a23d 778b 94bd
00000130: d849 28bc ad5e 6c3e 6d16 85bd e4a9 013d
00000140: 66ac 29bd 4da1 e93c 21cc b5bd fc28 553e
00000150: b6de c0bd 72de 93bd b6b1 9d3b 1f55 c03c
00000160: f2e7 b5bd 4ce7 14bd 0440 0dbe b620 9abd
00000170: 7659 983d feb8 073d 1af2 ec3c 60ea bdbe
00000180: d4c6 8637 b225 1a3e d5b5 b73d 6cf0 90bd
00000190: 693b 323c cf49 dbbd 4671 3b3e b693 f73d
000001a0: 8784 c6bd 9a9c 213d 9d75 f03d 55bc 1f3e
000001b0: 0aa6 f43d e033 22bd 19a5 79bd 861a ffbb
000001c0: ee94 18be 0962 983d 617c 4e3d e7e7 9dbd
000001d0: 8584 a83d 7132 28bd 5e6b b8bd 3bfd ffbd
000001e0: 20b2 d93b 1140 483c e1bd 163e 07e9 f13d
000001f0: 8887 2d3e 00dd f63c 606a f0bd 7e9b e33b
00000200: 1285 04be 572f 98bd 305e 073e 54c0 0d3e
00000210: d85e fe3d 8aa1 c73b 7693 bb3c 3c43 f03d
00000220: 9da1 8b3e 0f8b a33d 54d4 c6bd a47f f63c
00000230: 7a60 a23d 3643 313e 3f81 f4bd c7a6 213d
00000240: 915a 1bbe 690b e23d bc4c 883b 30cd 7dbd
00000250: 1d5e c23d d839 6d3d 501b a23d f7e1 a2bd
00000260: d713 05bd 4459 19be 8939 243e f943 8cbd
00000270: 8ea7 94bd 24f5 b33d 1e28 41bc e514 aa3d
00000280: ffbf a63d 2e63 2abd 50eb c23d fa9c 563d
00000290: c5e7 023d a788 7b3e 4215 cf3a a68c 9abd
000002a0: a5cd ffbd 6f5a f03d 0483 fb3b cf3b ae3d
000002b0: 943b ca3d ef7a a3bd 609b 3d3c c132 02be
000002c0: 73d0 fcbd a81e 01bd 9dd5 1bbe 790c 52be
000002d0: 2a15 5e3d dd1f 01bd d08a 633d 7123 a23c
000002e0: 3ef4 0e3b 6ea0 253a 3fba 85bc 7d16 033b
000002f0: b2b1 c93d faa0 2a3e 381c 123e ae10 4bbc
00000300: cad3 26bd 560e 6d3d 4ce4 37bd 206d 253d
00000310: 8e85 36be 242a 593c 4d37 53bd 0f2b 1abe
00000320: cd7b 823d 974b 1a3d 812a e5bd 2eb1 da3d
00000330: f0e1 4bbe 3e05 f63c ea1d 913d da7c 24bd
00000340: a256 a239 1da1 da3d c3d5 9fbd f76a cb3b
00000350: 0e3c 233e 8a08 fcbd e3aa 033e 6d0c 17bd
00000360: a44a 6dbd 1562 ddbc e109 0cbd f345 793c
00000370: 10c3 6b3d 6403 6ebd a4f0 c4bd 89ca 233e
00000380: 0f7b 0c3d 45ed 2c3e 3bd5 243e dffd 2e3d
00000390: 8921 92bd ae3d 2cbe caa1 353d 8225 fdbd
000003a0: 774a 6cbd 6184 cfbd 83be 2fbb 32ea 30be
000003b0: d2f3 a63d 7411 573d d542 603d d942 0b3e
000003c0: 3019 8ebd 8c26 643d a103 623c e208 8fbc
000003d0: 771b b23c 70a8 3cba ed8f 603d ee36 c43d
000003e0: 7aae 443d 0970 173e f1ac 203e eef0 953b
000003f0: 7f07 e93b ed49 483b 55ae 993c 7cfc 213d

encoder.l1.0.bias f4 [64]
-0.014513832 0.1298039 0.021375535 -0.04886942 0.013799908 -0.034935907 0.10736621 0.042454623
0.0010771633 -0.04905422 0.024528814 -0.03179119 -0.06440743 0.050183643 -0.08896589 -0.0356609
0.05222644 0.00810171 0.01901551 -0.046878036 0.048579916 0.021603188 0.045169722 -0.056478437
-0.065862104 0.02174608 0.06575411 0.13354443 0.07167084 0.016713005 0.09557923 0.0833918
-0.09423829 -0.040108256 0.014935053 -0.0004947988 0.049124498 -0.097134955 -0.008631828 -0.049010046
0.009487789 0.10528755 0.029135268 -0.04873843 0.046054788 0.066626646 0.052060075 0.14679146
0.073120795 -0.018782767 0.057277955 -0.09984034 0.011331507 0.027112328 0.12427815 0.0817886
-0.061692104 -0.004418492 0.09801775 -0.08117677 0.07224398 0.08853373 0.02470731 0.040886775
00000000: 6ccb 6dbc 50eb 043e bf1b af3c 4d2b 48bd
00000010: 0219 623c f418 0fbd d1e2 db3d e6e4 2d3d
00000020: 9a2f 8d3a 14ed 48bd a7f0 c83c 7b37 02bd
00000030: 0be8 83bd 5d8d 4d3d c033 b6bd 2a11 12bd
00000040: 64eb 553d 09bd 043c 6ac6 9b3c 2f03 40bd
00000050: bcfb 463d 2bf9 b03c e303 393d ef55 67bd
00000060: b6e2 86bd d624 b23c 17aa 863d dfbf 083e
00000070: 29c8 923d b6e9 883c 0bbf c33d 52c9 aa3d
00000080: 0100 c1bd 8e48 24bd 27b2 743c 63b5 01ba
00000090: c536 493d b1ee c6bd 836c 0dbc c2be 48bd
000000a0: ac72 1b3c 00a1 d73d 16ad ee3c f3a1 47bd
000000b0: f2a3 3c3d 8d73 883d f23c 553d 8050 163e
000000c0: 5bc0 953d 51de 99bc 4a9c 6a3d 1879 ccbd
000000d0: c9a7 393c ac1a de3c 8b85 fe3d c880 a73d
000000e0: dcb0 7cbd ffc8 90bb 88bd c83d 0240 a6bd
000000f0: a7f4 933d 2c51 b53d fc66 ca3c e478 273d

encoder.l1.2.weight f4 [64, 64]
0.1007014 -0.16263495 0.043881815 -0.06739028 -0.0783571 0.020571169 -0.06920016 0.040990826
0.16339177 0.19120194 0.058518875 0.13009237 -0.08068505 0.0633333 0.0069930567 -0.0076862997
0.04658104 -0.033369295 -0.18260881 0.13246088 -0.0140413195 -0.08635727 -0.0543888 -0.09779125
-0.039031755 0.19169745 -0.09282414 -0.040985774 -0.017697658 0.044525024 0.1323328 -0.14420432
0.09049584 -0.093548834 -0.0971291 -0.052796308 0.079624265 0.020203087 -0.08729537 -0.055988703
0.0022874137 0.08309216 0.117126934 0.074116886 -0.10317075 0.08656877 0.038217105 0.104265854
-0.08404847 0.28521535 -0.04045799 0.050680943 -0.2109128 -0.05291229 0.045708075 0.070477225
-0.0904488 0.0063243457 -0.07783562 0.07724024 0.12037988 0.08887666 0.014726115 0.015655193
0.02622525 0.08962641 0.06483155 -0.026899064 -0.032353316 0.20371976 0.103140496 0.04104535
0.0013977863 0.10494744 0.052394442 0.08820565 -0.095397115 -0.07778682 -0.041144256 -0.06949713
-0.034352005 -0.093801744 0.011741872 0.053172283 -0.15946878 -0.11872799 0.19972448 0.1357747
-0.035712294 -0.24539164 -0.04390914 0.12396939 -0.05181632 0.016182428 0.004992412 -0.014784096
0.0024948285 0.003718759 0.004983289 0.031858023 -0.12850061 0.115391254 0.14849767 0.1271315
0.11186357 0.1593185 0.0046324925 -0.25145125 -0.23814404 -0.0645628 -0.09992487 -0.0046665207
0.009317194 0.058268104 0.09612094 -0.011409299 0.14600343 -0.08921578 0.16497089 0.040996615
0.05449476 0.046761 -0.06054062 0.06706684 0.26336306 0.037550382 0.05090355 -0.08638055
0.043601185 0.016973618 -0.12293269 0.09444091 -0.03679384 0.062579386 -0.07487777 0.17257035
0.22940284 0.14108853 -0.10614578 0.08718243 -0.016559549 0.07076286 -0.10365882 0.2262428
-0.15770297 -0.010562185 0.10073884 -0.14525485 -0.11440788 -0.010354202 -0.1539153 -0.10832845
0.09015673 0.04723857 -0.16542982 0.05868728 -0.100391485 -0.0004272627 -0.041591205 -0.09062583
0.13135637 0.13712345 0.02179564 -0.22395065 -0.04047489 -0.039079614 0.081531785 -0.11275517
-0.098632865 -0.12073856 0.09468245 0.12174735 -0.19881445 -0.08581103 0.052215222 0.09323383
0.117917165 -0.18685634 -0.10850686 0.10923991 0.25455916 -0.03674052 -0.051471233 -0.02736414
0.0013780696 0.07609338 -0.2455189 0.034194626 0.12700114 -0.023801517 -0.09383554 -0.005458063
-0.051248707 -0.20794563 -0.036746413 -0.017998422 -0.0047965203 0.06737464 0.14585048 0.09091478
-0.1668976 0.11729644 -0.09426882 0.06784988 0.016797246 0.121126465 0.08150355 -0.16169462
0.14851706 0.06816034 -0.10323586 0.12744014 -0.091719605 0.0005039548 -0.119699486 0.07610387
0.08412371 0.12684241 0.013867343 -0.1315402 0.048503168 0.032045748 0.07933535 0.18090256
0.009274165 -0.008768372 0.008972011 -0.011237684 -0.115062855 0.00840672 0.022593066 0.13885136
0.08404125 -0.026215078 -0.04718233 0.16103889 0.14232741 0.03614921 0.16520078 -0.17654003
0.0064120735 0.14168358 0.008138351 -0.07222884 0.12269162 0.167823 -0.12689935 0.0077602225
0.03389906 0.008550925 -0.0005232321 -0.00952303 -0.19782689 -0.08552491 0.093045175 0.0068958914
00000000: 893c ce3d c789 26be 6bbd 333d ea03 8abd
00000010: b079 a0bd de84 a83c d0b8 8dbd ffe5 273d
00000020: 2c50 273e 71ca 433e 7db1 6f3d ef36 053e
00000030: 343e a5bd e4b4 813d 0326 e53b 5bdd fbbb
00000040: c3cb 3e3d 3eae 08bd cefd 3abe d3a3 073e
00000050: 900d 66bc 15dc b0bd cac6 5ebd c746 c8bd
00000060: c3df 1fbd 564c 443e 951a bebd b3e0 27bd
00000070: aefa 90bc df5f 363d 4082 073e 4caa 13be
00000080: e255 b93d 8896 bfbd 9feb c6bd f140 58bd
00000090: 0c12 a33d f280 a53c eac7 b2bd 6954 65bd
000000a0: 6fe8 153b 392c aa3d 3fe0 ef3d 98ca 973d
000000b0: 304b d3bd f84a b13d 8a89 1c3d 5689 d53d
000000c0: 9b21 acbd bf07 923e 47b7 25bd d296 4f3d
000000d0: 86f9 57be 8fba 58bd 6438 3b3d 5d56 903d
000000e0: 383d b9bd 753c cf3b 4868 9fbd 2230 9e3d
000000f0: ba89 f63d f704 b63d ce45 713c 523f 803c
00000100: 56d6 d63c 0d8e b73d 67c6 843d 6d5b dcbc
00000110: e984 04bd ea9b 503e 533b d33d 2b1f 283d
00000120: ed35 b73a afee d63d 8e9b 563d 2aa5 b43d
00000130: 905f c3bd b24e 9fbd e186 28bd 8354 8ebd
00000140: b0b4 0cbd 211b c0bd fb60 403c 2ecb 593d
00000150: c94b 23be a927 f3bd 9384 4c3e 8608 0b3e
00000160: 0e47 12bd f247 7bbe 12da 33bd aae3 fd3d
00000170: 593d 54bd 0391 843c 6397 a33b fe38 72bc
00000180: 4780 233b 6cb6 733b dc4a a33b 8f7d 023d
00000190: aa95 03be 4052 ec3d c60f 183e c32e 023e
000001a0: ba18 e53d 6424 233e 2acc 973b 38be 80be
000001b0: 08dc 73be 8039 84bd 69a5 ccbd 9de9 98bb
000001c0: 25a7 183c 89aa 6e3d 0edb c43d 12ee 3abc
000001d0: ec81 153e c3b6 b6bd 21ee 283e 11ec 273d
000001e0: e635 5f3d 7688 3f3d 71f9 77bd 575a 893d
000001f0: 86d7 863e 6ece 193d 3e80 503d 49e8 b0bd
00000200: 2897 323d 420c 8b3c 22c4 fbbd 3c6a c13d
00000210: 23b5 16bd 9f29 803d 8459 99bd 48b6 303e
00000220: 94e8 6a3e 8379 103e f562 d9bd b48c b23d
00000230: e4a7 87bc 1eec 903d 134b d4bd 31ac 673e
00000240: e37c 21be 040d 2dbc 2a50 ce3d b0bd 14be
00000250: ae4e eabd aca4 29bc f99b 1dbe 4edb ddbd
00000260: 17a4 b83d 3b7d 413d 6f66 29be 1362 703d
00000270: 0d9a cdbd 3b02 e0b9 8a5b 2abd 099a b9bd
00000280: 4982 063e 176a 0c3e c58c b23c 5253 65be
00000290: 00c9 25bd f211 20bd 23fa a63d 2fec e6bd
000002a0: 0700 cabd c745 f7bd dfe8 c13d ad56 f93d
000002b0: 0496 4bbe b1bd afbd a1df 553d 61f1 be3d
000002c0: 8e7e f13d 4557 3fbe d838 debd 2db9 df3d
000002d0: 9455 823e 3a7d 16bd 80d3 52bd c32a e0bc
000002e0: 58a0 b43a d9d6 9b3d 4e69 7bbe aa0f 0c3d
000002f0: 960c 023e 66fb c2bc d92c c0bd 8dd9 b2bb
00000300: 2aea 51bd b3ef 54be 6883 16bd 6d71 93bc
00000310: 212c 9dbb b7fb 893d d459 153e 8731 ba3d
00000320: 34e7 2abe 1e39 f03d 0310 c1bd e1f4 8a3d
00000330: 619a 893c 2711 f83d 55eb a63d 4693 25be
00000340: db14 183e a697 8b3d 536d d3bd ab7f 023e
00000350: 7dd7 bbbd d61b 043a 0125 f5bd 59dc 9b3d
00000360: 0d49 ac3d fae2 013e da33 633c 79b2 06be
00000370: 42ab 463d 6742 033d 927a a23d 853e 393e
00000380: abf2 173c 38a9 0fbc 57ff 123c 431e 38bc
00000390: 13a6 ebbd 57bc 093c 1815 b93c 0d2f 0e3e
000003a0: d21d ac3d 01c1 d6bc 4242 41bd 61e7 243e
000003b0: 47be 113e 3211 143d 652a 293e e9c6 34be
000003c0: 5f1c d23b 8015 113e b856 053c b7ec 93bd
000003d0: be45 fb3d cbd9 2b3e e7f1 01be 7749 fe3b
000003e0: bed9 0a3d 2e19 0c3c 8329 09ba 7c06 1cbc
000003f0: 2293 4abe af27 afbd 788e be3d eef6 e13b

encoder.l1.2.bias f4 [64]
0.021080399 -0.06254323 0.0024636271 0.08049407 -0.0018721283 -0.036427256 -0.10027313 0.07061928
-0.012836671 0.008091728 0.037671976 -0.03421091 0.03761199 0.031205615 0.0026858437 0.068818815
-0.002060735 0.09198031 0.06047914 0.013032649 0.03789906 -0.08848932 0.06158837 -0.047985498
-0.0070327576 0.09275211 -0.04875372 0.021023141 0.06952331 0.07653632 0.024710381 -0.0830267
-0.061100334 0.07832291 -0.08642034 0.07177343 -0.085489824 0.08716788 -0.009789974 0.008265715
0.05387884 -0.08477201 0.026645556 0.031693447 0.061136555 -0.11832061 -0.12931946 -0.06894901
-0.0456749 -0.08567665 0.021286767 -0.05386879 -0.10815367 0.10380258 -0.032563638 -0.0011877636
0.10557044 -0.014876319 0.043080114 0.1021299 -0.020914352 -0.0065779234 0.12042572 -0.10075224
00000000: cdb0 ac3c aa16 80bd ce74 213b 13da a43d
00000010: 3462 f5ba bf34 15bd 005c cdbd d7a0 903d
00000020: e750 52bc 2b93 043c ee4d 1a3d bd20 0cbd
00000030: 080f 1a3d eba2 ff3c fb04 303b e1f0 8c3d
00000040: 650d 07bb 2c60 bc3d fab8 773d e486 553c
00000050: 0b3c 1b3d e339 b5bd 1644 7c3d 718c 44bd
00000060: 0c73 e6bb d1f4 bd3d fbb1 47bd b938 ac3c
00000070: 3d62 8e3d 13bf 9c3d 6d6d ca3c e709 aabd
00000080: 5844 7abd c367 a03d 26fd b0bd f3fd 923d
00000090: 4a15 afbd 1385 b23d 2166 20bc ec6c 073c
000000a0: 0fb0 5c3d f39c adbd c847 da3c fdd0 013d
000000b0: 536a 7a3d 1352 f2bd 526c 04be 2335 8dbd
000000c0: 9b15 3bbd 3d77 afbd 9661 ae3c 85a5 5cbd
000000d0: ac7f ddbd 7296 d43d 7361 05bd bcae 9bba
000000e0: 5135 d83d cebb 73bc c674 303d 7b29 d13d
000000f0: 9354 abbc 9f8b d7bb c3a1 f63d 3157 cebd

decoder.l1.0.weight f4 [64, 64]
0.051235244 0.20284411 -0.13321078 -0.03924429 0.037487395 0.112228096 -0.08072287 -0.025954463
0.09539987 -0.22104152 0.021315662 -0.13763396 0.037409592 -0.002238534 0.0055957334 0.03932961
0.12148418 -0.020598633 -0.17651951 -0.086766966 -0.11168527 -0.07520177 -0.11772798 -0.041534785
0.07623105 0.0051547308 0.011153351 -0.043808084 0.09263341 0.19861102 0.02168265 0.13626088
0.0042284755 -0.057791263 -0.122169144 0.27497536 0.04893764 -0.18368053 0.11313826 0.11181428
-0.2119428 0.036927152 -0.08817617 0.031035127 0.123892315 0.10169562 0.17898402 0.04575466
-0.10606217 -0.14156787 0.01220123 -0.041853547 -0.01878363 0.12138112 0.04812259 -0.008635568
0.08950237 0.1014815 0.18177302 -0.13302019 0.16012707 0.014884855 0.14639711 -0.022915555
0.06057893 -0.113866955 0.18197201 0.26338667 0.07260286 -0.030461885 -0.04706895 0.06254532
0.118677825 -0.064475335 -0.12030446 -0.05803125 0.04114526 -0.08246911 0.02760833 -0.05396189
-0.15150449 0.18307798 0.096197195 0.02588115 0.1265376 -0.15335202 0.22907253 0.055643518
0.015061443 -0.027777521 0.09448192 -0.2083882 0.10092661 0.015049388 -0.2177581 0.04314503
0.003990553 0.0045199776 0.0752509 0.26794106 0.047158837 -0.15825348 -0.16134791 -0.03905815
-0.21564421 0.083033726 0.14098366 -0.045379076 -0.16473798 0.047532793 -0.13224779 0.105719075
0.14817461 -0.102635 0.098862395 0.1640813 0.022569634 -0.028747892 0.088058755 0.1527393
0.12090912 0.04874925 -0.1769621 -0.04206977 -0.00035142078 0.03416069 0.11836401 -0.05467336
-0.0073491554 0.10755719 0.21133435 -0.035883963 0.028843973 -0.07673101 -0.04288804 0.09661971
-0.08620087 -0.19995454 -0.26193017 -0.13088214 -0.111621 -0.062149186 0.006184754 0.2510199
0.06554901 0.01934843 0.013458844 0.18639798 -0.045390923 -0.10621212 0.0571812 0.098243944
0.08450735 -0.1289013 -0.32287735 0.014538608 -0.12524182 -0.108981274 -0.023047347 0.087747395
0.12526356 0.053980757 0.1413157 0.0036538849 -0.2031124 0.062477715 -0.13625681 0.08456977
-0.07673216 -0.065583244 -0.037072454 -0.15861087 -0.1293425 0.013841954 -0.13249035 0.06979628
-0.10428367 0.08033212 0.06860535 -0.19141284 0.008064534 -0.020483129 -0.14090624 -0.0021630966
-0.02828965 -0.05066155 -0.06620305 -0.08803935 0.002066296 -0.05853569 0.03580769 0.13566287
0.00047986445 0.027043313 0.048122734 0.016019326 0.034479637 0.1055466 0.13075653 0.1169013
-0.0764477 -0.11749087 -0.05711458 -0.049553223 0.068671875 0.049085375 -0.099105105 0.07357526
0.09529906 -0.10220858 0.069739506 -0.06998603 -0.08797573 -0.059972182 -0.0783131 -0.14229994
0.087634295 -0.016634513 -0.072266474 -0.100071914 -0.03468357 0.030876689 -0.113464825 0.040761687
0.08457837 -0.05396768 0.14627479 0.00025228455 0.010199746 0.11888287 0.07884427 -0.10862281
-0.11455306 -0.08298143 -0.05384679 0.08153508 0.11371659 -0.07368876 0.025444228 0.04813281
0.0885254 0.09258947 -0.11251173 -0.06426079 0.09859949 0.02060427 -0.005872825 0.08015002
0.00809978 0.09750599 -0.0940643 0.049346935 0.119568355 -0.0049194763 0.025288293 -0.029219396
00000000: 0cdc 513d 5eb6 4f3e 6868 08be 9fbe 20bd
00000010: 628c 193d d8d7 e53d 0852 a5bd 749e d4bc
00000020: 0261 c33d b558 62be 2f9e ae3c ebef 0cbe
00000030: cd3a 193d 5eb4 12bb 6a5c b73b 1618 213d
00000040: b3cc f83d 77be a8bc 88c1 34be e1b2 b1bd
00000050: 3fbb e4bd 6303 9abd 5e1b f1bd 6120 2abd
00000060: 061f 9c3d 04e9 a83b 8bbc 363c 1b70 33bd
00000070: 96b6 bd3d b060 4b3e d09f b13c f987 0b3e
00000080: 068f 8a3b 88b6 6cbd d133 fabd 92c9 8c3e
00000090: d672 483d c016 3cbe 08b5 e73d e3fe e43d
000000a0: 8907 59be ed40 173d b595 b4bd 613d fe3c
000000b0: 41bb fd3d cb45 d03d 9647 373e 3d69 3b3d
000000c0: 1f37 d9bd 2bf7 10be abe7 473c a06e 2bbd
000000d0: 21e0 99bc aa96 f83d 311c 453d 337c 0dbc
000000e0: 054d b73d 88d5 cf3d b522 3a3e 7236 08be
000000f0: 5af8 233e 9bdf 733c 20e9 153e 67b9 bbbc
00000100: 9d21 783d 1433 e9bd df56 3a3e 9eda 863e
00000110: cfb0 943d 348b f9bc 5fcb 40bd c317 803d
00000120: 5c0d f33d a50b 84bd 2f62 f6bd 2db2 6dbd
00000130: ef87 283d 91e5 a8bd dd2a e23c 2507 5dbd
00000140: fe23 1bbe cb78 3b3e 0903 c53d b504 d43c
00000150: 1393 013e 5008 1dbe fd91 6a3e 75ea 633d
00000160: 45c4 763c af8d e3bc bd7f c13d b763 55be
00000170: 9cb2 ce3d b591 763c fbfb 5ebe d8b8 303d
00000180: 2fc3 823b 521c 943b 251d 9a3d 922f 893e
00000190: a029 413d 330d 22be 6338 25be 70fb 1fbd
000001a0: d6d1 5cbe 960d aa3d 055e 103e 69df 39bd
000001b0: 13b1 28be bfb1 423d f76b 07be 3e83 d83d
000001c0: 16bb 173e 4d32 d2bd 5e78 ca3d ee04 283e
000001d0: f4e3 b83c b380 ebbc 2658 b43d b167 1c3e
000001e0: 339f f73d 4bad 473d 8e35 35be 5a51 2cbd
000001f0: e63e b8b9 14ec 0b3d d468 f23d 2cf1 5fbd
00000200: 2fd1 f0bb f246 dc3d 0868 583e 10fb 12bd
00000210: 324a ec3c 2625 9dbd 5fab 2fbd 8ee0 c53d
00000220: 158a b0bd e2c0 4cbe b61b 86be f805 06be
00000230: 8d99 e4bd 2590 7ebd 7aa9 ca3b ae85 803e
00000240: 8f3e 863d 9980 9e3c 7c82 5c3c 1ddf 3e3e
00000250: d5eb 39bd bd85 d9bd d536 6a3d 1f34 c93d
00000260: 3112 ad3d b4fe 03be 2e50 a5be 5733 6e3c
00000270: 643f 00be 9331 dfbd cacd bcbc e8b4 b33d
00000280: 1745 003e ed1a 5d3d 10b5 103e 0476 6f3b
00000290: b2fc 4fbe a2e8 7f3d e886 0bbe ea32 ad3d
000002a0: c025 9dbd 8250 86bd 49d9 17bd e36a 22be
000002b0: 5c72 04be 5dc9 623c 8dab 07be 5af1 8e3d
000002c0: ad92 d5bd 2b85 a43d f680 8c3d ba01 44be
000002d0: 1b21 043c 3ccc a7bc ba49 10be bdc2 0dbb
000002e0: b2bf e7bc 7c82 4fbd 7795 87bd fa4d b4bd
000002f0: b26a 073b 1fc3 6fbd 16ab 123d 35eb 0a3e
00000300: 5196 fb39 f089 dd3c 581c 453d f63a 833c
00000310: 853a 0d3d d128 d83d 0ae5 053e f369 ef3d
00000320: 9d90 9cbd 0e9f f0bd faf0 69bd 52f8 4abd
00000330: d7a3 8c3d bf0d 493d 9ef7 cabd a0ae 963d
00000340: 272c c33d bb52 d1bd 96d3 8e3d d654 8fbd
00000350: 9f2c b4bd 64a5 75bd 9e62 a0bd 13b7 11be
00000360: 9c79 b33d 1a45 88bc 7200 94bd 81f2 ccbd
00000370: 5c10 0ebd 1cf1 fc3c 3f60 e8bd baf5 263d
00000380: 6d37 ad3d 370d 5dbd 0fc9 153e 0f45 8439
00000390: d61c 273c dd78 f33d 1b79 a13d a375 debd
000003a0: cb9a eabd 2bf2 a9bd 748e 5cbd ddfb a63d
000003b0: 3ee4 e83d 22ea 96bd 6a70 d03c e926 453d
000003c0: ce4c b53d 8c9f bd3d 8d6c e6bd 299b 83bd
000003d0: 88ee c93d 49ca a83c d470 c0bb b225 a43d
000003e0: f1b4 043c 38b1 c73d c9a4 c0bd 0320 4a3d
000003f0: 41e0 f43d 8f33 a1bb 6529 cf3c 845d efbc

decoder.l1.0.bias f4 [64]
0.021809226 0.03286121 0.012136413 -0.08542742 0.10261397 0.10509154 -0.0730591 -0.0107391905
0.08034346 -0.091946155 -0.09604715 -0.0919158 0.12189047 0.07836002 -0.1333032 0.14300983
-0.040954184 0.13231893 -0.040060963 0.096907586 -0.11873632 -0.0534546 0.111739434 -0.0719186
-0.019028142 0.04006858 0.028179523 -0.050677557 -0.11817122 0.14791101 -0.044434715 0.100889966
0.10331317 0.027303338 -0.094199635 -0.019985313 -0.004227133 -0.054710854 -0.015876487 0.024702342
0.01921921 -0.033444766 0.040010784 0.032730766 0.023265196 -0.0159794 0.10244263 0.09322681
-0.06996048 0.0954347 -0.035319556 -0.055703532 0.088177726 0.038183745 -0.05713456 0.04856679
-0.11504948 -0.03920022 0.038087577 0.001380066 0.03769607 -0.09580769 0.07153615 0.07610643
00000000: 43a9 b23c 7a99 063d ced7 463c 92f4 aebd
00000010: 4627 d23d 3c3a d73d 02a0 95bd 6ef3 2fbc
00000020: 1d8b a43d 444e bcbd 5eb4 c4bd 5a3e bcbd
00000030: b6a1 f93d 387b a03d a280 08be 2b71 123e
00000040: 93bf 27bd 9d7e 073e f716 24bd 7c77 c63d
00000050: 072c f3bd 36f3 5abd a5d7 e43d 0f4a 93bd
00000060: e8e0 9bbc f41e 243d bed8 e63c 4593 4fbd
00000070: c103 f2bd fc75 173e 2d01 36bd 669f ce3d
00000080: db95 d33d 40ab df3c bdeb c0bd 3db8 a3bc
00000090: c383 8abb 7d18 60bd 680f 82bc 915c ca3c
000000a0: 9b71 9d3c 61fd 08bd 59e2 233d b210 063d
000000b0: a796 be3c 3be7 82bc 71cd d13d b3ed be3d
000000c0: 7147 8fbd 4573 c33d 3dab 10bd 6329 64bd
000000d0: 8696 b43d 8f66 1c3d ee05 6abd f8ed 463d
000000e0: 109f ebbd 6990 20bd b801 1c3d 55e3 b43a
000000f0: 3267 1a3d d236 c4bd 8c81 923d b0dd 9b3d

decoder.l1.2.weight f4 [128, 64]
0.005081802 0.1318556 0.15554085 0.11197125 -0.10491098 0.033210985 0.054275814 0.2717607
-0.059492208 0.023228684 -0.1267753 0.32975477 0.36478648 0.06142022 0.13409118 0.18027338
-0.07770297 0.085442826 0.099158764 0.19124582 0.0013764595 0.16829215 -0.061027024 0.12205538
0.13539019 0.121358685 -0.1348556 -0.043674607 0.08569999 -0.11399815 -0.06794249 0.13065049
0.038024843 -0.07882947 0.07339012 0.22989978 0.13490069 0.024263337 -0.006053757 -0.55115634
0.00996923 0.21692862 -0.07941549 0.27331713 -0.012229281 -0.08262144 -0.102902904 -0.014069873
0.04385745 -0.048727628 0.29555798 -0.034058385 -0.13613255 0.014003259 -0.013152733 -0.2154001
-0.08774175 0.2098699 0.08106292 -0.24556416 0.10024427 -0.13021255 -0.27658656 0.0029285117
-0.12748197 0.2422682 -0.036053713 0.11564326 -0.31393158 -0.09738873 0.0061897347 0.0129548
0.053181008 0.10069539 0.18441364 -0.48691332 -0.1339305 -0.0014963596 0.13252722 0.24255913
0.15888394 0.16943112 -0.15700114 -0.006768837 -0.02396962 0.10074471 0.14429952 0.10467826
0.33238232 0.14157833 0.12346161 0.06751948 -0.093271725 -0.15922646 0.24045502 0.22347167
-0.00039215133 0.2742071 0.073526725 0.18592319 -0.046761844 0.012530365 -0.00038022466 -0.037487496
0.0027279966 0.0148299895 0.023977473 0.05926936 -0.0065954616 -0.11147898 -0.09902124 -0.037807807
0.029942058 -0.21160054 0.0665487 -0.11649017 0.13222407 0.04002587 0.05802021 0.052917324
-0.0030155869 0.08348554 0.12074116 0.07908906 0.056323756 0.15972115 -0.035386615 0.032223865
0.08842729 -0.16343872 -0.12770817 -0.07317603 -0.22473279 -0.10521381 0.11371738 -0.15583298
0.052122116 -0.040856883 -0.2476823 0.08468542 0.0577167 0.12547319 -0.054905806 0.007514277
0.11123155 0.13845214 0.04493579 0.16020112 -0.010316922 -0.055298485 0.046396505 0.061177384
-0.16139764 0.08228472 0.03478778 -0.07597566 0.062094595 -0.3867143 0.049424298 -0.06954325
0.015359123 -0.06967637 -0.0018232046 0.32005194 0.1174393 -0.1422367 -0.11818862 0.098127194
0.027248586 0.25652838 0.105133735 0.20962013 0.013977893 -0.036601212 -8.821248e-05 0.100143075
-0.021526381 0.11479194 -0.054572456 0.24171889 0.33837467 -0.08634092 0.020016737 -0.07156917
0.061708175 0.18217734 -0.072776884 0.08905482 -0.04302054 0.026056584 -0.2308839 0.1539033
0.11620491 -0.109212026 0.053369973 -0.13486853 -0.015616108 -0.09832393 0.09144359 -0.20738173
-0.0111730145 -0.019725353 -0.028639238 -0.23014425 0.15494767 0.099299274 -0.08894282 -0.17648405
0.08555459 -0.007907103 0.19595522 0.117552646 0.012857868 0.16084893 0.13492958 -0.014908625
0.19592239 0.24318397 -0.18007012 0.028521195 0.053317018 0.019341415 0.1640899 -0.027113996
-0.18421449 0.20969865 0.163459 0.04956966 -0.045341827 0.0026736793 -0.043414436 -0.316139
-0.11229006 0.088988476 0.1337441 -0.13343528 0.008448824 0.058446404 -0.05401054 0.22380987
0.0259923 0.30576187 -0.054382514 0.26060376 0.13108554 0.056445237 0.01423633 -0.23261996
0.076137245 -0.0555073 -0.034017503 -0.31493393 0.037373748 0.09244126 0.27876252 -0.053812392
00000000: 3f85 a63b 2805 073e 1a46 1f3e 2f51 e53d
00000010: 91db d6bd 3e08 083d 5150 5e3d 3824 8b3e
00000020: 1aae 73bd 154a be3c 62d1 01be 9ed5 a83e
00000030: 4bc5 ba3e c593 7b3d 334f 093e 9699 383e
00000040: bc22 9fbd a6fc ae3d c013 cb3d f2d5 433e
00000050: 516a b43a c754 2c3e 79f7 79bd 2cf8 f93d
00000060: baa3 0a3e e78a f83d 9617 0abe 25e4 32bd
00000070: 7a83 af3d dd77 e9bd 6f25 8bbd 3ec9 053e
00000080: f0bf 1b3d 5871 a1bd 8f4d 963d d96a 6b3e
00000090: 6823 0a3e e8c3 c63c 985e c6bb 9518 0dbf
000000a0: fb55 233c 8922 5e3e 97a4 a2bd 39f0 8b3e
000000b0: 525d 48bc 6e35 a9bd c2be d2bd 5385 66bc
000000c0: dfa3 333d 9f96 47bd 6053 973e ce80 0bbd
000000d0: 5566 0bbe ed6d 653c 907e 57bc d891 5cbe
000000e0: f2b1 b3bd 23e8 563e 5104 a63d 2c75 7bbe
000000f0: de4c cd3d 7056 05be c19c 8dbe 46ec 3f3b
00000100: a28a 02be 2815 783e 0fad 13bd 60d6 ec3d
00000110: a4bb a0be be73 c7bd 42d3 ca3b 5f40 543c
00000120: 54d4 593d 6239 ce3d eed6 3c3e b44c f9be
00000130: 1425 09be 7f21 c4ba 37b5 073e 6c61 783e
00000140: 79b2 223e 5a7f 2d3e e8c4 20be 1fcd ddbb
00000150: f05b c4bc 3e53 ce3d 41c3 133e 8e61 d63d
00000160: 042e aa3e e9f9 103e 71d9 fc3d a747 8a3d
00000170: 3f05 bfbd 430c 23be d739 763e c2d5 643e
00000180: a999 cdb9 df64 8c3e 2e95 963d a662 3e3e
00000190: 5989 3fbd 294c 4d3c e458 c7b9 7d8c 19bd
000001a0: 30c8 323b 7cf9 723c 686c c43c 6ec4 723d
000001b0: be1e d8bb 174f e4bd a6cb cabd 5cdc 1abd
000001c0: 0c49 f53c d0ad 58be af4a 883d 6692 eebd
000001d0: bf65 073e 2bf2 233d 9aa6 6d3d d6bf 583d
000001e0: 27a1 45bb 77fa aa3d 2447 f73d 72f9 a13d
000001f0: bdb3 663d f18d 233e 8ef1 10bd 2cfd 033d
00000200: 5e19 b53d 7b5c 27be eec5 02be 50dd 95bd
00000210: 5a20 66be 577a d7bd a8e4 e83d ae92 1fbe
00000220: 007e 553d 8c59 27bd 6ea0 7dbe 8d6f ad3d
00000230: 5968 6c3d 0b7c 003e e9e4 60bd 533a f63b
00000240: 5ecd e33d 66c6 0d3e 970e 383d c30b 243e
00000250: 4f08 29bc aa80 62bd 430a 3e3d 2395 7a3d
00000260: 6c45 25be e484 a83d a27d 0e3d 2099 9bbd
00000270: e756 7e3d 6bff c5be 2271 4a3d b16c 8ebd
00000280: d5a4 7b3c 7cb2 8ebd 98f8 eeba d9dd a33e
00000290: 0484 f03d 7fa6 11be e00c f2bd e9f6 c83d
000002a0: 6d38 df3c b057 833e 5b50 d73d a9a6 563e
000002b0: 8803 653c 27eb 15bd b7fe b8b8 d017 cd3d
000002c0: 1858 b0bc 0918 eb3d 5e87 5fbd 2885 773e
000002d0: 723f ad3e 82d3 b0bd 24fa a33c db92 92bd
000002e0: b6c1 7c3d b28c 3a3e 0c0c 95bd 6062 b63d
000002f0: 4e36 30bd 9e74 d53c d46c 6cbe d498 1d3e
00000300: d7fc ed3d 8eaa dfbd 799a 5a3d fa1a 0abe
00000310: b4da 7fbc 0e5e c9bd c746 bb3d e05b 54be
00000320: 050f 37bc 1097 a1bc d69c eabc efaa 6bbe
00000330: 9aaa 1e3e 6b5d cb3d a727 b6bd 3cb8 34be
00000340: 3f37 af3d cb8c 01bc 7ca8 483e 71bf f03d
00000350: cfa9 523c 95b5 243e fb2a 0a3e 4e43 74bc
00000360: e19f 483e 3805 793e 4d64 38be 48a5 e93c
00000370: f262 5a3d e371 9e3c 2f07 283e 2c1e debc
00000380: b9a2 3cbe 3ebb 563e cc61 273e 8e09 4b3d
00000390: 5ab8 39bd e538 2f3b 56d3 31bd f9dc a1be
000003a0: 55f8 e5bd 973f b63d 37f4 083e 42a3 08be
000003b0: f06c 0a3c 7f65 6f3d 283a 5dbd 6a2e 653e
000003c0: ceed d43c d28c 9c3e 33c0 5ebd db6d 853e
000003d0: 4a3b 063e 1f33 673d 7f3f 693c ed33 6ebe
000003e0: d8ed 9b3d 9f5b 63bd f055 0bbd 053f a1be
000003f0: 3715 193d d851 bd3d f6b9 8e3e 626a 5cbd

decoder.l1.2.bias f4 [128]
-0.020195223 0.10846849 -0.054067295 0.08228899 -0.013356861 0.022896934 0.0017384207 0.022529116
0.08545777 0.06506668 0.08553187 0.05944568 -0.014513324 -0.06620706 0.029702934 -0.1100729
-0.037061103 -0.005561308 0.14179376 -0.06989523 -0.0021698186 -0.11673706 -0.06662817 -0.011081811
-0.05866092 0.02252533 -0.078996874 -0.017027408 -0.05402383 0.02081954 -0.07093746 0.032975774
-0.10067589 -0.06757559 -0.058303077 -0.13763075 -0.00050683256 0.066370375 0.07682374 0.05551483
0.02838207 -0.0065759146 -0.056493945 -0.08113545 0.03309785 0.0114888605 -0.06609782 0.10437858
-0.022484781 -0.074977435 0.0522926 -0.013823507 -0.062716424 0.08220399 -0.04923401 -0.07871716
-0.06494434 0.14042005 -0.06198025 -0.0085909115 -0.0006653245 0.024033621 -0.03994777 0.05840236
-0.052183878 -0.03119056 -0.050780874 -0.04167652 0.05702569 0.058625717 0.064581156 0.06114823
-0.10211139 -0.04677806 -0.0034030355 -0.048477214 0.025968421 -0.043356836 0.104212716 0.085119754
0.027916202 -0.09656605 0.07790294 -0.035156377 -0.045940973 0.097407825 -0.035310224 0.080110446
-0.05105507 -0.1451879 0.091092736 0.050158206 0.006795388 0.030659925 -0.06834161 -0.09392003
0.12761489 -0.08992087 -0.061677273 -0.041106448 0.15144803 0.11434407 0.05903744 0.02040679
0.14462988 -0.01380452 -0.03318008 -0.09044478 -0.079353265 0.14800072 0.043053854 0.030184379
0.017363349 0.14668365 -0.06756399 -0.019599397 -0.08745585 0.112515055 -0.10354996 0.020523692
0.097619675 -0.014496407 -0.031457555 -0.068613656 0.08515376 -0.06888479 0.025770744 -0.10418192
00000000: 7470 a5bc ba24 de3d ab75 5dbd 2187 a83d
00000010: bcd6 5abc 5a92 bb3c b8db e33a fb8e b83c
00000020: 7c04 af3d ae41 853d 552b af3d 507d 733d
00000030: 4bc9 6dbc 9197 87bd 9153 f33c e76d e1bd
00000040: 62cd 17bd a23b b6bb 6232 113e 3b25 8fbd
00000050: 8433 0ebb d713 efbd 5a74 88bd 7c90 35bc
00000060: 6f46 70bd 0a87 b83c 1dc9 a1bd 107d 8bbc
00000070: 1748 5dbd bd8d aa3c a947 91bd 9b11 073d
00000080: 292f cebd 1265 8abd 35cf 6ebd 13ef 0cbe
00000090: f5dc 04ba 31ed 873d c455 9d3d 8563 633d
000000a0: 8481 e83c c57a d7bb 3266 67bd 582a a6bd
000000b0: 9c91 073d c63b 3c3c 4b5e 87bd 70c4 d53d
000000c0: 0132 b8bc c58d 99bd c430 563d fe7b 62bc
000000d0: 7871 80bd 915a a83d 9aa9 49bd 7636 a1bd
000000e0: 8a01 85bd 46ca 0f3e 01df 7dbd e5c0 0cbc
000000f0: 2c69 2eba 28e2 c43c 46a0 23bd 5037 6f3d
00000100: c3be 55bd 5883 ffbc 9bff 4fbd 00b5 2abd
00000110: c593 693d 8521 703d 2043 843d 9176 7a3d
00000120: c71f d1bd 5a9a 3fbd 7605 5fbb 0b90 46bd
00000130: babb d43c f096 31bd 7a6d d53d 4453 ae3d
00000140: 85b0 e43c 6cc4 c5bd 948b 9f3d 2200 10bd
00000150: 9a2c 3cbd c17d c73d 74a1 10bd f210 a43d
00000160: 1f1f 51bd 23ac 14be d48e ba3d b172 4d3d
00000170: d9ab de3b 862a fb3c b0f6 8bbd 2559 c0bd
00000180: 7aad 023e 6f28 b8bd 4fa1 7cbd 3c5f 28bd
00000190: 3115 1b3e 392d ea3d 3ed1 713d 242c a73c
000001a0: db19 143e 5a2c 62bc d6e7 07bd 1d3b b9bd
000001b0: f783 a2bd 808d 173e 3d59 303d 3b45 f73c
000001c0: 953d 8e3c 3d34 163e fd5e 8abd ea8e a0bc
000001d0: 0d1c b3bd 4b6e e63d 0012 d4bd 4d21 a83c
000001e0: d3ec c73d 5682 6dbc a3d9 00bd 5185 8cbd
000001f0: 1865 ae3d 7813 8dbd 2b1d d33c 555d d5bd

exp_avg f4 [64, 128]
9.6091855e-05 5.309869e-05 6.801774e-05 8.164652e-06 7.4093045e-06 -1.9792993e-05 -1.1468913e-05 1.7989856e-05
0.00013934547 -2.0368589e-06 4.3163112e-05 -5.1379648e-05 3.3312434e-05 2.4353505e-05 -8.165875e-06 4.340614e-05
1.7892087e-05 3.154808e-05 -2.3572245e-05 -2.52759e-06 9.366802e-06 5.4970827e-05 3.2872584e-05 6.336875e-05
-9.587097e-06 1.8722276e-05 -2.4759876e-05 -2.6319314e-05 -3.405696e-05 3.906457e-05 -2.0443222e-06 2.4095092e-05
2.561657e-05 4.3516073e-05 2.4743883e-06 5.3018477e-05 1.8303012e-05 3.2033964e-05 1.4012797e-05 3.231886e-05
5.9661703e-05 -4.650682e-05 -1.740966e-05 3.298547e-05 -4.1335848e-06 5.1054044e-06 -3.6893365e-05 -1.6816262e-05
-4.619734e-05 3.6878082e-06 -4.562379e-06 7.0872185e-05 -5.678909e-06 1.5275327e-05 -3.1331673e-08 2.5757836e-05
-2.7133508e-06 -3.067131e-05 -1.5275773e-05 6.009812e-06 -1.5179203e-05 3.2560656e-05 -9.0764035e-05 2.1196163e-05
1.765934e-05 8.975349e-06 -4.330842e-05 -3.6344143e-05 4.0129424e-05 -4.1496525e-05 1.9994835e-05 -2.8901277e-05
-2.8133616e-06 6.4835614e-05 2.1985115e-05 -3.087308e-05 -2.0874118e-05 -1.5544923e-06 7.5724415e-06 -5.7631532e-05
-4.6745037e-05 2.9890643e-05 9.093257e-05 -7.4685154e-06 1.2839275e-05 -1.9575187e-05 -2.320618e-05 -4.552016e-05
4.3920805e-05 -2.2139075e-05 2.1761562e-05 1.4530546e-05 7.274449e-05 2.069085e-05 2.8022316e-05 2.539173e-05
3.272964e-05 -7.798023e-06 8.212681e-05 -2.2001352e-05 2.0580243e-05 1.2595872e-06 8.211334e-05 -2.4222032e-05
2.1545463e-06 -3.258305e-05 -5.3155523e-05 -2.754944e-05 -1.4546883e-05 -8.029317e-06 -3.5349698e-05 4.063556e-05
-3.1950476e-05 3.4734214e-05 4.9753362e-05 1.3823169e-05 6.914359e-05 9.2530034e-05 4.716594e-05 -3.3189353e-05
-3.065046e-05 1.7781942e-06 3.249042e-05 -4.3834248e-06 1.0214587e-05 8.091429e-06 -1.542191e-05 8.720887e-06
-4.6140853e-05 3.5461213e-05 -3.4009026e-05 3.581413e-05 -1.2657702e-05 8.3034894e-05 5.1128854e-06 2.6735366e-05
8.206438e-05 4.41191e-05 3.8030637e-05 8.820045e-05 4.1811207e-05 7.9436206e-05 3.538852e-05 -2.3019686e-05
1.8638919e-05 1.407607e-05 2.5459246e-06 1.5127359e-05 -3.5959583e-05 -2.435126e-05 -3.0975214e-05 7.83937e-06
1.5951142e-05 5.4099826e-05 1.0241712e-05 3.0003845e-05 9.89346e-06 1.2140089e-05 4.2056057e-05 2.3292427e-05
4.650333e-05 -2.3634728e-05 2.9193414e-05 -3.161163e-05 2.0469435e-05 3.868649e-05 -2.5438043e-05 2.0246449e-05
-2.7513748e-05 4.487672e-05 2.5025333e-06 -3.5767865e-05 3.8995513e-05 -1.2261331e-05 3.1766853e-05 -1.1810969e-05
5.6098474e-05 6.6773784e-05 2.7035827e-05 2.0324424e-05 2.0061934e-05 1.6514574e-05 1.9796113e-05 2.6589709e-05
1.6510658e-05 1.8459928e-05 3.434437e-05 3.2217635e-08 2.6240301e-05 1.9427619e-06 7.407743e-05 6.789565e-06
4.2219755e-05 3.211138e-05 5.8520247e-05 5.7231973e-05 1.5215819e-06 3.9459108e-05 5.8029138e-05 4.7031845e-05
2.8746827e-05 -2.5651623e-06 -2.240626e-05 2.0424939e-05 8.900422e-06 3.407143e-05 2.1179649e-05 1.1489557e-05
4.4351473e-05 3.60662e-05 -1.4877969e-05 7.5175144e-06 2.2120745e-05 -2.1477885e-05 1.2021071e-05 5.7373047e-05
-2.960934e-05 3.6700774e-05 4.565524e-05 2.9250557e-05 3.373498e-05 1.2744863e-05 6.920723e-06 4.2914985e-07
1.8423187e-06 5.2235377e-05 -9.61077e-06 3.091124e-05 6.984048e-05 2.9033772e-05 2.901605e-05 3.8328228e-05
3.3699118e-05 -2.4391773e-07 7.456016e-05 3.044756e-05 5.431574e-05 7.3903384e-06 1.9030866e-05 1.2831327e-05
4.0998126e-05 9.452848e-05 -2.9167593e-05 -2.5802183e-05 2.8677308e-05 -1.8068296e-05 2.4201361e-05 2.3229502e-05
2.1391257e-05 2.2009197e-05 -4.7791735e-09 6.586213e-05 2.3783881e-05 -3.8615173e-05 4.3147273e-05 3.87522e-05
00000000: ec84 c938 49b6 5e38 bfa4 8e38 eafa 0837
00000010: 719d f836 2109 a6b7 9b6a 40b7 ece8 9637
00000020: 441d 1239 f8b0 08b6 0a0a 3538 7a80 57b8
00000030: f4b8 0b38 c14a cc37 2b00 09b7 fd0e 3638
00000040: f716 9637 7e52 0438 03bd c5b7 aa9f 29b6
00000050: 1c26 1d37 7a90 6638 abe0 0938 d7e4 8438
00000060: 45d8 20b7 c80d 9d37 6eb3 cfb7 4cc8 dcb7
00000070: 62d8 0eb8 43d9 2338 3031 09b6 d11f ca37
00000080: 2ae3 d637 0785 3638 ab0d 2636 2860 5e38
00000090: 6b89 9937 355c 0638 8118 6b37 1d8e 0738
000000a0: 443d 7a38 5110 43b8 f60a 92b7 e159 0a38
000000b0: 39b3 8ab6 174f ab36 f3bd 1ab8 a610 8db7
000000c0: 04c4 41b8 107c 7736 8a16 99b6 37a1 9438
000000d0: 758d beb6 8423 8037 8a91 06b3 8812 d837
000000e0: 0317 36b6 11a5 00b8 7924 80b7 e4a7 c936
000000f0: 2eaa 7eb7 bd91 0838 9258 beb8 6ace b137
00000100: 2523 9437 d594 1637 10a6 35b8 3a70 18b8
00000110: a450 2838 8e0c 2eb8 95ba a737 0571 f2b7
00000120: 2fcd 3cb6 5bf8 8738 ad6c b837 b87d 01b8
00000130: d41a afb7 f3a3 d0b5 c716 fe36 63b9 71b8
00000140: 1a10 44b8 abbd fa37 0db3 be38 0f9a fab6
00000150: 4468 5737 6535 a4b7 e4aa c2b7 e6ec 3eb8
00000160: 9b37 3838 4db7 b9b7 998c b637 38c8 7337
00000170: 678e 9838 4391 ad37 7711 eb37 5300 d537
00000180: 2f47 0938 41d4 02b7 7f3b ac38 8b8f b8b7
00000190: bca3 ac37 160f a935 4434 ac38 6b30 cbb7
000001a0: d396 1036 c9a9 08b8 4ff3 5eb8 f919 e7b7
000001b0: 630e 74b7 a7b5 06b7 7344 14b8 1a70 2a38
000001c0: 9002 06b8 94af 1138 44ae 5038 0fea 6737
000001d0: 2f01 9138 af0c c238 0bd4 4538 cc34 0bb8
000001e0: ae8e 00b8 4aaa ee35 5346 0838 5515 93b6
000001f0: 515f 2b37 6cc0 0737 4d5e 81b7 ed4f 1237
00000200: 5d87 41b8 30bc 1438 eaa4 0eb8 2137 1638
00000210: 6b5c 54b7 0523 ae38 5a8f ab36 c345 e037
00000220: fb19 ac38 860c 3938 1683 1f38 42f8 b838
00000230: 715e 2f38 fd96 a638 226e 1438 661a c1b7
00000240: c65a 9c37 4328 6c37 a7da 2a36 83cb 7d37
00000250: 4fd3 16b8 ef45 ccb7 62eb 01b8 d685 0337
00000260: d1ce 8537 3fe9 6238 d1d3 2b37 c4b0 fb37
00000270: 16fc 2537 49ad 4b37 5965 3038 1b64 c337
00000280: 920c 4338 3143 c6b7 61e4 f437 bb96 04b8
00000290: c7b5 ab37 4d43 2238 c863 d5b7 ebd6 a937
000002a0: 53cd e6b7 033a 3c38 32f1 2736 7405 16b8
000002b0: 1d8f 2338 04b6 4db7 663d 0538 ba27 46b7
000002c0: 474b 6b38 e708 8c38 ffca e237 5e7e aa37
000002d0: ad4a a837 c788 8a37 d40f a637 f70c df37
000002e0: 5e80 8a37 65da 9a37 fd0c 1038 aa5f 0a33
000002f0: 9e1e dc37 6560 0236 045a 9b38 ebd1 e336
00000300: 1e15 3138 55af 0638 a373 7538 5d0c 7038
00000310: 2839 cc35 e580 2538 5064 7338 0f44 4538
00000320: 5725 f137 2725 2cb6 14f5 bbb7 3956 ab37
00000330: 0553 1537 ebe7 0e38 f3aa b137 46c3 4037
00000340: 0806 3a38 ca45 1738 649c 79b7 f53e fc36
00000350: f08f b937 682b b4b7 1bae 4937 d7a3 7038
00000360: 9361 f8b7 28ef 1938 f17d 3f38 185f f537
00000370: a97e 0d38 c5d2 5537 8f38 e836 e865 e634
00000380: 9745 f735 4f17 5b38 f13d 21b7 b1a6 0138
00000390: 5277 9238 8d8d f337 7e67 f337 9fc2 2038
000003a0: 2758 0d38 ccf3 82b4 2e5d 9c38 a369 ff37
000003b0: 15d1 6338 86fa f736 79a4 9f37 2146 5737
000003c0: 67f5 2b38 973d c638 eeac f4b7 c471 d8b7
000003d0: 0d90 f037 5f91 97b7 0704 cb37 fadc c237
000003e0: 6071 b337 64a0 b837 0e36 a4b1 761f 8a38
000003f0: 7f83 c737 baf6 21b8 08f9 3438 dc89 2238

exp_avg_sq f4 [64, 128]
7.308428e-07 1.3833003e-06 6.925814e-07 6.535623e-07 1.6291577e-07 6.125174e-07 5.711159e-07 3.8637967e-07
4.043371e-06 1.14347856e-07 1.7103382e-07 5.4378313e-07 1.9977121e-07 5.587674e-07 1.2311631e-07 1.5820554e-07
1.6510072e-07 3.5377948e-07 2.0942377e-07 6.175498e-07 1.8264389e-07 3.816956e-07 1.7683598e-07 6.070757e-07
2.8500133e-07 2.852255e-07 1.9745697e-07 2.974146e-07 3.030712e-07 1.4160618e-07 3.1661205e-07 2.1383948e-07
1.4086272e-07 2.2089937e-07 1.5006995e-07 1.118539e-07 5.501043e-08 8.047536e-08 6.200815e-07 3.060656e-07
1.03870306e-07 2.0744874e-07 4.79688e-07 1.3500295e-07 1.7940515e-07 2.2901435e-07 2.4412705e-07 1.3334748e-07
2.6747065e-07 3.335649e-07 1.0764427e-07 2.3039094e-07 5.634269e-07 8.548543e-07 1.4984906e-07 2.4365102e-07
3.7524862e-07 3.7814075e-07 2.9528746e-07 1.3014325e-07 1.890011e-07 1.10681015e-07 1.6684919e-07 2.3307086e-07
6.425573e-07 1.6671203e-07 3.4338814e-07 3.450884e-07 1.6117448e-07 8.350709e-08 3.423053e-07 1.0138618e-07
1.6589482e-07 1.5319844e-07 4.5524896e-08 1.3323448e-07 1.3957542e-07 1.15849375e-07 1.233555e-07 1.3958923e-07
9.9290176e-08 5.092456e-07 4.8592653e-07 7.2745024e-08 3.2243398e-07 6.30908e-07 1.7089187e-07 3.390315e-07
6.384843e-08 9.136962e-08 1.6299062e-07 1.0490233e-07 4.954857e-07 1.2013356e-07 9.345744e-08 7.7054764e-08
1.2671275e-07 1.0885931e-07 2.4343282e-07 1.7715915e-07 5.0393396e-07 1.4559916e-07 2.708419e-07 1.1369355e-07
1.0580905e-07 1.7454386e-07 7.9878095e-07 9.781783e-08 1.2290698e-07 4.3467023e-07 2.0413827e-07 6.6836854e-08
3.0647595e-07 8.900576e-07 1.5126926e-07 2.8828229e-08 4.2605444e-07 8.904314e-08 7.477779e-08 7.872005e-08
4.2739435e-07 7.2741386e-08 1.4489198e-07 1.08957984e-07 1.0353927e-07 1.0521045e-07 1.2547575e-07 1.760288e-07
1.3215208e-06 2.5094746e-06 1.2671517e-06 1.205008e-06 2.9633642e-07 1.1180277e-06 1.0760764e-06 6.894011e-07
7.5433686e-06 2.0516005e-07 3.275693e-07 1.024555e-06 3.8587459e-07 1.0366081e-06 2.2079294e-07 2.9070495e-07
3.044903e-07 6.306007e-07 3.7839968e-07 1.1270686e-06 3.3688465e-07 7.118291e-07 3.329459e-07 1.1243523e-06
5.0153244e-07 5.25266e-07 3.758967e-07 5.532165e-07 5.556279e-07 2.521543e-07 5.824854e-07 4.0041354e-07
2.610819e-07 4.0230475e-07 2.5955612e-07 2.1680525e-07 1.0669849e-07 1.5165665e-07 1.1422449e-06 5.709332e-07
1.8200173e-07 3.8797455e-07 8.8864346e-07 2.4917927e-07 3.260713e-07 4.249648e-07 4.4740494e-07 2.388234e-07
4.941391e-07 6.0400487e-07 1.921368e-07 4.22807e-07 1.032625e-06 1.5949475e-06 2.7327133e-07 4.4868972e-07
6.910335e-07 6.9451505e-07 5.55431e-07 2.3651508e-07 3.361416e-07 2.1049422e-07 3.1001866e-07 4.2730613e-07
1.1949653e-06 3.1148804e-07 6.4244114e-07 6.335705e-07 2.9134108e-07 1.5061053e-07 6.3256647e-07 1.7976544e-07
2.9438286e-07 2.7541543e-07 7.773379e-08 2.4805482e-07 2.4612788e-07 2.1811852e-07 2.2965902e-07 2.523498e-07
1.8941311e-07 9.524149e-07 9.0342564e-07 1.2729684e-07 5.942278e-07 1.1737886e-06 3.082107e-07 6.2301245e-07
1.1399223e-07 1.6915041e-07 2.92129e-07 1.9293425e-07 9.147733e-07 2.1594423e-07 1.6960497e-07 1.3706253e-07
2.2925398e-07 2.0227057e-07 4.5447075e-07 3.2746314e-07 9.2776054e-07 2.6828081e-07 5.003212e-07 2.02958e-07
1.963602e-07 3.098491e-07 1.4844017e-06 1.7557267e-07 2.314331e-07 8.0974536e-07 3.7690174e-07 1.1648291e-07
5.4784266e-07 1.6706316e-06 2.6883885e-07 4.543961e-08 7.982506e-07 1.6490118e-07 1.3611958e-07 1.3608937e-07
7.823626e-07 1.365322e-07 2.6891766e-07 1.9413284e-07 1.8859366e-07 1.9021189e-07 2.274189e-07 3.275656e-07
00000000: 232f 4435 d6a9 b935 d5e9 3935 7670 2f35
00000010: f2ed 2e34 e06b 2435 c94e 1935 9e6f cf34
00000020: 4bac 8736 668f f533 6ba5 3734 7ef8 1135
00000030: b180 5634 34fe 1535 f431 0434 35df 2934
00000040: 8a46 3134 15ef bd34 f8dd 6034 b3c5 2535
00000050: c51c 4434 d8eb cc34 4ee0 3d34 edf5 2235
00000060: 4902 9934 1821 9934 8f04 5434 5aac 9f34
00000070: cab5 a234 690c 1834 d4fa a934 c09b 6534
00000080: 0d40 1734 5b30 6d34 ea22 2134 5534 f033
00000090: 9c44 6c33 ccd1 ac33 ad73 2635 5651 a434
000000a0: 4e0f df33 13bf 5e34 e9c3 0035 54f5 1034
000000b0: 83a2 4034 fce6 7534 9110 8334 472e 0f34
000000c0: e398 8f34 d014 b334 102a e733 6161 7734
000000d0: 673e 1735 2479 6535 32e6 2034 24cf 8234
000000e0: c775 c934 4503 cb34 0088 9e34 81bd 0b34
000000f0: 3af0 4a34 88af ed33 2827 3334 0842 7a34
00000100: 347c 2c35 7401 3334 e85a b834 9744 b934
00000110: 4e0f 2d34 8254 b333 15c6 b734 a4b9 d933
00000120: d220 3234 de7e 2434 2787 4333 370f 0f34
00000130: 33de 1534 dec8 f833 b473 0434 ffe1 1534
00000140: 5a39 d533 17b3 0835 9e70 0235 0038 9c33
00000150: fd1a ad34 ab5b 2935 667e 3734 2204 b634
00000160: 0c1d 8933 fb36 c433 8502 2f34 aa46 e133
00000170: 8501 0535 10fe 0034 c5b2 c833 4e79 a533
00000180: 890e 0834 0ac6 e933 27b1 8234 2339 3e34
00000190: 1446 0735 fe55 1c34 3a68 9134 b127 f433
000001a0: 2439 e333 406a 3b34 cf6b 5635 ec0f d233
000001b0: 6af8 0334 9f5c e934 1a31 5b34 f387 8f33
000001c0: bc89 a434 4bec 6e35 946c 2234 f2a1 f732
000001d0: 7abc e434 fc37 bf33 8695 a033 ce0c a933
000001e0: a274 e534 0036 9c33 9b93 1b34 49fc e933
000001f0: 5159 de33 0ef0 e133 83ba 0634 6e02 3d34
00000200: 1c5f b135 7268 2836 0013 aa35 c2bb a135
00000210: 2b18 9f34 240f 9635 b46d 9035 480f 3935
00000220: 0b1d fd36 f749 5c34 c8dc af34 7183 8935
00000230: 332a cf34 9521 8b35 1a13 6d34 2f12 9c34
00000240: d478 a334 8d46 2935 db26 cb34 c845 9735
00000250: 13dd b434 8614 3f35 bcbf b234 73e8 9635
00000260: 0ca1 0635 0100 0d35 d9ce c934 c080 1435
00000270: 7526 1535 d35f 8734 185c 1c35 6bf8 d634
00000280: d32a 8c34 58fc d734 1f59 8b34 f9ca 6834
00000290: 1d22 e533 10d7 2234 3c4f 9935 3b42 1935
000002a0: 416c 4334 d14a d034 1d8b 6e35 f0c6 8534
000002b0: e60e af34 b826 e434 de32 f034 a337 8034
000002c0: fba4 0435 e622 2235 294e 4e34 27fe e234
000002d0: ba98 8a35 fb11 d635 20b6 9234 72e3 f034
000002e0: 767f 3935 b66e 3a35 ed18 1535 c5f4 7d34
000002f0: f376 b434 3604 6234 a470 a634 8268 e534
00000300: b262 a035 973a a734 3874 2c35 a212 2a35
00000310: 9d69 9c34 82b7 2134 a3cd 2935 8c05 4134
00000320: ac0b 9e34 cfdc 9334 9aee a633 652c 8534
00000330: 8f23 8434 f633 6a34 3198 7634 b17a 8734
00000340: 7b61 4b34 74a9 7f35 f082 7235 17af 0834
00000350: 0683 1f35 128b 9d35 2878 a534 173d 2735
00000360: e4cb f433 b69f 3534 e7d5 9c34 5d29 4f34
00000370: be8e 7535 4cde 6734 a91c 3634 762b 1334
00000380: db28 7634 b62f 5934 fcfd f334 31ce af34
00000390: 380b 7935 3c08 9034 d04d 0635 acec 5934
000003a0: 15d7 5234 5659 a634 a73b c735 0c85 3c34
000003b0: d97f 7834 475d 5935 fb58 ca34 2825 fa33
000003c0: 760f 1335 773a e035 ee54 9034 6129 4333
000003d0: 5d47 5635 b10f 3134 4428 1234 f61f 1234
000003e0: 8c03 5235 af99 1234 c35f 9034 d472 5034
000003f0: 3b80 4a34 0c3d 4c34 6e30 7434 46dc af34

exp_avg f4 [64]
1.2110434e-05 1.0652095e-05 -1.0881827e-05 -5.3972693e-05 1.883e-42 -1.9989411e-06 4.922027e-06 -3.9942235e-05
2.7585791e-05 7.4723243e-06 6e-45 -2.7407861e-05 6e-45 2.173349e-05 6e-45 -1.7412172e-05
5.20802e-06 6e-45 -3.3794083e-06 -3.514109e-05 1.582943e-05 -2.390595e-05 -3.2335094e-05 6e-45
2.2517259e-11 1.961754e-05 -2.2379147e-05 -4.7314617e-07 6e-45 2.2695608e-20 3.5740763e-05 -1.8152956e-05
-4.4305623e-36 -1.0329042e-08 -1.4581042e-17 -4.058681e-05 -7.556866e-05 4.5533464e-26 4.6393434e-06 7.3143595e-11
-4.0941854e-18 1.387548e-05 -2.8422979e-05 -1.71103e-05 -2.3126066e-05 -6.515921e-05 -2.8052527e-05 1.268826e-06
-5.5474566e-06 1.6042586e-05 6.65872e-33 1.95e-43 1.2941286e-05 -4.1579286e-05 -1.2605219e-06 3.3667586e-06
2.6615719e-05 4.7433423e-05 -1.8513627e-05 6e-45 -3.707353e-06 -2.9948087e-05 -4.0741168e-05 2.3500408e-05
00000000: eb2d 4b37 66b6 3237 1791 36b7 bd60 62b8
00000010: 4005 0000 8c25 06b6 e427 a536 a687 27b8
00000020: 0968 e737 c7ba fa36 0400 0000 efe9 e5b7
00000030: 0400 0000 5050 b637 0400 0000 5b10 92b7
00000040: 8dc0 ae36 0400 0000 cbc9 62b6 7564 13b8
00000050: 71c9 8437 a389 c8b7 8b9f 07b8 0400 0000
00000060: 5c10 c62d 5990 a437 daba bbb7 b704 feb4
00000070: 0400 0000 9d5a d61e 5ae8 1538 2d47 98b7
00000080: 8d74 bc84 9b73 31b2 837c 86a3 c13b 2ab8
00000090: 9e7a 9eb8 8678 6115 a8ab 9b36 2fd8 a02e
000000a0: 7d0c 97a2 bcca 6837 e26d eeb7 1788 8fb7
000000b0: d9fe c1b7 16a6 88b8 5852 ebb7 884c aa35
000000c0: 4a24 bab6 3193 8637 d44b 0a0a 8b00 0000
000000d0: 661e 5937 6b65 2eb8 342f a9b5 79f0 6136
000000e0: d244 df37 40f3 4638 b64d 9bb7 0400 0000
000000f0: d7cb 78b6 0739 fbb7 7fe1 2ab8 be22 c537

exp_avg_sq f4 [64]
1.515072e-07 2.8189913e-07 1.1405893e-07 1.9390609e-07 1.2749426e-11 7.8494246e-08 1.1864689e-07 1.895055e-07
3.3617832e-07 1.485152e-07 8.951648e-11 2.438081e-07 6.085968e-11 1.2388377e-07 8.8984815e-13 1.0657021e-07
1.6335565e-07 1.927017e-11 1.717262e-07 3.8831848e-07 9.13643e-08 1.319881e-07 2.1913398e-07 2.8896714e-12
9.920963e-10 1.153694e-07 6.825806e-08 4.8478583e-08 2.2739024e-13 3.4912663e-11 2.1962778e-07 1.0825277e-07
4.7497457e-12 4.3492346e-10 1.2159861e-09 1.6807414e-07 3.3068883e-07 1.8482792e-10 1.7817798e-11 3.2002225e-09
7.1077554e-11 1.1953698e-07 1.1517934e-07 1.3611567e-07 2.1911237e-07 5.81942e-07 1.6654636e-07 2.67529e-07
1.18618374e-07 8.3679076e-08 7.162726e-12 1.06634236e-10 1.380213e-07 4.6389226e-07 1.0596411e-07 1.1208216e-07
1.05344476e-07 1.5611874e-07 1.2202187e-07 3.136515e-13 2.5158775e-07 2.720925e-07 3.4582135e-07 1.0455056e-07
00000000: fbad 2234 ec57 9734 8ff0 f433 8034 5034
00000010: 4f4a 602d ab90 a833 d1ca fe33 e07a 4b34
00000020: ff7b b434 8c77 1f34 4cd9 c42e bbe4 8234
00000030: f4d4 852e e904 0534 5178 7a2b 98db e433
00000040: dc66 2f34 9180 a92d bd63 3834 167a d034
00000050: 0e34 c433 9db8 0d34 174b 6b34 b157 4b2c
00000060: 495a 8830 00c1 f733 4495 9233 c436 5033
00000070: 6302 802a 2a8c 192e d3d2 6b34 9778 e833
00000080: e81d a72c 091a ef2f b51f a730 de77 3434
00000090: 8789 b134 6f38 4b2f 1dba 9c2d e9ea 5b31
000000a0: 1b4d 9c2e 135a 0034 8358 f733 3127 1234
000000b0: 2645 6b34 c036 1c35 ead3 3234 e8a0 8f34
000000c0: 24bb fe33 0fb3 b333 1a04 fc2c bd7d ea2e
000000d0: 0233 1434 de0c f934 638e e333 d2b1 f033
000000e0: bd39 e233 98a1 2734 1e05 0334 f291 b02a
000000f0: f511 8734 1c14 9234 53a9 b934 4785 e033
