src/projects/scrnaseq_project/lightning_logs/ae_experiment/version_2/checkpoints/epoch=3-step=2788.ckpt (torch, 310195 bytes, 24 tensors)

encoder.l1.0.weight f4 [64, 128]
0	0xbd434d9c	-0.047681436
1	0xba26e365	-0.0006366282
2	0x3e18f4b1	0.14937092
3	0xbb1ac47e	-0.0023615654
4	0xbbaff3d7	-0.005369644
5	0x3dd9e93a	0.106401876
6	0x3db8eb19	0.09029216
7	0xbdcfad38	-0.10140461
8	0xbd3c048f	-0.045902785
9	0xbd22275f	-0.03958833
10	0x3d82184e	0.06352292
11	0x3c87b0b2	0.016563747
12	0x3e1a18a4	0.15048462
13	0x3d78ea41	0.060770277
14	0xbd1b4832	-0.037910648
15	0xbd4cac8b	-0.049969237
16	0x3cc71853	0.02430359
17	0xbd1d8e4b	-0.03846578
18	0x3ddf9eea	0.10918982
19	0xbc8d6b61	-0.017263116
20	0x3c8ca1c9	0.017166989
21	0x3d376bb9	0.044780467
22	0x3d88ba0d	0.06676111
23	0x3ba75ef9	0.005107757
24	0x3cb3469c	0.021884255
25	0x39cf1037	0.00039494198
26	0x3ddcf46b	0.107888065
27	0x3dbdd7f6	0.09269707
28	0xbc85aa72	-0.016316626
29	0x3d364b42	0.044505365
30	0xbb82553e	-0.003977447
31	0x3e559495	0.20857461
32	0xbd5bf6e5	-0.053702254
33	0xbde1fa36	-0.11034052
34	0x3c1afcbd	0.009459672
35	0xbdec19b8	-0.11528343
36	0xbd72570a	-0.05916504
37	0xbe055a06	-0.13022622
38	0x3d1976d4	0.03746684
39	0xbdc7bab5	-0.097524084
40	0x3d907b15	0.07054726
41	0x3e48db56	0.1961492
42	0x3e0658cb	0.1311981
43	0xbd597cc4	-0.0530975
44	0x3e649f08	0.2232629
45	0x3da10675	0.0786256
46	0xbd89f88d	-0.067368604
47	0x3ce8996e	0.028393473
48	0x3d2492a4	0.04017891
49	0xbdb4cc85	-0.088280715
50	0xbd557392	-0.05211217
51	0xbd619bbb	-0.055080157
52	0x3dcc2d7f	0.09969615
53	0x3cd16ca8	0.025564507
54	0xbd308a04	-0.043100372
55	0x3deec853	0.116593026
56	0x3c3da9bd	0.011576113
57	0x3c1a0c60	0.0094023645
58	0x3ce44ba7	0.027868105
59	0x3e2c8472	0.16847399
60	0xbd0b767e	-0.03404855
61	0xbe38b676	-0.18038353
62	0x3d123f2b	0.035704773
63	0x3d73301e	0.05937206
64	0xbd2ecf36	-0.04267808
65	0x3cfea2d7	0.031083507
66	0x3d7811d8	0.060563892
67	0xbdb9bf6d	-0.09069715
68	0x3e267e6b	0.16259162
69	0xbcda14a9	-0.02662118
70	0xbd443367	-0.047900584
71	0x3d1456d2	0.03621561
72	0xbe3bd57e	-0.1834316
73	0xbcc3ef5d	-0.023917848
74	0xbcf3b052	-0.029747162
75	0x3d4ae0a7	0.04953065
76	0x3e06c581	0.1316128
77	0xbaea2f83	-0.0017866943
78	0xbd92df2f	-0.07171475
79	0x3d08923f	0.033342596
80	0x3c904db4	0.017615177
81	0x3da9ac08	0.082847655
82	0x3d4c91f9	0.049943898
83	0x3c99d9fc	0.0187807
84	0x3e1d7247	0.15375625
85	0xbce7f5f5	-0.028315524
86	0x3d85a320	0.06525254
87	0x3d23b89f	0.03997099
88	0x3dcb2a93	0.0992023
89	0xbd27f951	-0.04100925
90	0xbcb13f82	-0.021636728
91	0x3d85cad2	0.065328255
92	0x3d6637a4	0.056205407
93	0xbdb7916a	-0.089632824
94	0xbddf61a9	-0.10907299
95	0x3ca6a21b	0.02034097
96	0xbd2d2241	-0.042268995
97	0xbc7a37e8	-0.015272118
98	0xbc738f06	-0.014865642
99	0x3df1e204	0.11810687
100	0xbbe4c40b	-0.006981378
101	0x3cdbd6c4	0.026835807
102	0x3dc4ab3b	0.09602972
103	0xbdbccf23	-0.09219196
104	0xbdda662c	-0.10664019
105	0x3e04fdc6	0.12987432
106	0x3dd62f06	0.10458188
107	0xbda7ab71	-0.08186997
108	0x3e6ff288	0.23432362
109	0x3d8a57fe	0.067550644
110	0x3d73d04c	0.05952482
111	0x3e4255f4	0.18978101
112	0x3de71551	0.11283363
113	0xbc8c8dda	-0.017157484
114	0xbcd53649	-0.026026862
115	0xbd1ff115	-0.039048273
116	0x3dfac97e	0.12245463
117	0x3cf1c8e9	0.029514747
118	0xbd7fef2a	-0.062483944
119	0xbe446c81	-0.19182016
120	0x3d54128e	0.051775508
121	0x3ce6e970	0.028187484
122	0xbc70b6dd	-0.0146920355
123	0x3d82a268	0.06378633
124	0xbd80d4df	-0.06290602
125	0x3d2b47e0	0.041816592
126	0xbda8a57c	-0.08234689
127	0xbdfaae6e	-0.12240301
128	0xbd96f13a	-0.07370229
129	0x3d450b0f	0.04810625
130	0xbd6cc480	-0.057804585
131	0xbcc52c4b	-0.024068972
132	0xbc822ce7	-0.015890552
133	0xbd8fcdea	-0.07021697
134	0xbdbcf025	-0.092254914
135	0xbbfd5274	-0.0077307764
136	0x3d19ca35	0.037546355
137	0xbd55a5e3	-0.052160155
138	0xbc79fb97	-0.015257738
139	0x3b96a592	0.0045973742
140	0x3d05b011	0.032638613
141	0x3c917bdd	0.017759258
142	0xbcf56b32	-0.029958341
143	0xbbad8b42	-0.005296142
144	0x3d06d7ce	0.03292065
145	0x3ce625e5	0.028094241
146	0xbd137811	-0.036003176
147	0xbdb34ea7	-0.08755236
148	0x3d3930b1	0.04521245
149	0xbda1ad4f	-0.07894384
150	0x3d89925f	0.06717371
151	0x3d2da0f6	0.042389832
152	0x3bb3bfc0	0.005485505
153	0xbd83fecb	-0.06445082
154	0x3c355fce	0.011070205
155	0xbdb53e86	-0.08849816
156	0xbcb8a314	-0.0225387
157	0xbda672fa	-0.08127399
158	0xbd683103	-0.056687366
159	0x3bf65182	0.0075170407
160	0xbd17fe56	-0.037107788
161	0x3d35e043	0.044403326
162	0x3d243b97	0.04009589
163	0x3d0320b8	0.032013625
164	0xbd93af33	-0.07211151
165	0xbd3e730f	-0.046496447
166	0xbd7d2e3c	-0.06181167
167	0xbdc0e85d	-0.0941932
168	0xbc97e7af	-0.018543093
169	0xbdbe41aa	-0.09289868
170	0xbd54352e	-0.05180853
171	0x3aa202f9	0.0012360505
172	0x3c192b79	0.009348744
173	0x3c8012a7	0.015633894
174	0x3d690e56	0.056898437
175	0xbc1ac7de	-0.009447066
176	0xbcb1ee11	-0.021719964
177	0xbd74b461	-0.059742335
178	0x3bd2ff30	0.006439112
179	0x3ac5d631	0.0015093741
180	0x3cccf3ba	0.025018562
181	0x3cb5f043	0.022209292
182	0x3cb32fa4	0.021873303
183	0x3d296d98	0.041364282
184	0x3d7b48c5	0.061348695
185	0xbdd0a5bc	-0.10187861
186	0x3d2ec596	0.0426689
187	0xbbe22694	-0.0069015715
188	0xbca11af2	-0.019666169
189	0x3c478885	0.012178545
190	0xbc1a89fb	-0.009432311
191	0xbd837750	-0.064192414
192	0xbd6505d6	-0.05591377
193	0xbbb4f0dd	-0.005521877
194	0xbd5d3d8e	-0.05401378
195	0x3d05c7b4	0.032661155
196	0x3d1167f5	0.03549953
197	0xbc1fab42	-0.009745421
198	0xbda964ee	-0.08271204
199	0x3d8a4029	0.06750519
200	0x3d69b267	0.057054903
201	0xbb9695c8	-0.004595492
202	0x3d563356	0.05229505
203	0x3c30dce4	0.010794852
204	0x3c8d0afd	0.017217154
205	0xbd5604ca	-0.05225066
206	0xbd57cfcd	-0.05268841
207	0xbbd3a6e2	-0.006459103
208	0xbdc76355	-0.09735743
209	0x3c8f57af	0.017497865
210	0x3d0e7233	0.034776878
211	0xbd1e2e10	-0.038618147
212	0x3c85adcd	0.016318226
213	0xbdbb1b95	-0.0913612
214	0x3d73ae5f	0.059492465
215	0xbdc509e2	-0.096210256
216	0xbc0352fa	-0.008015389
217	0xbd6a6389	-0.05722383
218	0xbd7dfceb	-0.06200878
219	0xbdc1c674	-0.0946168
220	0x3d211c9c	0.039333925
221	0x3d11c67b	0.035589676
222	0x3c16924f	0.009190156
223	0x3d91e3bc	0.07123515
224	0x3d318d9f	0.04334795
225	0xbdbe9c48	-0.09307152
226	0xbdae5335	-0.08511964
227	0xbcc45437	-0.023965938
228	0xbdb919e7	-0.090381436
229	0xbdbb82db	-0.09155818
230	0xbd6a461d	-0.05719577
231	0x3cf9c93d	0.030491466
232	0xbd156862	-0.0364765
233	0x3cadc482	0.021211866
234	0x3c98b917	0.018642945
235	0xbd4f0a3b	-0.050546866
236	0x3d2f3e56	0.042784058
237	0x3d5e59dd	0.05428492
238	0xbd3dd0c1	-0.04634166
239	0x3cf6555d	0.030070001
240	0xbc60d276	-0.013722053
241	0x3d38ce3d	0.04511856
242	0xbccb5fd1	-0.024825962
243	0xbcfa1e7c	-0.030532114
244	0xbd875a13	-0.06608977
245	0x3d40814f	0.04699832
246	0x3c864aa6	0.016393017
247	0xbc78a60f	-0.01517631
248	0x3ccb01b5	0.024781087
249	0xbdc25467	-0.09488755
250	0x3cfaa81d	0.03059774
251	0x3d04c29e	0.032412164
252	0x3d30c59d	0.04315721
253	0xbd5410a8	-0.051773697
254	0xbce1a498	-0.027544305
255	0x3c3f214b	0.0116656525

encoder.l1.0.bias f4 [64]
0	0x3d4e99d1	0.05043966
1	0x3d357fba	0.044311263
2	0xbd8f21b4	-0.0698885
3	0xbcbabf4d	-0.022796297
4	0xbced5a7e	-0.028973814
5	0xbd9ec9d7	-0.07753342
6	0x3d5e4e77	0.05427405
7	0x3da7d3b3	0.08194675
8	0x3c486c0c	0.012232792
9	0xbcdc3bfb	-0.02688407
10	0x3c2b4265	0.010452841
11	0x3d685bad	0.056728054
12	0x3d9d9290	0.0769397
13	0x3d2b05d0	0.04175359
14	0xbd544545	-0.051823873
15	0x3de9ca14	0.114154965
16	0x3dc5cde9	0.09658415
17	0xbcb56825	-0.022144387
18	0xbd045a94	-0.032312945
19	0x3d5988ac	0.053108856
20	0x3da0a643	0.07844212
21	0x3dba880a	0.09107979
22	0x3d2c57b0	0.042075813
23	0xbd8b2703	-0.0679455
24	0x3dccade9	0.09994108
25	0xbb80a153	-0.0039254813
26	0x3c6679f2	0.01406716
27	0x3cca4117	0.02468924
28	0x3c9022d6	0.017594736
29	0x3d0d0154	0.034425095
30	0x3c92eb09	0.01793434
31	0xbd446cab	-0.047955196
32	0x3e243922	0.1603742
33	0x3d2297d0	0.03969556
34	0x3d2f7a52	0.042841263
35	0xbd9ae280	-0.07562733
36	0x3c0bb089	0.008525976
37	0x3c05f366	0.0081757065
38	0xbdb65004	-0.089019805
39	0x3d886919	0.06660671
40	0x3c593298	0.013256691
41	0x395168dc	0.00019970856
42	0xbd289acd	-0.041163255
43	0xbdc7d944	-0.09758237
44	0x3d2cd4c7	0.042195108
45	0xbd9127e4	-0.07087687
46	0xbd53e631	-0.0517332
47	0xbd8b0e95	-0.06789891
48	0x3d2539f1	0.04033846
49	0xbc8e0e48	-0.017340794
50	0x3d8cc6f8	0.06873888
51	0x3cd6d6a9	0.026225405
52	0x3c8a88dc	0.016910963
53	0x3ccbc2a2	0.024873082
54	0x3d3da44d	0.046299268
55	0x3cff368e	0.031153943
56	0xbdaf7ba6	-0.08568506
57	0x3d9175cb	0.07102545
58	0xbd636df3	-0.055524778
59	0xbc1b94be	-0.009495912
60	0xbd5410d1	-0.05177385
61	0xbd257501	-0.040394787
62	0x3d8d3085	0.0689402
63	0xbd7c4d23	-0.061597

encoder.l1.2.weight f4 [64, 64]
0	0xbdbb2e6a	-0.09139712
1	0xbe06e02b	-0.13171451
2	0x3d8cf27c	0.06882188
3	0xbd9ed78e	-0.077559575
4	0xbd2f1261	-0.042742137
5	0xbe12f7b8	-0.1435231
6	0xbd14d6ff	-0.03633785
7	0xbd51912d	-0.05116384
8	0xbdc67345	-0.09689955
9	0x3e083a7d	0.13303562
10	0xbdd190ac	-0.10232672
11	0x3be02fdd	0.0068416432
12	0xbd8f6b20	-0.07002854
13	0xbd4532f1	-0.048144285
14	0x3dc6d0e1	0.09707809
15	0x3d9eb490	0.07749283
16	0xbd0085a2	-0.031377442
17	0xbb3eb493	-0.002909933
18	0x3e40a8d7	0.18814407
19	0x3d6b3e49	0.057432447
20	0xbd9d4e17	-0.0768091
21	0xbce4c558	-0.027926132
22	0x3e21a1d4	0.15784389
23	0x3dc967ac	0.09834227
24	0x3e303b36	0.17210087
25	0xbdc872ce	-0.09787522
26	0x3e01c40d	0.12672444
27	0xbe1c00f8	-0.15234745
28	0x3dae1672	0.08500375
29	0x3da3d1b5	0.07998983
30	0xbc3ded8a	-0.011592278
31	0xbe64897e	-0.22318074
32	0xbc9552de	-0.01822799
33	0xbbf05961	-0.0073348735
34	0x3cac6b14	0.021047153
35	0x3d75c4ef	0.060002264
36	0xbdd93063	-0.10604932
37	0xbcca436e	-0.024690356
38	0xbdb1e6a1	-0.08686567
39	0x3d28bb98	0.04119453
40	0x3e763eae	0.24047348
41	0x3d590be5	0.05298986
42	0x3dec41c7	0.115359835
43	0x3d9f3f66	0.07775764
44	0xbded3843	-0.11582997
45	0xbbe2fa17	-0.0069267857
46	0x3e5f7ff8	0.2182616
47	0xbdc353e9	-0.09537489
48	0xbcbfc871	-0.023411008
49	0xbd70c8dc	-0.058785304
50	0x3e17a4bf	0.1480894
51	0x3b0b1b8f	0.0021226143
52	0x3e4b0f1a	0.1982998
53	0xbdcdc401	-0.100471504
54	0xbe10f961	-0.1415763
55	0xbe19d156	-0.15021262
56	0xbd9ed89a	-0.07756157
57	0x3d74c22f	0.0597555
58	0x3da40231	0.080082305
59	0xbdc1ede8	-0.09469205
60	0xbdc914a6	-0.098183915
61	0xbc72cf6f	-0.014819964
62	0x3e06fc88	0.1318227
63	0xbda03417	-0.07822435
64	0xbe2132d2	-0.15742043
65	0xbc0fba42	-0.008772435
66	0x3d721504	0.059102073
67	0x3dc39b08	0.09551054
68	0x3c2b1949	0.01044304
69	0xbdc067ca	-0.09394796
70	0x3df23905	0.11827282
71	0x3e46ee5c	0.19426864
72	0x3e03fa93	0.12888555
73	0x3e1e2e1a	0.15447274
74	0x3da38488	0.07984263
75	0xbdb3a829	-0.087723084
76	0xbe05b1c9	-0.13056101
77	0xbe06b29d	-0.13154073
78	0x3cbf8b56	0.02338187
79	0xbeaea988	-0.34113717
80	0xbc5cf15b	-0.013485278
81	0x3e37086b	0.17874305
82	0x3d7f264e	0.06229239
83	0xbd224f6c	-0.039626524
84	0xbe6a0a43	-0.22855477
85	0x3e0859d4	0.13315517
86	0xbdebf3bf	-0.115211
87	0xbd63f070	-0.05564922
88	0x3a9a7d6a	0.0011786644
89	0x3dc8d465	0.09806136
90	0xbd630f91	-0.055434767
91	0x3e135e4c	0.1439144
92	0x3e04ebbd	0.12980552
93	0xbddcf152	-0.10788216
94	0x3d83251a	0.06403561
95	0xbdae4018	-0.08508319
96	0x3c5765ab	0.013146798
97	0xbc2a7afb	-0.010405297
98	0xbd7fbd0f	-0.06243616
99	0x3d9d5156	0.07681529
100	0x3e1f5660	0.15560293
101	0xbc48fb6b	-0.012266974
102	0xbc03cdea	-0.008044699
103	0x3d84e30f	0.064886205
104	0x3e8e31f1	0.27772477
105	0xbdc18071	-0.094483264
106	0xbd8ee14e	-0.06976567
107	0x3de00835	0.10939065
108	0xbc2b2b8a	-0.010447392
109	0xbdeadf41	-0.114683636
110	0xbe10b4c6	-0.1413146
111	0xbd486d53	-0.048932385
112	0x3c00220b	0.0078206165
113	0x3cd50993	0.026005542
114	0x3df3c0aa	0.11901982
115	0x3bec2c0d	0.0072073997
116	0xbcfcb2bd	-0.030846948
117	0xbe4ceb3d	-0.20011611
118	0xbe258369	-0.1616341
119	0xbdcdd4ea	-0.10050376
120	0xbdcc7344	-0.09982923
121	0x3d73d192	0.059526034
122	0x3d821c63	0.063530706
123	0x3d0505ce	0.03247624
124	0xbce5661c	-0.028002791
125	0xbab4085a	-0.0013735399
126	0x3e3da60c	0.18520373
127	0x3e10ba79	0.14133634
128	0x3da64024	0.081177026
129	0x3d538231	0.051637832
130	0xbddc1511	-0.107462056
131	0x3d7fcaa8	0.062449127
132	0xbe242845	-0.16030987
133	0x3da90082	0.0825205
134	0xbe2999b4	-0.1656254
135	0xbe3906a9	-0.18068947
136	0xbdfff79a	-0.12498398
137	0x3dccb793	0.099959515
138	0x3dd74b57	0.10512417
139	0xbc99b8cf	-0.018764881
140	0xbc9553c8	-0.018228427
141	0x3d85b039	0.065277524
142	0x3dfe8278	0.12427229
143	0xbd558d2c	-0.052136585
144	0xbde04e0f	-0.109523885
145	0xbd5b2d54	-0.053510025
146	0xbd7da663	-0.061926257
147	0xbe15809b	-0.1459984
148	0x3da40f46	0.08010726
149	0xbe117952	-0.14206436
150	0xbd7b21e2	-0.06131161
151	0xbdd50e4e	-0.10403119
152	0xbe0f0ab2	-0.13968924
153	0xbd130ae5	-0.03589906
154	0xbcdeabca	-0.027181525
155	0xbb17158f	-0.0023053621
156	0x3d9af305	0.075658835
157	0xbcfcc2fe	-0.030854698
158	0xbe102ec3	-0.14080338
159	0x3da1bab1	0.07896937
160	0x3d2be578	0.041966885
161	0x3d570161	0.05249155
162	0x3e06562a	0.13118806
163	0xbceddbf5	-0.029035548
164	0x3d7e1fd3	0.06204207
165	0x3df5481b	0.11976644
166	0x3a5b1ccf	0.000835848
167	0xbd823953	-0.0635859
168	0x3e3848d6	0.17996535
169	0xbc1a2857	-0.009409032
170	0x3dbdd420	0.09268975
171	0x3d9967f3	0.0749053
172	0x3c569572	0.013097154
173	0xbdf382c1	-0.11890174
174	0x3e344cf0	0.17607474
175	0x3dd7fed5	0.10546652
176	0x3dda5caf	0.10662209
177	0x3db2256f	0.08698546
178	0xbca4bcb1	-0.020109506
179	0x3e24af2c	0.16082448
180	0x3d0d9c6f	0.034573015
181	0x3ddca5ef	0.10773837
182	0x3e135396	0.14387354
183	0x3d344617	0.044012155
184	0xbc1c6355	-0.009545167
185	0xbe449ef1	-0.19201256
186	0xbc58e58e	-0.013238324
187	0xbe46bc00	-0.19407654
188	0x3db215e4	0.086955816
189	0x3ce6548c	0.028116487
190	0x3dd3b713	0.10337653
191	0x3d98fce2	0.074701086
192	0xbdec93e9	-0.11551649
193	0x3da98d0d	0.082788564
194	0xbd8cf385	-0.06882385
195	0xbd9c053b	-0.07618185
196	0xbd2c800a	-0.042114295
197	0x3e47a686	0.19497117
198	0x3dc8c315	0.09802834
199	0xbe6879ec	-0.2270276
200	0x3d6f37a6	0.05840268
201	0x3d4e10d1	0.050309006
202	0xbdf46f44	-0.11935285
203	0x3e32a43c	0.17445463
204	0xbe0b7f9f	-0.13622902
205	0x3e07f0b9	0.13275422
206	0xbdc39702	-0.09550287
207	0x3a2b1362	0.00065260206
208	0x3d339401	0.04384232
209	0xbd6a1e90	-0.057158053
210	0xbdd7338f	-0.10507881
211	0xbe1d3ab1	-0.1535442
212	0x3bfef3ab	0.0077805123
213	0xbe8404e8	-0.25784993
214	0x3ddeacf8	0.10872835
215	0x3d34e0af	0.044159587
216	0x3e38188c	0.17978114
217	0xbcd67558	-0.026179
218	0xbdd4eef5	-0.1039714
219	0xbe1b8ec5	-0.15191181
220	0x3dc04208	0.093875945
221	0x3e0ce999	0.13760985
222	0x3e368ec6	0.17827901
223	0xbda0fa66	-0.0786026
224	0xbe98b2a4	-0.29823792
225	0x3d92f179	0.071749635
226	0x3df60912	0.12013449
227	0xbd664e35	-0.056226928
228	0xbb4735ff	-0.0030397174
229	0xbdaa5a31	-0.08317984
230	0xbdd9dbfb	-0.10637661
231	0xbd47e453	-0.04880173
232	0xbe0d7780	-0.13815117
233	0xbd3dfba1	-0.04638255
234	0x3ce954af	0.028482763
235	0xbdb7355d	-0.08945725
236	0xbe2f4af2	-0.17118433
237	0xbe4556c6	-0.19271383
238	0xbd4fd2df	-0.05073821
239	0xbdd76f3e	-0.10519265
240	0x3e30e8e7	0.17276345
241	0xbdb60962	-0.088885084
242	0x3db14f23	0.08657672
243	0x3d9e1e50	0.077206254
244	0xbe946b67	-0.2898819
245	0x3e4c974b	0.19979589
246	0xbdd651b5	-0.10464803
247	0x3d56cebc	0.05244325
248	0x3cf464b9	0.029833185
249	0xbcd02a98	-0.025410935
250	0x3cd65a70	0.02616617
251	0x3e27f038	0.1640023
252	0xbe01edd9	-0.12688388
253	0x3dab7ab6	0.08373015
254	0x3e45766c	0.19283456
255	0xbe07a317	-0.13245808

encoder.l1.2.bias f4 [64]
0	0xbd25335c	-0.040332183
1	0x3d90a03e	0.07061814
2	0x3d5a070c	0.053229377
3	0xbb734700	-0.0037121177
4	0xbdf2c5d1	-0.11854137
5	0xbbd8cf0c	-0.006616479
6	0x3cbdce2f	0.023169605
7	0xbd9cbff8	-0.07653803
8	0xbd20b572	-0.03923554
9	0xbd23c21c	-0.03998004
10	0xbdccdf1a	-0.10003491
11	0xbd525580	-0.05135107
12	0xbd8f0e78	-0.069851816
13	0x3dae58e1	0.08513046
14	0x3d87f9b0	0.06639421
15	0xbccbfe51	-0.024901541
16	0x3dbace7e	0.091214165
17	0xbd301770	-0.0429911
18	0x3dcff37a	0.10153861
19	0x3d951a92	0.072804585
20	0x3c646d81	0.013942123
21	0x3c1e5df9	0.0096659595
22	0x3d986c5f	0.07442545
23	0x3df04872	0.11732568
24	0xbcad81a9	-0.02117999
25	0x3df1796d	0.11790738
26	0x3ddf45a0	0.10901952
27	0xbca14267	-0.019684983
28	0x3d9cf061	0.07663036
29	0xbd9752ad	-0.07388816
30	0xbd46cd01	-0.04853535
31	0x3d739f11	0.05947787
32	0x3dc30119	0.09521694
33	0x3dd678e1	0.104722746
34	0x3ca5898e	0.020207193
35	0x3d07c88b	0.033150237
36	0x3ce155b9	0.027506696
37	0x3cb5dab7	0.022199018
38	0x3cbf6430	0.023363203
39	0xbdf36850	-0.118851304
40	0xbd28d2f4	-0.041216806
41	0x3d42bacf	0.047541436
42	0xbda4f0bc	-0.08053729
43	0xbca9142c	-0.020639502
44	0x3da83fe9	0.08215315
45	0x3d5b2a16	0.053506933
46	0x3df549f6	0.119769976
47	0x3d89cf28	0.06728965
48	0x3d3befe5	0.045883078
49	0x3d576eb2	0.0525958
50	0xbd9154c0	-0.07096243
51	0xbddc688c	-0.10762128
52	0xbc295cfe	-0.0103371125
53	0xbda905ce	-0.0825306
54	0x3caf998d	0.021435523
55	0x3dcbd047	0.09951835
56	0xbd468f33	-0.04847641
57	0x3db98141	0.09057856
58	0xbdeb590c	-0.11491594
59	0xbdf43430	-0.119240165
60	0xbd029d67	-0.03188839
61	0xbde64d57	-0.1124522
62	0x3b91513d	0.004434733
63	0xbdca46fc	-0.098768204

decoder.l1.0.weight f4 [64, 64]
0	0xbe09c84a	-0.1345531
1	0x3dca6290	0.098820806
2	0x3d86acb3	0.065759085
3	0x3da83dca	0.0821491
4	0x3d2268ba	0.039650656
5	0xbd50b51a	-0.050953962
6	0xbd0396fa	-0.032126404
7	0x3de3c35b	0.111212455
8	0xbd9a7053	-0.075409554
9	0xbd3f79da	-0.046747066
10	0xbd024dab	-0.03181235
11	0xbd4a2a5f	-0.049356814
12	0xbe3a176d	-0.18172999
13	0xbd667696	-0.056265436
14	0xbc0243c5	-0.007950728
15	0xbe7a7158	-0.244573
16	0xbd165fd7	-0.036712494
17	0x3e4d7a8d	0.2006628
18	0x3d417ee5	0.047240157
19	0x3e290665	0.16506346
20	0xbd860a9e	-0.06544994
21	0xbe19cee2	-0.15020326
22	0xbd9bad25	-0.07601384
23	0xbe37f016	-0.1796268
24	0xbd493efd	-0.049132336
25	0xbe7f521b	-0.24933665
26	0xbdd21280	-0.10257435
27	0xbd2ee09d	-0.042694677
28	0xbd744120	-0.05963242
29	0x3ba0d39d	0.004908039
30	0x3e2f485d	0.17117448
31	0xbe2b3029	-0.1671759
32	0x3c5ed05c	0.013599481
33	0xbd52fc54	-0.05151017
34	0xb9043b6b	-0.00012610636
35	0x3de00f12	0.109403744
36	0xbd7683b9	-0.060184214
37	0x3de50218	0.1118204
38	0x3e22ed44	0.15910822
39	0xbae6bcde	-0.0017603894
40	0x3dd9672e	0.10615383
41	0xbd9bcf69	-0.0760792
42	0xbd9c91e1	-0.07645012
43	0x3bacff9c	0.0052794944
44	0x3e35973e	0.17733476
45	0x3e0c9fce	0.13732836
46	0x3e3aa53d	0.18227096
47	0xbdb5d4dc	-0.0887849
48	0xbcaa5065	-0.020790288
49	0x3dfcfd4f	0.12353002
50	0xbe3d47da	-0.1848444
51	0xbe764116	-0.24048266
52	0xbd32ada9	-0.043622646
53	0xbb88a3b4	-0.0041699056
54	0x39deef5d	0.0004252148
55	0xbe011fd8	-0.12609804
56	0xbdf86991	-0.1212951
57	0x3d9659c3	0.073413394
58	0xbe1a072a	-0.15041795
59	0xbe0aaf23	-0.13543372
60	0xbcca2669	-0.024676519
61	0xbde86616	-0.11347596
62	0xbdefd331	-0.117102034
63	0xbdf0f66f	-0.117657535
64	0xbe29f827	-0.16598569
65	0xbdb6252d	-0.088938095
66	0x3d9ab3eb	0.07553848
67	0xbc9c7b2b	-0.0191017
68	0x3dd9be7a	0.10632034
69	0x3e1d0a9c	0.15336078
70	0xbc6ad115	-0.014332076
71	0x3d9084f8	0.07056612
72	0xbd98b4e0	-0.07456374
73	0x3d1cee91	0.038313452
74	0xbde686e4	-0.11256197
75	0xbcce502d	-0.025184715
76	0x3d1e155b	0.038594585
77	0xbdcd55f6	-0.100261614
78	0x3e37258e	0.1788542
79	0xbc1f09fe	-0.009706972
80	0x3d4f1034	0.050552562
81	0x3d8cc0d7	0.06872719
82	0xbe2d5c7e	-0.16929814
83	0x3cb97a06	0.022641193
84	0xbd9781ee	-0.07397829
85	0x3deacb81	0.114645965
86	0x3e5da5bd	0.21645255
87	0xbcaa2cf7	-0.020773394
88	0xbe39fc2f	-0.18162607
89	0x3e47cf31	0.19512631
90	0xbe0e5512	-0.13899639
91	0x3d8c4f6e	0.068510875
92	0x3db4214c	0.087954134
93	0xbdd294d0	-0.1028229
94	0xbe0eda2a	-0.1395041
95	0xbdf60834	-0.12013283
96	0xbdba8ab6	-0.09108488
97	0x3d80543b	0.06266066
98	0x3d46e89e	0.048561685
99	0xbe0bf7eb	-0.13668792
100	0xbe1e8a04	-0.15482336
101	0xbdc9656e	-0.09833799
102	0x3d10657b	0.03525303
103	0x3dfb53b8	0.122718275
104	0x3da0af30	0.07845914
105	0xbcecfa7a	-0.02892803
106	0x3cf0862e	0.029360857
107	0xbc2eea48	-0.010675974
108	0xbd21062c	-0.039312527
109	0x3e0d1738	0.13778389
110	0xbda44ded	-0.08022676
111	0xbd7b96e0	-0.061423182
112	0xbd7a373c	-0.06108783
113	0xbcdb4b28	-0.026769236
114	0xbe2e6a6e	-0.17032787
115	0x3d0c1597	0.034200277
116	0xbea58f4c	-0.3233589
117	0xbcb9d0c4	-0.022682555
118	0x3dc106db	0.09425136
119	0xbda56915	-0.080766834
120	0xbca49d5b	-0.020094564
121	0x3d1d52da	0.03840909
122	0xbdeb2b84	-0.11482909
123	0xbd01ca06	-0.031686805
124	0x3dd6f97c	0.10496804
125	0x3e14be72	0.14525774
126	0xbe355030	-0.1770637
127	0x3d37cc14	0.04487236
128	0xbdb22c79	-0.08699889
129	0xbdbd1c89	-0.09233958
130	0x3d3a72be	0.045519583
131	0xbcffea48	-0.031239644
132	0x3d0295b0	0.031881034
133	0x3d88810e	0.0666524
134	0x3da193df	0.07889532
135	0x3ce4e463	0.027940935
136	0xbd9e795a	-0.0773799
137	0xbc964d3b	-0.018347373
138	0x3e01dc88	0.12681782
139	0x3d3a9f42	0.045562036
140	0x3deabf4c	0.11462268
141	0x3dc33358	0.095312774
142	0xbc9c0489	-0.019045131
143	0xbda9e5fd	-0.0829582
144	0xba54657d	-0.0008102281
145	0xbd8b7933	-0.06810226
146	0xbe3b28f8	-0.18277347
147	0x3db4b120	0.088228464
148	0xbe18fbdf	-0.14939831
149	0x3d26211a	0.04055891
150	0x3cdc065a	0.026858497
151	0xbdf927e4	-0.12165812
152	0x3c2d3680	0.010572076
153	0x3e1f39c6	0.15549383
154	0xbd181126	-0.03712573
155	0x3ddf5669	0.10905153
156	0x3bec972a	0.0072201686
157	0xbe1e09e6	-0.15433463
158	0x3a6fb737	0.00091444276
159	0x3df9b093	0.12191882
160	0x3d27dc9e	0.04098188
161	0xbdbb0851	-0.091324456
162	0x3c08d1cc	0.008350801
163	0xbc02a561	-0.007974
164	0x3d7e19b2	0.062036224
165	0x3dbdcada	0.092672065
166	0x3be462f0	0.006969802
167	0xbdae59b6	-0.08513205
168	0xb7963976	-1.790815e-05
169	0xbd4fa980	-0.050698757
170	0xbd777b4b	-0.060420316
171	0x3dea8159	0.11450452
172	0x3d962629	0.07331497
173	0x3de75469	0.11295397
174	0x3c482dad	0.012217921
175	0x3c741143	0.014896694
176	0xbe4380fa	-0.1909217
177	0xbda1511f	-0.07876801
178	0x3dbe9b80	0.09307003
179	0x3dd0c93c	0.101946324
180	0xbd30c037	-0.04315206
181	0x3bf89e21	0.00758721
182	0x3e351267	0.17682801
183	0x3dd83169	0.10556299
184	0x3ddf39f3	0.10899725
185	0xbcd5f348	-0.026116982
186	0xbd64d686	-0.055868648
187	0xbdc51a90	-0.09624207
188	0x3bd9fd2f	0.0066524963
189	0x3cc15119	0.02359824
190	0x3d830ff9	0.06399531
191	0xbd83090f	-0.06398212
192	0x3e3bd2f6	0.18342194
193	0x3de4df32	0.111753836
194	0xbdd35eca	-0.10320814
195	0x3ca8b379	0.020593392
196	0xbdf33af9	-0.118764825
197	0x3ec57afd	0.38570395
198	0x3d12632e	0.035739116
199	0x3de2b0dd	0.1106889
200	0xbc1a7eb7	-0.009429625
201	0xbde3a540	-0.11115503
202	0x3e0e8cf2	0.13920954
203	0x3e88be3b	0.26707634
204	0x3d914b36	0.070944235
205	0xbd1f6cc8	-0.0389221
206	0xbddf5c6e	-0.109063014
207	0x3d6604d6	0.056156956
208	0x3d7c7b3f	0.061640974
209	0xbd2285d5	-0.039678413
210	0x3e8a201c	0.26977623
211	0xbd99ece5	-0.07515887
212	0x3e2016f6	0.15633759
213	0x3d8c46db	0.06849452
214	0x3d437f5e	0.04772889
215	0x3d5ccc0f	0.053905543
216	0x3d11329f	0.035448667
217	0xbd0ae42b	-0.033909004
218	0x3d365ef0	0.044524133
219	0x3e2d1511	0.16902567
220	0x3d13d2ec	0.036089823
221	0xbd21f2fd	-0.039538372
222	0x3dec2f95	0.11532513
223	0x3df310df	0.11868452
224	0xbd8cf487	-0.068825774
225	0x3d9954d9	0.074868865
226	0xbd4b1da1	-0.049588803
227	0xbd249437	-0.04018041
228	0xbde5c626	-0.112194344
229	0xbc88e476	-0.016710501
230	0x3dcbfac1	0.09959937
231	0x3e0df9ed	0.1386487
232	0xbdf2e67c	-0.11860368
233	0x3df0925a	0.11746664
234	0xbdb8b4fa	-0.090188935
235	0xbe22d1d9	-0.15900363
236	0x3db058bf	0.08610677
237	0xbe898987	-0.26862738
238	0xbe9fa3d0	-0.31179667
239	0x3e05aa1c	0.13053173
240	0x3dd83b73	0.10558214
241	0xbcacc4ee	-0.021089997
242	0xbe1e8288	-0.15479481
243	0xbe5adb91	-0.2137282
244	0xbe88ae51	-0.26695493
245	0x3e1ec85e	0.15506122
246	0x3d14f7d1	0.03636915
247	0xbe50ebdf	-0.20402478
248	0x3d8e5bdc	0.069511145
249	0x3e460a06	0.19339761
250	0xbe487614	-0.19576293
251	0xbe090af6	-0.13383088
252	0x3de19774	0.110152155
253	0x3d9a5bdd	0.07537053
254	0xbd643e13	-0.05572326
255	0x3be3bfec	0.006950369

decoder.l1.0.bias f4 [64]
0	0x3dfbadd1	0.12289012
1	0xbdcfa2bc	-0.10138461
2	0xbe12e809	-0.14346327
3	0xbd80936f	-0.06278121
4	0x3d22c23f	0.03973603
5	0x3d76a81a	0.060218908
6	0x3d8975c7	0.06711917
7	0xbdcd317a	-0.100192025
8	0x3bf424d4	0.0074506793
9	0xbd69145e	-0.05690419
10	0x3da61c8d	0.081109144
11	0xbcb9f7e8	-0.022701219
12	0xbe06c6f7	-0.13161837
13	0x3d873f73	0.06603899
14	0x3b782e7f	0.003786951
15	0x3d606cfa	0.05479143
16	0x3d1b51a6	0.037919663
17	0xbdc58f66	-0.09646492
18	0xbd2897d9	-0.04116044
19	0xbdfecb06	-0.124410674
20	0x3d2c732e	0.04210203
21	0xbd73469f	-0.05939352
22	0x3d4bbb18	0.049738973
23	0x3dacc3c7	0.08435779
24	0x3ba53c81	0.005042613
25	0x3dae0856	0.08497684
26	0xbdf4a35f	-0.11945223
27	0x3d6825a9	0.05667654
28	0x3dd07b18	0.10179728
29	0x3db935ef	0.0904349
30	0x3c8c6e96	0.017142575
31	0xbe15f7ee	-0.14645359
32	0xbab58ee4	-0.0013851789
33	0xbdbecb3f	-0.0931611
34	0xba6fc862	-0.0009146986
35	0x3d46db67	0.048549082
36	0xb9ddf87c	-0.0004233754
37	0xbcaab4d6	-0.020838182
38	0xbbcc3e86	-0.0062330393
39	0x3bed87ef	0.0072488706
40	0xbd9886fe	-0.07447623
41	0x3cc659dc	0.02421277
42	0x3e0265db	0.12734167
43	0x3dd693ed	0.10477433
44	0xbcd3ef64	-0.025870986
45	0x3e05f9cf	0.13083576
46	0xbd9a8e9b	-0.07546731
47	0x3a5e4d59	0.00084801536
48	0x3b9e6360	0.0048336238
49	0x3db494de	0.08817457
50	0xbd5e8901	-0.054329876
51	0x3dc7178a	0.097212866
52	0x3d9bd3f4	0.07608786
53	0x3dbf939e	0.093543276
54	0x3d3d9c0f	0.046291407
55	0x3df2532d	0.11832271
56	0xbbd75548	-0.0065714456
57	0xbc8a95f3	-0.016917204
58	0xbbf1fb50	-0.007384695
59	0xbca07297	-0.01958589
60	0x3d297900	0.04137516
61	0x3d6ae870	0.057350576
62	0xbd7b318d	-0.061326552
63	0x3d0341f3	0.032045316

decoder.l1.2.weight f4 [128, 64]
0	0xbe138d0a	-0.14409271
1	0x3e2b37ff	0.1672058
2	0x3d943f13	0.07238593
3	0x3edce273	0.43141517
4	0x3e6ab1f2	0.22919443
5	0xbd9d6f57	-0.07687252
6	0x3d83e921	0.0644095
7	0xbe44d906	-0.19223413
8	0x3d5630e1	0.05229271
9	0x3d4faf88	0.05070451
10	0xbe3ebb3f	-0.18626116
11	0xbca71bb1	-0.020398946
12	0x3c22dca8	0.009940304
13	0xbb7e2419	-0.003877884
14	0xbe855848	-0.26043916
15	0x3e437cc1	0.19090559
16	0xbf0b4a70	-0.5441046
17	0xbe89411b	-0.26807484
18	0xbdd73be7	-0.10509472
19	0x3eab07a9	0.33404282
20	0xbd5fa8a8	-0.054604203
21	0xbd5b6826	-0.05356612
22	0xbdc12baf	-0.0943216
23	0xbd5cf4d5	-0.053944428
24	0x3b98fcff	0.0046688314
25	0xbe363bc8	-0.17796242
26	0x3d63cd97	0.055615988
27	0x3d453b58	0.048152298
28	0x3e0b70d1	0.13617255
29	0x3d8947e5	0.06703166
30	0xbda12d9f	-0.0787003
31	0xbd866dd1	-0.065639146
32	0x3eae3276	0.34022874
33	0x3d9ce26a	0.076603726
34	0x3da1e946	0.079058215
35	0x3da81f1e	0.0820906
36	0x3d8ecd86	0.06972794
37	0xbe9e29a8	-0.30891156
38	0x3c3cfe44	0.011535231
39	0x3e48b0fc	0.19598764
40	0xbe5ddec2	-0.21667007
41	0xbdafc7c0	-0.08583021
42	0xbd392b4e	-0.045207314
43	0x3e87d7cb	0.26531824
44	0x3daad82c	0.08342013
45	0x3e28b6a4	0.16475922
46	0x3ddb496e	0.10707365
47	0xbe312d16	-0.17302355
48	0x3da34d3a	0.07973714
49	0x3e1c2600	0.15248871
50	0x3de4c946	0.11171202
51	0xbdae9628	-0.08524734
52	0x3dc7d436	0.09757273
53	0xbca46612	-0.020068202
54	0xbd601c59	-0.054714534
55	0x3c35443c	0.011063632
56	0x3e52a453	0.20570497
57	0x3d897d3f	0.06713342
58	0xbcf077b2	-0.02935395
59	0x3b5639eb	0.003268833
60	0x3d2f01dc	0.042726383
61	0x3bd093d4	0.0063652787
62	0x3df99f58	0.121885955
63	0x3e0befad	0.13665648
64	0x3e9ab43b	0.3021563
65	0x3e571460	0.21003866
66	0xbcfd89c9	-0.03094949
67	0xbdc114ee	-0.0942782
68	0x3dbe0845	0.09278921
69	0x3e411d0b	0.18858735
70	0xbc857019	-0.016288804
71	0xbe139ed5	-0.14416058
72	0xbd285110	-0.041092932
73	0xbd50256a	-0.05081693
74	0x3e446d31	0.19182278
75	0xbe7546ac	-0.2395274
76	0xbc765821	-0.01503566
77	0x3e738e38	0.23784721
78	0x3da72092	0.08160509
79	0xbc362335	-0.011116792
80	0xbe571de5	-0.21007498
81	0xbe97009d	-0.29492655
82	0x3deb4921	0.114885576
83	0xbd74310c	-0.059617087
84	0x3dbc62ae	0.09198509
85	0x3d56561c	0.052328214
86	0xbc0902ac	-0.008362453
87	0xbdc3a51f	-0.09552979
88	0xbc080c8a	-0.008303771
89	0x3d8272f1	0.063695796
90	0xbd6db36d	-0.058032442
91	0x3d856707	0.065137915
92	0x3d2f03cb	0.042728227
93	0xbcf88883	-0.030338531
94	0x3df58a3d	0.119892575
95	0xbe1628d9	-0.1466402
96	0x3d9f41a1	0.077761896
97	0xbe0c4f9e	-0.13702247
98	0x3cba8718	0.022769496
99	0xbc676e11	-0.014125363
100	0xbdb7d8fe	-0.08976935
101	0x3c4c6a49	0.012476512
102	0x3e37049e	0.17872855
103	0x3ea14494	0.31497633
104	0x3ef7d3da	0.48403817
105	0xbdc896e2	-0.097944036
106	0x3d55332a	0.052050747
107	0x3d6ea17c	0.058259472
108	0x3e217398	0.15766752
109	0xbea89d47	-0.32932493
110	0xbddf98d7	-0.10917824
111	0x3d6e4e5c	0.058180198
112	0x3d64c960	0.05585611
113	0xbe46fece	-0.19433138
114	0xbdb53531	-0.08848036
115	0x3e17464b	0.14772908
116	0xbd0658ae	-0.032799415
117	0x3df61069	0.12014849
118	0xbd67a866	-0.05655708
119	0x3debab92	0.11507334
120	0x3ce98801	0.028507235
121	0x3d7db9a6	0.061944626
122	0xbd50aaa7	-0.050943997
123	0xbda1c3ca	-0.07898672
124	0x3d728bd0	0.059215367
125	0x3cd67326	0.026177954
126	0x3e61832d	0.22022696
127	0x3e49dd89	0.19713415
128	0xbdaea469	-0.085274525
129	0xbc473c13	-0.012160319
130	0x3d93dde6	0.07220058
131	0x3e69d152	0.22833756
132	0x3d8d58b2	0.06901683
133	0x3e5311bd	0.20612235
134	0xbcd733b0	-0.026269764
135	0xbbdf9fca	-0.0068244683
136	0xbd80ffb2	-0.0629877
137	0xbd5986b1	-0.053106967
138	0xbde11309	-0.10989959
139	0xbeb8ea06	-0.36116046
140	0x3d48e17e	0.04904317
141	0x3e1a29c9	0.15055002
142	0xbdb8a132	-0.090151206
143	0x3e82370f	0.2543263
144	0xbdcdaa92	-0.10042299
145	0xbddbf8d4	-0.107408196
146	0xba7bac09	-0.00096005254
147	0xbcd4b896	-0.025966924
148	0xbd98e7b6	-0.0746607
149	0xbd05e32c	-0.03268735
150	0x3d6574ab	0.056019466
151	0xbd8a171d	-0.0674269
152	0x3a939303	0.0011259023
153	0x3e1f45be	0.15553948
154	0xbd8f896d	-0.07008634
155	0xbd0c8151	-0.034303013
156	0xbd1c7d72	-0.03820557
157	0xbdfd7280	-0.12375355
158	0x3a1ae32a	0.0005908484
159	0x3cc9e478	0.024645075
160	0x3e0e525a	0.13898602
161	0x3ddce518	0.10785884
162	0x3e6acfb5	0.22930796
163	0xbd3362ea	-0.043795504
164	0x3dbde8e9	0.0927294
165	0x3e86e720	0.2634821
166	0x3e893b8e	0.2680325
167	0xbe16fb21	-0.14744236
168	0xbdfe897e	-0.12428568
169	0x3d5e1ad1	0.054224793
170	0xbd0e579e	-0.034751527
171	0xbde13803	-0.109970115
172	0xbe3beafb	-0.18351357
173	0x3de36745	0.111036815
174	0x3e005773	0.12533359
175	0xbd774404	-0.0603676
176	0xbdca6564	-0.0988262
177	0x3e0a4e23	0.1350637
178	0x3bed2292	0.007236787
179	0x3e89151f	0.26773927
180	0x3e6df312	0.23237255
181	0x3d06ba40	0.032892466
182	0xbdb1ba84	-0.08678153
183	0x3dd781b8	0.10522789
184	0xbdd0be0d	-0.10192499
185	0xbd0dab03	-0.034586918
186	0xbed99da7	-0.42503092
187	0xbd917d43	-0.0710397
188	0xbd6aa75c	-0.057288513
189	0x3d04d069	0.032425318
190	0x3c950253	0.018189585
191	0x3dabe9da	0.08394213
192	0x3a40f02d	0.0007360008
193	0xbdd61346	-0.10452895
194	0x3ccb054d	0.024782801
195	0xbe32e4af	-0.17470048
196	0x3e143747	0.14474212
197	0x3ddd3553	0.108011864
198	0xbd04bec0	-0.032408476
199	0xbe46814d	-0.19385262
200	0xbb9de58d	-0.0048186244
201	0x3c93d0c0	0.018043876
202	0x3d34d042	0.044143923
203	0xbc4fd8b4	-0.012685943
204	0xbdc2f742	-0.09519817
205	0x3f0bfd49	0.5468336
206	0x3c39252d	0.011300367
207	0x3e308d8b	0.17241494
208	0x3e5cb740	0.2155428
209	0x3dce958d	0.10087118
210	0xbd0e2e42	-0.034712084
211	0xbd59b0ae	-0.05314701
212	0xbda23e6d	-0.07922063
213	0xbdc9ff23	-0.098631166
214	0x3b8bb5c7	0.004263613
215	0xbe34288d	-0.17593594
216	0xbc91b61f	-0.017787037
217	0x3dbaff48	0.09130722
218	0xbd01dbe2	-0.031703837
219	0x3ddfdc33	0.109306715
220	0x3dc413e2	0.09574105
221	0x3e0035ca	0.12520519
222	0x3ded43a6	0.115851685
223	0x3d55a933	0.052163314
224	0x3e60c229	0.21949066
225	0x3e22425b	0.15845625
226	0x3e26167c	0.16219515
227	0xbd8a0450	-0.06739104
228	0x3e1542e3	0.14576297
229	0xbe85093e	-0.25983614
230	0x3e1bfd69	0.15233387
231	0xbdb61221	-0.088901766
232	0x3d4bbd4b	0.04974107
233	0xbdb4365f	-0.08799433
234	0x3c565c2f	0.013083502
235	0x3db4e823	0.08833339
236	0xbdd4cf3d	-0.1039109
237	0x3dcab35d	0.09897492
238	0x3ccf03a8	0.025270298
239	0x3d10548c	0.03523688
240	0x3dc342b6	0.095342085
241	0xbe4d33fa	-0.20039359
242	0xbd89b240	-0.067234516
243	0xbe85bf3c	-0.26122463
244	0x3d2fd6c9	0.042929444
245	0x3dcad1b5	0.0990328
246	0x3d16a3d7	0.036777344
247	0xbe884423	-0.26614484
248	0x3e71797e	0.23581502
249	0x3c035049	0.008014747
250	0xbe26d71e	-0.16292998
251	0xbd57ff20	-0.05273354
252	0x3dbdc74e	0.0926653
253	0xbcf86851	-0.03032318
254	0x3d3ae568	0.045628935
255	0xbd7cf0eb	-0.061753195

decoder.l1.2.bias f4 [128]
0	0x3df7e05e	0.121033415
1	0x3ddbfa00	0.10741043
2	0x3de705f9	0.11280436
3	0xbd552045	-0.052032728
4	0xbdd1ba03	-0.10240557
5	0xbc45c9ec	-0.012072068
6	0x3e2e515b	0.17023222
7	0xbbe16822	-0.0068788687
8	0xbca49f99	-0.020095633
9	0xbe2b0d16	-0.1670421
10	0x3d270a20	0.04078114
11	0xbda10a40	-0.07863283
12	0x3c1eb798	0.009687327
13	0x3d75da9a	0.060022928
14	0x3d15206c	0.036407873
15	0x3d6d8727	0.05799022
16	0xbd5095c8	-0.050924093
17	0x3d7bead8	0.06150326
18	0xbc426c6a	-0.011866668
19	0x3d8f9639	0.070110746
20	0xbac8a13e	-0.0015306843
21	0x3c06a698	0.00821843
22	0xbd01cf55	-0.031691868
23	0x3d8b1fe3	0.06793191
24	0x3cef341e	0.029199656
25	0xbd8e930f	-0.06961643
26	0x3d31c914	0.043404654
27	0x3dbf634c	0.09345111
28	0x3dbbc24e	0.0916792
29	0x3d7189d8	0.05896935
30	0x3cb9f70c	0.022700809
31	0x3dc2af99	0.09506149
32	0x3df8f1a0	0.12155461
33	0xbc9a37c0	-0.018825412
34	0x3e0f648f	0.14003204
35	0x3d6745a7	0.05646291
36	0xbd0729ad	-0.03299873
37	0x3d561b48	0.05227211
38	0x3e138696	0.14406809
39	0x3d837c2b	0.064201675
40	0x3ad215ce	0.0016028227
41	0xbd4556dd	-0.048178542
42	0xbd864d6b	-0.06557735
43	0xbd873897	-0.066025905
44	0x3deae267	0.11468964
45	0x3dc2297d	0.094805695
46	0xbd9ea864	-0.07746962
47	0x3d271781	0.0407939
48	0x3daee632	0.0854
49	0x3e08466f	0.13308118
50	0x3d9cd093	0.0765697
51	0xbd87aaeb	-0.06624397
52	0xbc2c4464	-0.0105143525
53	0x3d7a287a	0.061073758
54	0x3c395e4f	0.011313989
55	0x3b9c1b52	0.004763999
56	0xba348ca9	-0.0006887415
57	0x3d4c85e8	0.04993239
58	0x3d9b9a2a	0.07597764
59	0x3cacf2cb	0.021111866
60	0x3dc09852	0.09404053
61	0x3d1fdd56	0.03902944
62	0x3dedfab4	0.116200835
63	0x3d6b5558	0.057454437
64	0x3dfac6f6	0.1224498
65	0xbd573b4a	-0.052546777
66	0x3cdce38c	0.026963972
67	0x3dcebe99	0.10094947
68	0x3d639a3d	0.055567015
69	0x3cc6c511	0.02426389
70	0xbc3a1ba9	-0.011359134
71	0xbdf37b5c	-0.11888763
72	0x3b81a9d9	0.003957015
73	0x3df6d4f5	0.12052337
74	0xbb207863	-0.0024485819
75	0x3a6e5431	0.0009091525
76	0x3d0b0f2e	0.033950023
77	0xbda8df14	-0.08245674
78	0xbb91dc6f	-0.0044513266
79	0x3d8b79d0	0.06810343
80	0x3dcd8a7e	0.10036181
81	0xbd9c2687	-0.07624536
82	0x3d62a96a	0.055337347
83	0x3e1db824	0.15402275
84	0x3de4d11b	0.11172696
85	0x3da1e2fd	0.07904623
86	0x3d360f61	0.04444826
87	0x3d63483b	0.055488806
88	0xbc4aa17f	-0.012367605
89	0x3d305c1b	0.04305659
90	0x3e01ffea	0.1269528
91	0x3d99d325	0.07510976
92	0xbc5ac60f	-0.013352885
93	0xbdd2c21b	-0.10290929
94	0x3c1ab637	0.0094428575
95	0xbd86ae89	-0.06576259
96	0xbdb67caf	-0.089105
97	0x3de93ffb	0.113891564
98	0xbb5f570e	-0.0034078988
99	0x3c85ec5a	0.016348053
100	0x3e1c6a53	0.15274934
101	0x3c13d92d	0.009023947
102	0xbc8384d6	-0.016054552
103	0xbdc352e4	-0.095372945
104	0x3dccf7f0	0.10008228
105	0xbdf3cff7	-0.119049005
106	0x3d2309ba	0.039804198
107	0xbdd0ab14	-0.101888806
108	0xbd9740d5	-0.073854126
109	0x3d80d391	0.06290353
110	0xbd89e78e	-0.06733619
111	0x3dad4b59	0.08461637
112	0x3d95ad04	0.07308391
113	0x3e0878b5	0.13327296
114	0xbd05ed16	-0.032696806
115	0xbcc79baa	-0.024366219
116	0x3dca2f34	0.098722845
117	0xbd3c50f7	-0.04597565
118	0x3d326c20	0.043560147
119	0x3d174b70	0.036937177
120	0x3d319a43	0.043360006
121	0xbcfc82c6	-0.030824076
122	0x3da1d8a6	0.079026505
123	0x3c812b66	0.015767764
124	0x3ce3a7b1	0.027789922
125	0x3d89a4d8	0.067208946
126	0x3dd2046f	0.10254752
127	0xbcd56548	-0.026049271

exp_avg f4 [64, 128]
0	0xb824e0d7	-3.9310045e-05
1	0xb841368e	-4.6065594e-05
2	0xb83aa733	-4.4501572e-05
3	0x36f3790e	7.256057e-06
4	0x37f1536f	2.876829e-05
5	0xb88c5cb3	-6.692987e-05
6	0xb8274ca6	-3.9887287e-05
7	0x365f9c00	3.3320393e-06
8	0xb901ae20	-0.00012367265
9	0xb7c7fad1	-2.3839444e-05
10	0xb8568c2b	-5.1152118e-05
11	0xb8220430	-3.862771e-05
12	0xb87acb44	-5.979395e-05
13	0xb83b78e4	-4.4696862e-05
14	0x376526d1	1.3658501e-05
15	0xb74c63ab	-1.2182553e-05
16	0x3749e655	1.2034162e-05
17	0x377b7f3c	1.499039e-05
18	0x37abeae2	2.0494164e-05
19	0xb8a8ca71	-8.048572e-05
20	0x37867580	1.602876e-05
21	0xb7e4c7ee	-2.7272818e-05
22	0xb78a0448	-1.6452876e-05
23	0xb7718b7a	-1.4397194e-05
24	0x3845f6dc	4.7198366e-05
25	0xb805f559	-3.193817e-05
26	0xb85f7c88	-5.3283322e-05
27	0x36f89bb1	7.409101e-06
28	0x360e936f	2.1245467e-06
29	0xb8a1042f	-7.6778575e-05
30	0xb7ca0f22	-2.4087323e-05
31	0xb79360a0	-1.756876e-05
32	0xb874b092	-5.8338577e-05
33	0xb6853e73	-3.970979e-06
34	0xb827d8bb	-4.001775e-05
35	0xb8061fc4	-3.1977674e-05
36	0xb7a8c9fa	-2.0121213e-05
37	0xb804af26	-3.1634372e-05
38	0xb8c223e5	-9.257327e-05
39	0xb864679b	-5.4455926e-05
40	0xb7c282ee	-2.3187571e-05
41	0xb7cc8b76	-2.4383637e-05
42	0xb53cdfff	-7.0361415e-07
43	0x3781eb2b	1.5487507e-05
44	0xb7c4cea3	-2.3461243e-05
45	0xb845062e	-4.6974215e-05
46	0xb8d99e2b	-0.000103768274
47	0xb788405d	-1.6242435e-05
48	0x377edc1f	1.5190831e-05
49	0xb73d7273	-1.1291925e-05
50	0xb63a995d	-2.780543e-06
51	0x371c91d2	9.332276e-06
52	0xb7cb44d3	-2.4231535e-05
53	0xb8c0e91f	-9.1986956e-05
54	0x371a6112	9.201716e-06
55	0x373bf643	1.1203406e-05
56	0xb7819431	-1.5447005e-05
57	0xb836747f	-4.3500677e-05
58	0xb81b9545	-3.7093898e-05
59	0xb7c11e9d	-2.3021648e-05
60	0xb80b8259	-3.326158e-05
61	0xb80c527c	-3.345542e-05
62	0xb8106314	-3.442455e-05
63	0xb68228bc	-3.879044e-06
64	0xb722e727	-9.709772e-06
65	0xb856b90f	-5.1193925e-05
66	0xb8732de7	-5.7978465e-05
67	0xb7c316f3	-2.3256498e-05
68	0xb6fb8c97	-7.4967497e-06
69	0xb7b87cdc	-2.1992651e-05
70	0xb8770b02	-5.889964e-05
71	0xb75b9397	-1.3087781e-05
72	0xb697f36d	-4.528489e-06
73	0xb8188771	-3.6365764e-05
74	0xb69016f9	-4.294209e-06
75	0xb7f7145d	-2.9454177e-05
76	0x36710b7b	3.591848e-06
77	0xb8a2690d	-7.744329e-05
78	0xb6d5b115	-6.3685097e-06
79	0x37ed3f87	2.8282184e-05
80	0xb857cf80	-5.1453244e-05
81	0xb8988cb8	-7.274136e-05
82	0xb81717db	-3.6023423e-05
83	0xb81621b8	-3.579419e-05
84	0xb898ef6c	-7.2925206e-05
85	0xb8048437	-3.1594387e-05
86	0xb7c63130	-2.3626344e-05
87	0xb7b96043	-2.2098544e-05
88	0xb7485c8e	-1.19424785e-05
89	0x379e5931	1.88766e-05
90	0xb82d47ae	-4.131317e-05
91	0x373cfe73	1.1264917e-05
92	0xb85378a6	-5.0418683e-05
93	0xb86b6ca4	-5.6129546e-05
94	0x37e41358	2.7188726e-05
95	0xb718a1eb	-9.0976055e-06
96	0xb834c3c6	-4.3097672e-05
97	0xb7220e6a	-9.6593085e-06
98	0xb86f55a2	-5.7061792e-05
99	0xb849df92	-4.813035e-05
100	0xb7ee3c03	-2.8399756e-05
101	0xb8c40619	-9.347144e-05
102	0xb7da3669	-2.6012962e-05
103	0xb41f416f	-1.4831834e-07
104	0x36b12663	5.27948e-06
105	0xb8922721	-6.969111e-05
106	0xb81670e6	-3.586793e-05
107	0x3663ac89	3.3926065e-06
108	0xb7e03e10	-2.6731781e-05
109	0xb70b6b45	-8.310021e-06
110	0xb837654b	-4.3724936e-05
111	0xb82a9abc	-4.0675266e-05
112	0x37b7914b	2.1882957e-05
113	0xb8e16f04	-0.00010749514
114	0xb83a7c10	-4.4461398e-05
115	0x3755dd45	1.2747308e-05
116	0xb854148a	-5.0563867e-05
117	0x3787991a	1.6164548e-05
118	0x36d34581	6.2963813e-06
119	0xb658ca90	-3.2304415e-06
120	0xb7e605d1	-2.7420845e-05
121	0xb82c2d92	-4.1050436e-05
122	0xb88ff5cc	-6.8645546e-05
123	0xb78be572	-1.6676935e-05
124	0xb7408369	-1.1474688e-05
125	0x35882de7	1.0146149e-06
126	0xb848117b	-4.7699996e-05
127	0xb7cc477e	-2.4351986e-05
128	0x292989c4	3.764503e-14
129	0x29698f99	5.1860944e-14
130	0x9c98a1cd	-1.0100341e-21
131	0x9c1f82e8	-5.277788e-22
132	0x9c1f82e8	-5.277788e-22
133	0x2994b4f9	6.603914e-14
134	0x28f9d342	2.7736172e-14
135	0x9c1f82e8	-5.277788e-22
136	0x2a1d1959	1.3953195e-13
137	0x00000004	6e-45
138	0x28f9d342	2.7736172e-14
139	0x28f9d342	2.7736172e-14
140	0x28f9d342	2.7736172e-14
141	0x292989c4	3.764503e-14
142	0x00000004	6e-45
143	0x00000004	6e-45
144	0x9c1f82e8	-5.277788e-22
145	0x292989c4	3.764503e-14
146	0x9c5b09a9	-7.2473507e-22
147	0x00000004	6e-45
148	0x9c803558	-8.484119e-22
149	0x00000004	6e-45
150	0x9c1f82e8	-5.277788e-22
151	0x28f9d342	2.7736172e-14
152	0x9c5b09a9	-7.2473507e-22
153	0x9c1f82e8	-5.277788e-22
154	0x29599db0	4.832045e-14
155	0x00000004	6e-45
156	0x28f9d342	2.7736172e-14
157	0x9c8ddce2	-9.387694e-22
158	0x28f9d342	2.7736172e-14
159	0x2994b4f9	6.603914e-14
160	0x29698f99	5.1860944e-14
161	0x14810b89	1.3030221e-26
162	0x9c803558	-8.484119e-22
163	0x00000004	6e-45
164	0x14810b89	1.3030221e-26
165	0x00000004	6e-45
166	0x00000004	6e-45
167	0x80000004	-6e-45
168	0x00000004	6e-45
169	0x00000004	6e-45
170	0x00000004	6e-45
171	0x14810b89	1.3030221e-26
172	0x9c1f82e8	-5.277788e-22
173	0x28f9d342	2.7736172e-14
174	0x9c1f82e8	-5.277788e-22
175	0x00000004	6e-45
176	0x9c1f82e8	-5.277788e-22
177	0x9c8ddd70	-9.387838e-22
178	0x28f9d342	2.7736172e-14
179	0x292989c4	3.764503e-14
180	0x9c5b09a9	-7.2473507e-22
181	0x292989c4	3.764503e-14
182	0x28f9d342	2.7736172e-14
183	0x9c1f82e8	-5.277788e-22
184	0x9c5b09a9	-7.2473507e-22
185	0x28f9d342	2.7736172e-14
186	0x28f9d342	2.7736172e-14
187	0x9c1f82e8	-5.277788e-22
188	0x9c5b08a3	-7.2472184e-22
189	0x9c1f8194	-5.2776163e-22
190	0x00000004	6e-45
191	0x00000004	6e-45
192	0x28f9d342	2.7736172e-14
193	0x00000004	6e-45
194	0x00000004	6e-45
195	0x9c1f81eb	-5.27766e-22
196	0x28f9d342	2.7736172e-14
197	0x28f9d342	2.7736172e-14
198	0x00000004	6e-45
199	0x28f9d342	2.7736172e-14
200	0x9c1f81eb	-5.27766e-22
201	0x28f9d342	2.7736172e-14
202	0x00000004	6e-45
203	0x00000004	6e-45
204	0x9c1f82e8	-5.277788e-22
205	0x00000004	6e-45
206	0x00000004	6e-45
207	0x00000004	6e-45
208	0x00000004	6e-45
209	0x29455ae0	4.382161e-14
210	0x9c1f82e8	-5.277788e-22
211	0x00000004	6e-45
212	0x28f9d342	2.7736172e-14
213	0x00000004	6e-45
214	0x14c1c612	1.9566145e-26
215	0x00000004	6e-45
216	0x00000004	6e-45
217	0x29455ae0	4.382161e-14
218	0x9c5b08a3	-7.2472184e-22
219	0x00000004	6e-45
220	0x00000004	6e-45
221	0x00000004	6e-45
222	0x9c5b09a9	-7.2473507e-22
223	0x9c5b08a3	-7.2472184e-22
224	0x298a20c5	6.134116e-14
225	0x14810b89	1.3030221e-26
226	0x00000004	6e-45
227	0x14810b89	1.3030221e-26
228	0x9c1f82e8	-5.277788e-22
229	0x00000004	6e-45
230	0x00000004	6e-45
231	0x00000004	6e-45
232	0x00000004	6e-45
233	0x28f9d342	2.7736172e-14
234	0x9c1f81eb	-5.27766e-22
235	0x00000004	6e-45
236	0x14810b89	1.3030221e-26
237	0x28f9d342	2.7736172e-14
238	0x00000004	6e-45
239	0x2976b5af	5.4780558e-14
240	0x9c1f8194	-5.2776163e-22
241	0x29a3b6a9	7.2703406e-14
242	0x292989c4	3.764503e-14
243	0x9c5b09a9	-7.2473507e-22
244	0x292989c4	3.764503e-14
245	0x00000004	6e-45
246	0x00000004	6e-45
247	0x80000004	-6e-45
248	0x9c5b09a9	-7.2473507e-22
249	0x28f9d342	2.7736172e-14
250	0x14a93707	1.7086344e-26
251	0x00000004	6e-45
252	0x292989c4	3.764503e-14
253	0x00000004	6e-45
254	0x14c1c612	1.9566145e-26
255	0x00000004	6e-45

exp_avg_sq f4 [64, 128]
0	0x358c7ecf	1.0467719e-06
1	0x360a94c8	2.0650205e-06
2	0x3589602a	1.0235283e-06
3	0x35843dda	9.852768e-07
4	0x34819958	2.4139695e-07
5	0x35721a8f	9.0190673e-07
6	0x356deb2f	8.863162e-07
7	0x351720b7	5.629949e-07
8	0x36cdf7af	6.1383103e-06
9	0x3434dc6e	1.6843998e-07
10	0x349d5611	2.930615e-07
11	0x3561f0d8	8.4169505e-07
12	0x34ac9814	3.2148148e-07
13	0x35639b08	8.478969e-07
14	0x343a132c	1.7329575e-07
15	0x34806df5	2.3921862e-07
16	0x3486fb2d	2.51422e-07
17	0x350aaa5b	5.1656906e-07
18	0x34a5e4ec	3.0900208e-07
19	0x3579d0d8	9.3063636e-07
20	0x3492d593	2.7350015e-07
21	0x351d44d5	5.858722e-07
22	0x34907bd2	2.691218e-07
23	0x3577bac6	9.228646e-07
24	0x34dae2ee	4.0770777e-07
25	0x34e6b09f	4.2969347e-07
26	0x34ab95b9	3.196017e-07
27	0x34f7acc9	4.6133053e-07
28	0x34f84662	4.624481e-07
29	0x346710e1	2.1519692e-07
30	0x35027d0c	4.861074e-07
31	0x34b44fae	3.3585587e-07
32	0x346d5f70	2.2107065e-07
33	0x34b545f3	3.3764772e-07
34	0x34608ee5	2.091361e-07
35	0x344aeb1f	1.8898253e-07
36	0x33d328d6	9.832881e-08
37	0x340c228f	1.3051088e-07
38	0x3579693d	9.291287e-07
39	0x34fa5cc7	4.6633633e-07
40	0x341b32cc	1.445398e-07
41	0x34aa7208	3.1747936e-07
42	0x35412222	7.194777e-07
43	0x345798ae	2.007898e-07
44	0x348d8977	2.6363315e-07
45	0x34b91f31	3.448163e-07
46	0x34c72639	3.709445e-07
47	0x3455ce79	1.9912285e-07
48	0x34d85904	4.0297903e-07
49	0x35042feb	4.924356e-07
50	0x342eece1	1.6291189e-07
51	0x34b99c1d	3.4572523e-07
52	0x3563c388	8.4848625e-07
53	0x35afe309	1.3104592e-06
54	0x346eff8a	2.2258442e-07
55	0x34cc0550	3.8001826e-07
56	0x351ae2d2	5.769954e-07
57	0x351af55d	5.772652e-07
58	0x34f2f73a	4.5255894e-07
59	0x3454af54	1.9807823e-07
60	0x34967e25	2.803146e-07
61	0x34405ff2	1.7916298e-07
62	0x3485eb36	2.494432e-07
63	0x34bff2ea	3.5753266e-07
64	0x358392dd	9.803003e-07
65	0x348ae334	2.5869815e-07
66	0x350e37d6	5.2980374e-07
67	0x35098bc1	5.1239846e-07
68	0x347c93e2	2.3523128e-07
69	0x34021745	1.2115659e-07
70	0x350ca566	5.239475e-07
71	0x341e67f9	1.4752722e-07
72	0x3484c512	2.4730303e-07
73	0x34754e87	2.2845971e-07
74	0x338a59b5	6.4424434e-08
75	0x345d1bf1	2.0592394e-07
76	0x34577d7c	2.0069086e-07
77	0x34441382	1.826102e-07
78	0x34549e1d	1.980156e-07
79	0x34564942	1.9956954e-07
80	0x342abeb2	1.5901858e-07
81	0x35532425	7.865622e-07
82	0x354521cf	7.3437417e-07
83	0x33ea3529	1.0906144e-07
84	0x35021002	4.845207e-07
85	0x3580e2f1	9.602792e-07
86	0x3487305a	2.518089e-07
87	0x3509eb98	5.137931e-07
88	0x33c5aa71	9.2045305e-08
89	0x34120cde	1.360199e-07
90	0x3483aad3	2.4524942e-07
91	0x3429c578	1.581119e-07
92	0x354bc4b3	7.590963e-07
93	0x34410d07	1.7979265e-07
94	0x3411a1bd	1.3563017e-07
95	0x33f6e588	1.1497019e-07
96	0x344df219	1.9180187e-07
97	0x342d2865	1.6126576e-07
98	0x34ce947f	3.8478535e-07
99	0x34927fb2	2.728753e-07
100	0x354c4f59	7.611139e-07
101	0x34741ecb	2.2735473e-07
102	0x34e191a2	4.2015478e-07
103	0x3435c6d8	1.6929278e-07
104	0x3432e17e	1.6659575e-07
105	0x348c9fa0	2.6193175e-07
106	0x35a1f2e4	1.2066125e-06
107	0x341d6c08	1.4661066e-07
108	0x344f7982	1.9322582e-07
109	0x3531900d	6.614726e-07
110	0x34ab6cf4	3.1930506e-07
111	0x33d89f0f	1.00872164e-07
112	0x34ee33c7	4.4368628e-07
113	0x35b9376c	1.3799704e-06
114	0x346d2732	2.2086604e-07
115	0x331e681c	3.688193e-08
116	0x3532e45f	6.664249e-07
117	0x34121941	1.3606497e-07
118	0x33f254bd	1.1284417e-07
119	0x33f1595b	1.1238691e-07
120	0x352f256b	6.524703e-07
121	0x33f69ee5	1.14841704e-07
122	0x3475025f	2.2818266e-07
123	0x342d2629	1.6125763e-07
124	0x34249ac9	1.5330001e-07
125	0x3425dba6	1.544673e-07
126	0x34472196	1.8545538e-07
127	0x34915b3a	2.707473e-07
128	0x3166c261	3.3579897e-09
129	0x32417e1e	1.1262754e-08
130	0x317d2aa5	3.6840586e-09
131	0x318fa0ff	4.180151e-09
132	0x303efcb7	6.9480727e-10
133	0x31939db9	4.296194e-09
134	0x3152db89	3.0683813e-09
135	0x3113eff4	2.1527713e-09
136	0x32e3ecd4	2.6533975e-08
137	0x30526233	7.6537104e-10
138	0x30a5c531	1.2061375e-09
139	0x31810909	3.7554213e-09
140	0x30c4d196	1.4320445e-09
141	0x3183a4a8	3.831321e-09
142	0x3036f111	6.655379e-10
143	0x308495e9	9.646871e-10
144	0x3080b0fb	9.363527e-10
145	0x31333601	2.6078626e-09
146	0x30bab632	1.3585064e-09
147	0x318ca67c	4.0934633e-09
148	0x3072f82e	8.839177e-10
149	0x312da014	2.5265807e-09
150	0x30a3a5b6	1.1906909e-09
151	0x319ba7c5	4.530167e-09
152	0x30b07e96	1.2841663e-09
153	0x30f75c05	1.7997769e-09
154	0x30b05d11	1.2832136e-09
155	0x30dec4c7	1.6208553e-09
156	0x310ed5fc	2.0785356e-09
157	0x302ee590	6.362706e-10
158	0x3105c255	1.9464512e-09
159	0x30cfa3a0	1.5107737e-09
160	0x30676d7e	8.419291e-10
161	0x30ab0945	1.2444522e-09
162	0x308c6587	1.0215196e-09
163	0x30491f2d	7.316768e-10
164	0x2f979492	2.7572306e-10
165	0x2fa13c72	2.9328678e-10
166	0x3180fc17	3.7539496e-09
167	0x30caa201	1.4743479e-09
168	0x303f7885	6.9656664e-10
169	0x30b0bccd	1.2859346e-09
170	0x3132c9a5	2.601703e-09
171	0x303f1a5e	6.9522865e-10
172	0x3087650b	9.851261e-10
173	0x3099a250	1.1178347e-09
174	0x30cbb6da	1.4822163e-09
175	0x307e7db3	9.258329e-10
176	0x30d7571b	1.5668066e-09
177	0x31021902	1.8931705e-09
178	0x30280e13	6.1138045e-10
179	0x30bc5ac4	1.3704597e-09
180	0x316cd550	3.4463774e-09
181	0x31aabcff	4.9691375e-09
182	0x308eb3c0	1.0382948e-09
183	0x30b48e1a	1.3137111e-09
184	0x3114250a	2.1557889e-09
185	0x312a9c6d	2.4827174e-09
186	0x3112dd89	2.1371724e-09
187	0x304cff83	7.457787e-10
188	0x3097502e	1.1009484e-09
189	0x3036d349	6.651147e-10
190	0x309b9023	1.13187e-09
191	0x30c88265	1.4588976e-09
192	0x3188696a	3.970105e-09
193	0x309ba826	1.1325525e-09
194	0x30f2aa19	1.7656162e-09
195	0x30f9f777	1.8187468e-09
196	0x307e3f24	9.249439e-10
197	0x3026c4b2	6.066997e-10
198	0x31051415	1.9365463e-09
199	0x30574cc7	7.832565e-10
200	0x306d089f	8.623235e-10
201	0x30753cda	8.9216956e-10
202	0x300aeb8e	5.053885e-10
203	0x307fcfb3	9.306362e-10
204	0x308d089a	1.0261545e-09
205	0x305bda66	7.99821e-10
206	0x304f6dcc	7.546219e-10
207	0x305a3367	7.9380985e-10
208	0x3045b210	7.1921225e-10
209	0x3166790a	3.3538208e-09
210	0x31679b3d	3.3703167e-09
211	0x3015d585	5.4509314e-10
212	0x311898d2	2.220578e-09
213	0x317c0f63	3.6679573e-09
214	0x30712e66	8.7741225e-10
215	0x30f666cd	1.7928073e-09
216	0x2fa5541e	3.0073094e-10
217	0x3009efc8	5.018106e-10
218	0x308ced8b	1.0253854e-09
219	0x3038cc3f	6.722906e-10
220	0x31675442	3.366282e-09
221	0x3025d69e	6.033164e-10
222	0x2ffe6006	4.627056e-10
223	0x3020a91f	5.8447996e-10
224	0x3055ea14	7.7821594e-10
225	0x3008a0ec	4.9705196e-10
226	0x30ca2fd6	1.471103e-09
227	0x30abe536	1.2507033e-09
228	0x313f0d1b	2.7801608e-09
229	0x30599e46	7.916906e-10
230	0x30be483e	1.3844852e-09
231	0x305eabe0	8.100738e-10
232	0x303c2907	6.8452305e-10
233	0x3082176b	9.465401e-10
234	0x31a3cf77	4.7675104e-09
235	0x302ea566	6.3535877e-10
236	0x3061d354	8.215484e-10
237	0x3145c7a3	2.8780753e-09
238	0x309bb155	1.1328135e-09
239	0x2fa1fb90	2.9464475e-10
240	0x31097b81	2.0006328e-09
241	0x31d72cf5	6.2624346e-09
242	0x3048f36b	7.3105494e-10
243	0x2edd2789	1.0056939e-10
244	0x313060b0	2.5666331e-09
245	0x3041f8d3	7.056659e-10
246	0x301766d0	5.5079585e-10
247	0x2fd6b5e1	3.9055606e-10
248	0x312effb4	2.5465683e-09
249	0x2fb96093	3.3719924e-10
250	0x305a5b29	7.9437484e-10
251	0x304c60fa	7.435258e-10
252	0x300b439c	5.0663984e-10
253	0x30179e0a	5.5158067e-10
254	0x3025e8c3	6.0357425e-10
255	0x307aada2	9.119622e-10
