src/projects/scrnaseq_project/lightning_logs/ae_experiment/version_4/checkpoints/epoch=3-step=2788.ckpt (torch, 310195 bytes, 24 tensors)

encoder.l1.0.weight f4 [64, 128]
-0.0016242005 0.054327544 0.0593265 0.10922737 -0.034274276 0.11885374 -0.0026799736 0.12795486
0.13316736 0.003794252 0.10536689 0.04891325 -0.05629759 0.1680874 -0.0053823907 -0.0048997444
0.01527053 -0.06720779 -0.14421716 0.11678877 0.06981939 0.028229699 -0.04822345 -0.02774334
0.046901707 0.12257389 -0.030925104 0.19777992 -0.22904927 -0.035624165 -0.096456006 0.17492545
0.23369853 0.024363952 0.16232221 0.14808856 -0.18124096 0.112779565 0.010153015 0.16037324
-0.090971224 0.010034514 -0.016466977 0.065044425 0.08631573 0.13539274 -0.04479896 0.16909681
0.16682906 0.011506536 -0.040298518 0.01800393 0.07344929 0.0464012 -0.02459974 -0.17834103
-0.01938458 0.023104638 0.092819564 -0.19432177 0.008177219 0.076453775 -0.06923158 -0.13827756
-0.015783662 -0.108636044 -0.044326663 -0.027586332 0.06384697 0.028584106 0.0765065 -0.04675851
-0.0018547681 -0.22144799 -0.23348513 0.13017912 0.2246927 -0.15461588 -0.18254487 0.06353225
-0.12680459 -0.0074949455 -0.055089455 0.19881944 -0.044518135 0.1335351 0.06383951 0.012470575
0.027811589 -0.0642684 0.08714304 -0.2290193 -0.06874206 0.048968162 -0.06767837 -0.13323969
0.18395633 -0.028724115 -0.06430854 0.07039145 0.09784894 -0.025520062 -0.030394074 -0.006474295
-0.0050035794 -0.07612599 0.04364347 -0.09780522 -0.12549019 0.055417653 0.04728519 0.10321419
-0.06228418 0.011645691 0.074812725 -0.013228888 0.017557714 0.015558785 -0.033710085 0.089163356
-0.026740711 0.057548344 -0.14111184 -0.0025977748 0.05506298 -0.030238617 -0.123875156 -0.06471603
0.034353193 -0.057455648 0.06177961 -0.01691873 -0.026652543 0.04554598 -0.057757918 -0.068565466
0.017756483 0.019069325 -0.11651212 -0.06929574 -0.0638843 -0.11527866 -0.05312194 -0.02769675
-0.03940102 0.027204994 0.06256668 -0.052617908 -0.11124355 -0.030062092 -0.013992226 0.03334279
-0.008845905 -0.040298767 -0.1005593 0.07490958 -0.08084368 0.0005126059 -0.017120002 -0.01785166
-0.10468564 0.04387924 -0.024241837 0.03448486 0.045473006 0.037392434 0.0061284276 -0.024847968
0.09402608 0.023070121 -0.018301327 -0.008521404 -0.08513068 0.041571103 -0.07293528 0.023441633
-0.019425446 0.0153792985 -0.014031228 -0.10043077 -0.03262805 0.057656147 0.07120279 -0.07912908
-0.06648247 -0.050496377 -0.105734475 0.0018194189 -0.06111874 0.037533008 -0.08000244 -0.014500855
0.0874497 0.029048564 0.025469562 -0.004360393 -0.11216558 0.10024783 -0.06037828 -0.058874637
-0.07480378 -0.07820937 -0.088619895 -0.04259109 -0.065451466 0.0019073547 0.08376481 0.08402714
-0.0672674 -0.023466568 -0.03647705 -0.02540542 -0.07255483 -0.054774035 -0.09834282 -0.019942781
0.019117665 0.09527446 0.0029310298 -0.077724904 0.03926785 -0.041302603 -0.018543836 -0.09463896
-0.071162775 -0.067973085 -0.108551644 0.070444144 -0.06286774 -0.008034717 -0.062220115 0.05494017
-0.03838319 0.08341858 -0.020211486 0.019946966 0.026935844 0.05137816 -0.064060874 -0.096538395
0.019656753 0.047867455 0.09806218 0.047362212 0.04431393 0.039613314 0.07558388 0.05083472
0.043223184 -0.09749894 -0.018578613 -0.011970086 -0.06500974 -0.15949984 0.0061979312 -0.01877961
00000000: 20e3 d4ba 8f86 5e3d 5800 733d 99b2 df3d
00000010: 2f63 0cbd 9769 f33d 7fa2 2fbb 9906 033e
00000020: 065d 083e fca8 783b 99ca d73d 4359 483d
00000030: 4d98 66bd 1a1f 2c3e c45e b0bb 098e a0bb
00000040: 3f31 7a3c 3da4 89bd aaad 13be f32e ef3d
00000050: 78fd 8e3d f841 e73c f485 45bd 0046 e3bc
00000060: 011c 403d 0508 fb3d a556 fdbc d286 4a3e
00000070: e48b 6abe a5ea 11bd ba8a c5bd a81f 333e
00000080: ab4e 6f3e e996 c73c cb37 263e 87a4 173e
00000090: 3b97 39be f9f8 e63d d558 263c e238 243e
000000a0: 1f4f babd cd67 243c c1e5 86bc 0336 853d
000000b0: 4dc6 b03d 65a4 0a3e 1d7f 37bd b727 2d3e
000000c0: 3dd5 2a3e e985 3c3c 0f10 25bd fa7c 933c
000000d0: 956c 963d 2f0f 3e3d 6585 c9bc 089f 36be
000000e0: 69cc 9ebc f045 bd3c 2f18 be3d 49fc 46be
000000f0: bef9 053c cc93 9c3d 49c9 8dbd a298 0dbe
00000100: bd4c 81bc 937c debd e08f 35bd bbfc e1bc
00000110: 33c2 823d 3729 ea3c 71af 9c3d da85 3fbd
00000120: b11b f3ba 43c3 62be ba16 6fbe ad4d 053e
00000130: d815 663e a053 1ebe 0bed 3abe 321d 823d
00000140: 10d9 01be 2998 f5bb 7ba5 61bd 5397 4b3e
00000150: a658 36bd 6dbd 083e 4abe 823d 6251 4c3c
00000160: 21d5 e33c 279f 83bd 0d78 b23d 0984 6abe
00000170: a3c8 8cbd d792 483d f59a 8abd fc6f 08be
00000180: 0c5f 3c3e d64e ebbc 32b4 83bd 6429 903d
00000190: 0665 c83d 730f d1bc fefc f8bc 5326 d4bb
000001a0: 11f5 a3bb f1e7 9bbd 7fc3 323d 1a4e c8bd
000001b0: 8080 00be 9ffd 623d 1eae 413d f661 d33d
000001c0: b21d 7fbd 91cd 3e3c 6a37 993d fabd 58bc
000001d0: 32d5 8f3c 46ea 7e3c 9613 0abd 479b b63d
000001e0: 560f dbbc d0b7 6b3d 9f7f 10be 6e3f 2abb
000001f0: b889 613d fab6 f7bc 42b2 fdbd d789 84bd
00000200: efb5 0c3d 9d56 6bbd 9e0c 7d3d 2699 8abc
00000210: 6f56 dabc 6c8e 3a3d 9193 6cbd 0d6c 8cbd
00000220: 0b76 913c 4637 9c3c e89d eebd edea 8dbd
00000230: c6d5 82bd 3817 ecbd 6496 59bd 4be4 e2bc
00000240: f762 21bd 02dd de3c f622 803d e085 57bd
00000250: a9d3 e3bd c744 f6bc a63f 65bc 7392 083d
00000260: 6aee 10bc 5210 25bd 09f2 cdbd 326a 993d
00000270: 5f91 a5bd 6660 063a 3f3f 8cbc a53d 92bc
00000280: 6d65 d6bd b8ba 333d d196 c6bc ff3f 0d3d
00000290: e741 3a3d cf28 193d fad0 c83b f78d cbbc
000002a0: bf90 c03d 8dfd bc3c aaec 95bc 5c9d 0bbc
000002b0: fe58 aebd 7646 2a3d 185f 95bd ab08 c03c
000002c0: 1d22 9fbc 74f9 7b3c 3ce3 65bc a6ae cdbd
000002d0: fda4 05bd da28 6c3d c5d2 913d 6d0e a2bd
000002e0: f627 88bd 4ad5 4ebd 518b d8bd 9179 ee3a
000002f0: a557 7abd 36bc 193d 52d8 a3bd fe94 6dbc
00000300: d418 b33d 41f7 ed3c 8ba5 d03c a1e1 8ebb
00000310: 11b7 e5bd bc4e cd3d 374f 77bd 8826 71bd
00000320: b932 99bd 3c2c a0bd 597e b5bd ff73 2ebd
00000330: 6b0b 86bd 3400 fa3a e28c ab3d 6c16 ac3d
00000340: 7ec3 89bd f63c c0bc f668 15bd 071f d0bc
00000350: a097 94bd bd5a 60bd f667 c9bd 0b5f a3bc
00000360: a69c 9c3c 421f c33d 8516 403b 3c2e 9fbd
00000370: 53d7 203d eb2c 29bd 3ee9 97bc 12d2 c1bd
00000380: cabd 91bd 7935 8bbd 5350 debd 0545 903d
00000390: cdc0 80bd 0ca4 03bc 85da 7ebd f208 613d
000003a0: b137 1dbd 5cd7 aa3d 8f92 a5bc d267 a33c
000003b0: 8fa8 dc3c e871 523d 5932 83bd ecb5 c5bd
000003c0: 3307 a13c aa10 443d d3d4 c83d e1fe 413d
000003d0: 8682 353d 9241 223d b9cb 9a3d 1138 503d
000003e0: cb0a 313d 86ad c7bd 2d32 98bc 2e1e 44bc
000003f0: d423 85bd ed53 23be 0418 cb3b b2d7 99bc

encoder.l1.0.bias f4 [64]
0.018835807 0.030761493 0.0483705 0.029728265 0.048746813 -0.031972624 -0.04558017 0.03856545
0.025683373 0.10775532 -0.02341735 0.0064660725 -0.013634514 0.060151257 0.01386684 0.0016504929
0.03200795 0.059923884 -0.037865296 -0.003537618 -0.0021387506 0.025422523 -0.08013765 -0.028520007
-0.021467244 0.009831407 -0.0958738 -0.055274125 0.08615506 -0.016230943 0.064860664 -0.028849304
0.098714754 0.0056225737 -0.03532863 -0.01586943 0.031846993 0.00101078 -0.04727813 0.04488617
0.05957134 -0.042104416 -0.01781224 0.013631968 -0.0020462463 0.04436065 0.015582856 0.013469493
0.022068078 0.12467349 -0.10431327 0.04707887 0.054620698 -0.08493277 0.0038467622 0.041681934
-0.0039059292 0.068259746 0.1065552 -0.008479544 -0.0673638 -0.025072593 -0.02495613 -0.022601621
00000000: 8d4d 9a3c 87ff fb3c 2520 463d b188 f33c
00000010: bdaa 473d baf5 02bd 46b2 3abd cef6 1d3d
00000020: f065 d23c d2ae dc3d bed5 bfbc 59e1 d33b
00000030: 4c63 5fbc 2a61 763d be31 633c 5a55 d83a
00000040: c51a 033d bf72 753d a418 1bbd 62d7 67bb
00000050: 482a 0cbb e542 d03c 351f a4bd caa2 e9bc
00000060: 13dc afbc e913 213c 7c59 c4bd 1f67 62bd
00000070: 1072 b03d c1f6 84bc abd5 843d 6055 ecbc
00000080: f62a ca3d 913d b83b c1b4 10bd 9b00 82bc
00000090: fe71 023d 267c 843a b6a6 41bd 90da 373d
000000a0: 1401 743d ae75 2cbd faea 91bc 9e58 5f3c
000000b0: 511a 06bb 83b3 353d 3c4f 7f3c 26af 5c3c
000000c0: 1dc8 b43c d154 ff3d 32a2 d5bd c6d5 403d
000000d0: f4b9 5f3d 3bf1 adbd f619 7c3b adba 2a3d
000000e0: 9efa 7fbb c4cb 8b3d 9d39 da3d c9ed 0abc
000000f0: 08f6 89bd 0a65 cdbc cc70 ccbc 0927 b9bc

encoder.l1.2.weight f4 [64, 64]
-0.09200317 -0.18810844 0.1558767 0.058775198 0.06729561 0.0011746166 -0.20690529 0.086592235
-0.27432123 0.16210325 0.06886646 -0.28349164 -0.024861341 0.16689797 -0.029179974 0.09972185
-0.02435583 0.01939259 0.17836669 0.05957984 0.02278448 -0.021703724 0.092699155 -0.14165834
-0.029197557 -0.13615142 0.02241512 0.06265495 -0.1458489 0.118261725 0.29495695 -0.01434494
0.15221742 -0.05165459 0.17033087 0.037078224 -0.2147635 -0.031663753 -0.11250901 -0.040120725
-0.13483454 -0.014136409 -0.0733248 -0.105410755 0.009503927 0.04469995 -0.032348488 -0.006622639
-0.029851366 -0.014726344 0.09105451 -0.16585955 0.029961187 0.07048143 0.20344092 0.12746178
-0.066089965 0.07042346 -0.024334295 -0.108382665 -9.067445e-05 -0.045192 -0.06810336 0.17172353
-0.048604734 -0.094752565 0.14724675 0.08587153 0.032921623 -0.039879546 -0.19809088 -0.106960274
0.060487084 -0.26635253 -0.07531035 -0.054270186 0.21107893 -0.09652643 0.037348114 0.05063313
-0.0029576095 0.01725349 0.05746462 -0.2393505 0.028385928 -0.025672005 -0.060504925 -0.13639936
0.015100451 -0.095231056 0.08664996 -0.09247544 0.114470884 -0.039701354 0.081370264 0.1472465
-0.16316472 -0.09297217 0.049913354 0.041630566 0.27507934 0.04635777 0.08499041 0.004910552
0.16229732 -0.11802196 0.030298421 0.12079315 -0.027791934 -0.07295056 -0.08101488 0.018704724
-0.14602031 0.10797273 -0.10763803 0.23437329 0.19915876 -0.11808608 -0.0009329032 0.05183552
-0.13900973 0.18579829 -0.0077145356 -0.01163076 -0.045814153 0.14365953 -0.016271101 -0.07085462
-0.051920317 -0.022580327 -0.022880342 0.08383043 0.06220351 0.024445787 0.19162287 0.017354477
-0.1642941 -0.08470637 0.07024873 -0.21966612 -0.033276636 0.1034979 -0.105915405 -0.09079698
0.1041179 -0.13984904 -0.037730154 0.049416862 -0.04757097 6.459524e-05 0.10838135 0.089005336
-0.10433866 0.140137 -0.07136692 0.07442406 0.0691403 -0.08735894 0.06863611 -0.11340073
-0.0483319 -0.07325448 -0.029071284 -0.007440836 0.015550443 -0.122412734 -0.027087983 -0.14744894
-0.039757714 0.061791368 -0.1066712 0.031709272 -0.07863301 -0.028649947 -0.06293048 -0.17750794
-0.17839678 0.14054269 0.0143759055 0.060404498 -0.111723796 0.10450517 0.025814874 0.08267891
0.05230851 0.105654754 0.044216633 -0.1646235 -0.08001869 -0.15498072 -0.10013912 0.025700444
0.04338145 0.08339955 0.04354909 -0.074924596 -0.03755336 -0.114782415 0.059551816 0.17613128
-0.1995998 -0.15115164 -0.19021562 -0.07756744 0.03387243 0.09177958 0.10893564 0.1253029
-0.04307035 -0.08592877 0.013976401 0.0044662096 -0.014315166 -0.08082434 0.07030813 0.12671894
0.12901483 -0.010621648 0.0973655 0.03506706 -0.08252884 -0.10502115 -0.112819925 0.21159504
0.10929698 0.059088476 -0.022509938 -0.13619323 0.035759266 0.23188652 0.022576137 0.15413016
-0.066866204 -0.09410927 -0.021204857 -0.25682637 0.02193118 0.07439339 0.044685256 0.031447235
-0.02833398 -0.089783624 0.007956711 0.17346764 -0.22833681 -0.100491375 0.21439289 -0.030059528
-0.0031046474 -0.059349854 0.098200314 0.03659705 0.04494074 -0.06556973 0.008106249 0.07153236
00000000: 286c bcbd 809f 40be 249e 1f3e 43be 703d
00000010: 48d2 893d 98f5 993a fbde 53be 4557 b13d
00000020: d573 8cbe 65fe 253e dc09 8d3d d125 91be
00000030: 03aa cbbc 4de7 2a3e d70a efbc f83a cc3d
00000040: e185 c7bc 35dd 9e3c c2a5 363e fe09 743d
00000050: 85a6 ba3c 02cc b1bc 0ed9 bd3d e20e 11be
00000060: b72f efbc 476b 0bbe ea9f b73c 3d51 803d
00000070: 6a59 15be 3433 f23d 9904 973e 0a07 6bbc
00000080: e2de 1b3e c393 53bd 376b 2e3e 56df 173d
00000090: f7ea 5bbe dab1 01bd 206b e6bd a155 24bd
000000a0: 1112 0abe 669c 67bc 502b 96bd 98e1 d7bd
000000b0: 5cb6 1b3c 4b17 373d d97f 04bd b902 d9bb
000000c0: da8a f4bc c346 71bc c97a ba3d 16d7 29be
000000d0: 2a71 f53c 9158 903d d152 503e 5785 023e
000000e0: 2d5a 87bd 2d3a 903d b758 c7bc bbf7 ddbd
000000f0: 7a28 beb8 3f1b 39bd c679 8bbd 4bd8 2f3e
00000100: c215 47bd a20d c2bd dac7 163e 6add af3d
00000110: d3d8 063d bc58 23bd 56d8 4abe fd0d dbbd
00000120: 4ec1 773d 5c5f 88be 503c 9abd 6a4a 5ebd
00000130: 1325 583e a6af c5bd 56fa 183d af64 4f3d
00000140: 74d4 41bb 3157 8d3c 0560 6b3d 4c18 75be
00000150: 9b89 e83c 194e d2bc 03d4 77bd 46ac 0bbe
00000160: e267 773c 8008 c3bd 8975 b13d c363 bdbd
00000170: b66f ea3d e39d 22bd 74a5 a63d c9c7 163e
00000180: a714 27be 3168 bebd f271 4c3d d084 2a3d
00000190: 33d7 8c3e a5e1 3d3d 740f ae3d b2e8 a03b
000001a0: 4531 263e 7fb5 f1bd 6534 f83c 6662 f73d
000001b0: e9ab e3bc 1a67 95bd 21eb a5bd a63a 993c
000001c0: 5986 15be cf20 dd3d 5471 dcbd 8dff 6f3e
000001d0: 46f0 4b3e 1dd7 f1bd 138e 74ba 7b51 543d
000001e0: 9158 0ebe e841 3e3e 37ca fcbb f18e 3ebc
000001f0: 9fa7 3bbd 7c1b 133e f94a 85bc 3a1c 91bd
00000200: 66aa 54bd 61fa b8bc 8e6f bbbc 4aaf ab3d
00000210: 1cc9 7e3d 8842 c83c c938 443e fa2a 8e3c
00000220: b63c 28be 897a adbd 91de 8f3d 28f0 60be
00000230: 154d 08bd b5f6 d33d 2dea d8bd c4f3 b9bd
00000240: c43b d53d 9634 0fbe ef8a 1abd 5669 4a3d
00000250: c7d9 42bd 4e77 8738 0bf7 dd3d 6e48 b63d
00000260: 82af d5bd 1380 0f3e d228 92bd a46b 983d
00000270: 6e99 8d3d 3ee9 b2bd 1791 8c3d a43e e8bd
00000280: acf7 45bd 7206 96bd e726 eebc 42d2 f3bb
00000290: 49c7 7e3c 87b3 fabd 9ee7 ddbc dbfc 16be
000002a0: fcd8 22bd f218 7d3d 6e76 dabd 95e1 013d
000002b0: 580a a1bd 4bb3 eabc b2e1 80bd a4c4 35be
000002c0: a5ad 36be 6cea 0f3e eb88 6b3c b56a 773d
000002d0: 72cf e4bd ce06 d63d b779 d33c 8f53 a93d
000002e0: 7341 563d 8561 d83d 801c 353d 1093 28be
000002f0: d7e0 a3bd 44b3 1ebe bd15 cdbd bd89 d23c
00000300: bfb0 313d 62cd aa3d 8860 323d 1172 99bd
00000310: 8dd1 19bd 0b13 ebbd 9bec 733d c25b 343e
00000320: e463 4cbe 7fc7 1abe e2c7 42be aedb 9ebd
00000330: d1bd 0a3d eff6 bb3d a619 df3d 674f 003e
00000340: 896a 30bd 6cfb afbd 46fd 643c 4859 923b
00000350: 288a 6abc 3b87 a5bd b5fd 8f3d 9cc2 013e
00000360: 771c 043e 6c06 2ebc 9067 c73d 7aa2 0f3d
00000370: e104 a9bd 5415 d7bd 220e e7bd 5fac 583e
00000380: 18d7 df3d c206 723d c366 b8bc 3d76 0bbe
00000390: 4f78 123d a973 6d3e 97f1 b83c 4cd4 1d3e
000003a0: 26f1 88bd 5cbc c0bd cfb5 adbc bf7e 83be
000003b0: 05a9 b33c 905b 983d e307 373d d1ce 003d
000003c0: aa1c e8bc 7ae0 b7bd dd5c 023c 80a1 313e
000003d0: 20d1 69be 6cce cdbd cf89 5b3e 663f f6bc
000003e0: 5777 4bbb d518 73bd 3f1d c93d cae6 153d
000003f0: c813 383d 6c49 86bd 13d0 043c 8f7f 923d

encoder.l1.2.bias f4 [64]
0.07947104 0.014791878 0.07196032 0.0030195196 0.10482065 -0.028228415 -0.04349389 0.036741488
-0.064844094 0.064297475 0.00016393758 -0.107038334 -0.10656379 0.023697594 0.10723632 0.10291926
-0.06969524 -0.029803671 -0.029503725 -0.026375208 -0.0059686587 0.034658667 0.029922469 -0.057891253
-0.020448351 -0.07917055 -0.040621657 0.10451246 -0.0734446 0.03766708 -0.088071354 -0.06636146
-0.074317686 0.016629409 -0.151671 -0.049982913 -0.09142282 0.030004632 -0.05711371 0.08015786
0.08552726 0.06398297 -0.10072807 -0.05208572 -0.08145141 -0.03735688 0.11955869 0.11294985
-0.13785735 -0.08305328 0.06283903 0.019748328 -0.12372948 0.017819671 0.09734631 -0.11114772
0.056796644 0.011202757 0.0714333 -0.042584445 -0.0051913685 -0.029267784 0.087035194 0.08982821
00000000: b6c1 a23d a259 723c ef5f 933d 22e3 453b
00000010: 35ac d63d 473f e7bc a626 32bd 3e7e 163d
00000020: fbcc 84bd 65ae 833d a9e6 2b39 ea36 dbbd
00000030: 1e3e dabd 7521 c23c b79e db3d 55c7 d23d
00000040: 61bc 8ebd d426 f4bc ccb1 f1bc d210 d8bc
00000050: bd94 c3bb 3ff6 0d3d f71f f53c 611f 6dbd
00000060: 4d83 a7bc 2b24 a2bd e562 26bd a10a d63d
00000070: 1f6a 96bd cc48 1a3d c15e b4bd 84e8 87bd
00000080: df33 98bd 663a 883c a54f 1bbe e2ba 4cbd
00000090: e33b bbbd 46cc f53c 11f0 69bd ce29 a43d
000000a0: eb28 af3d 8109 833d 854a cebd d657 55bd
000000b0: ffcf a6bd 8703 19bd 30db f43d 4052 e73d
000000c0: 7a2a 0dbe d717 aabd c0b1 803d 3fc7 a13c
000000d0: e265 fdbd 8ffa 913c 815d c73d 6aa1 e3bd
000000e0: 99a3 683d c58b 373c 9f4b 923d 076d 2ebd
000000f0: 5b1c aabb fec2 efbc 823f b23d daf7 b73d

decoder.l1.0.weight f4 [64, 64]
-0.036246948 0.13065547 -0.12544204 0.09723759 -0.005525113 -0.05751202 -0.10469292 -0.11996917
0.08780292 -0.18496355 0.005261894 -0.13922495 -0.11545346 -0.334981 -0.05379604 0.017222356
-0.01278848 -0.07633975 0.10599491 0.11425103 0.10078044 0.12660728 -0.1417524 -0.06948458
0.0003955355 -0.07626198 0.10864062 -0.15945177 0.114340544 0.24710894 -0.119649194 -0.09629103
-0.03120488 -0.061810385 0.1532869 -0.019394066 -0.030403065 -0.12650384 0.023014748 0.20843303
-0.19823334 -0.041880857 -0.01013737 -0.14585419 -0.14880922 -0.028907413 0.110414326 0.1386915
0.12610042 -0.023656072 0.05693909 0.055170976 -0.122236796 -0.014356178 -0.021450076 0.15749347
-0.017474797 0.100994535 0.09873769 -0.21141167 0.007580558 0.13257599 0.05358745 0.053155262
0.06274718 0.033051025 0.057386387 0.007431463 0.027045408 0.08933055 0.012993664 0.0954235
0.03068836 0.16389427 0.025039447 0.14475854 0.0679885 0.08322871 -0.061496574 0.026803523
-0.08499297 0.099970855 -0.14115609 0.06492543 -0.03636019 0.14053191 -0.004742084 0.031332195
-0.06812896 -0.05654729 -0.14408907 -0.05005675 0.10050286 -0.071655124 0.0027547386 0.0138452975
-0.04599409 0.15260157 -0.07356164 0.0515515 0.0561881 -0.039416347 0.12840371 -0.045297887
0.02767161 -0.042685136 0.0772606 -0.02081667 0.043787632 0.07149957 -0.0030269234 0.00489643
0.056605633 0.054156482 -0.016148854 -0.12840311 -0.03570432 0.061530832 -0.034009304 -0.10527197
0.11031573 0.061984494 -0.026702177 -0.08242117 0.106071584 -0.0321445 0.13167658 0.04589364
0.11890686 0.101208575 -0.13249485 -0.17488897 0.08188036 0.078857966 -0.09228359 -0.07717699
-0.03865957 -0.10508119 0.11207553 -0.14589047 0.10907175 0.15066068 0.10345079 -0.17526637
-0.02249493 0.028520212 0.117737256 0.07826275 -0.06469664 0.0031548631 -0.04835644 -0.030945862
-0.06563592 0.09093833 0.078484096 -0.031515174 0.1304771 -0.09443222 0.06836934 -0.12963116
0.08895551 -0.072039545 0.10914711 0.015719188 -0.39394823 -0.14427316 0.029250955 0.19036344
-0.023713144 0.13124114 0.054187834 -0.15228096 -0.1318892 0.07319265 -0.069051795 0.08843585
-0.2189161 0.04645291 0.06821377 -0.060819156 -0.07973092 0.25582266 -0.14449169 -0.07753805
-0.09776107 0.028569378 -0.13342582 0.14575577 0.09492764 0.10338087 -0.17349768 0.04288422
0.045476966 -0.064232565 -0.08217459 0.101227455 0.056239806 0.07357807 -0.07395748 -0.047063705
-0.037455406 0.14072311 0.0998247 0.1525274 -0.010409414 -0.08759496 0.015936922 -0.10657978
0.07330104 -0.09820481 -0.05236154 0.09013637 0.07236872 -0.0540799 0.10843895 -0.06777423
0.0025862986 -0.08757328 -0.0034362513 0.026403312 0.0404282 -0.0026121926 -0.053670727 -0.11383539
0.060690187 -0.08986632 0.0927233 0.076392956 0.046761688 0.0071205166 -0.018099766 -0.105167545
0.06803324 -0.11045579 0.06242611 0.12920223 -0.003370484 0.03330694 0.08216446 -0.086110294
0.14848909 -0.10083881 -0.06725004 -0.13297218 -0.024726192 0.13970375 -0.0935405 -0.0015559389
-0.050745208 0.113674104 -0.041959763 0.084654294 -0.035498135 -0.09928744 -0.02309418 0.0027519474
00000000: ae77 14bd 8cca 053e e173 00be 8024 c73d
00000010: 020c b5bb b991 6bbd 3e69 d6bd 65b2 f5bd
00000020: 04d2 b33d 1667 3dbe f76b ac3b fc90 0ebe
00000030: dd72 ecbd a182 abbe 3d59 5cbd e615 8d3c
00000040: c686 51bc 0458 9cbd dc13 d93d 72fc e93d
00000050: fa65 ce3d 57a5 013e 8b27 11be ee4d 8ebd
00000060: e05f cf39 3e2f 9cbd f97e de3d 5347 23be
00000070: 602b ea3d 200a 7d3e a30a f5bd 3b34 c5bd
00000080: 60a1 ffbc e32c 7dbd 3ef7 1c3e 4ee0 9ebc
00000090: d90f f9bc 398a 01be 6d89 bc3c 786f 553e
000000a0: aefd 4abe 438b 2bbd 3617 26bc cd5a 15be
000000b0: 7261 18be 3dcf ecbc e820 e23d 2505 0e3e
000000c0: 7820 013e 61ca c1bc f738 693d f6fa 613d
000000d0: 4957 fabd 2d36 6bbc 12b8 afbc f845 213e
000000e0: 4e27 8fbc 39d6 ce3d fc36 ca3d 4d7c 58be
000000f0: 5466 f83b 00c2 073e 847e 5b3d 55b9 593d
00000100: 9881 803d 8360 073d fd0d 6b3d a183 f33b
00000110: 558e dd3c eff2 b63d 60e3 543c 656d c33d
00000120: 2866 fb3c e6d3 273e 871f cd3c 953b 143e
00000130: 8e3d 8b3d d073 aa3d d5e3 7bbd 1093 db3c
00000140: cb10 aebd 85bd cc3d 398b 10be a0f7 843d
00000150: 6cee 14bd 99e7 0f3e 7c63 9bbb 3056 003d
00000160: 3287 8bbd 229e 67bd 168c 13be 4f08 4dbd
00000170: 72d4 cd3d ecbf 92bd d888 343b 63d7 623c
00000180: 4d64 3cbd 9643 1c3e 7ca7 96bd aa27 533d
00000190: 7e25 663d 0973 21bd 437c 033e 478a 39bd
000001a0: 92af e23c 9cd6 2ebd ce3a 9e3d b987 aabc
000001b0: a95a 333d 5e6e 923d 595f 46bb 3b72 a03b
000001c0: 4fdb 673d 30d3 5d3d 9a4a 84bc 1b7c 03be
000001d0: b13e 12bd c107 7c3d 574d 0bbd d598 d7bd
000001e0: 37ed e13d 74e3 7d3d 86be dabc 6ecc a8bd
000001f0: 0f3c d93d f4a9 03bd 3ad6 063e f8fa 3b3d
00000200: 7185 f33d 7146 cf3d bbac 07be 1816 33be
00000210: e4b0 a73d 4980 a13d 2eff bcbd f80e 9ebd
00000220: 7f59 1ebd cf34 d7bd db87 e53d 5064 15be
00000230: 0261 df3d cb46 1a3e 02de d33d 0779 33be
00000240: 4a47 b8bc 38a3 e93c 3b20 f13d 3848 a03d
00000250: ac7f 84bd d2c1 4e3b 6711 46bd 2d82 fdbc
00000260: 206c 86bd e03d ba3d 45bc a03d 0e16 01bd
00000270: ca9b 053e ae65 c1bd 3905 8c3d 08be 04be
00000280: 4e2e b63d 7889 93bd 8588 df3d 87c5 803c
00000290: 95b3 c9be 58bc 13be b39f ef3c a2ee 423e
000002a0: 1142 c2bc 1464 063e 10f4 5d3d 8aef 1bbe
000002b0: f60d 07be 07e6 953d 076b 8dbd db1d b53d
000002c0: 8b2b 60be 6845 3e3d a9b3 8b3d 821d 79bd
000002d0: f749 a3bd 30fb 823e a1f5 13be 45cc 9ebd
000002e0: f536 c8bd 540a ea3c c7a0 08be 0041 153e
000002f0: 6c69 c23d 59b9 d33d 60a9 31be 5da7 2f3d
00000300: 0e46 3a3d 5d8c 83bd 274b a8bd 5750 cf3d
00000310: b65b 663d 19b0 963d 0577 97bd dfc5 40bd
00000320: d76a 19bd b819 103e e470 cc3d 2530 1c3e
00000330: 3f8c 2abc fd64 b3bd 268e 823c 8046 dabd
00000340: db1e 963d 9a1f c9bd 0e79 56bd 6b99 b83d
00000350: 0d36 943d e382 5dbd 3d15 de3d 37cd 8abd
00000360: e47e 293b 9f59 b3bd bb32 61bb c24b d83c
00000370: 0a98 253d 5231 2bbb d6d5 5bbd 8722 e9bd
00000380: 4696 783d d50b b8bd b7e5 bd3d e973 9c3d
00000390: 2f89 3f3d 3953 e93b f645 94bc 1562 d7bd
000003a0: 0355 8b3d a536 e2bd 85b2 7f3d 974d 043e
000003b0: 57e3 5cbb dc6c 083d d745 a83d 985a b0bd
000003c0: 860d 183e 9484 cebd 64ba 89bd dc29 08be
000003d0: 958e cabc 800e 0f3e 2992 bfbd a5f0 cbba
000003e0: 35da 4fbd f8cd e83d 00de 2bbd 3b5f ad3d
000003f0: 7e66 11bd 3757 cbbd 0130 bdbc 045a 343b

decoder.l1.0.bias f4 [64]
0.08338376 -0.14029932 0.13197485 -0.06478656 0.091672085 -0.025101488 -0.08192516 -0.087561466
0.028824417 0.055380348 -0.069998436 0.0077716624 0.090930074 0.042881314 -0.09945993 0.12465375
0.11575215 0.07125249 0.031971492 -0.04074456 -0.09662294 0.06787 -0.008188731 0.09025072
0.07967924 -0.15468378 0.0982 -0.036423415 -0.06101248 -0.049068257 -0.004694405 0.090422586
-0.06490099 0.040502694 -0.1278576 0.11866352 -0.052866016 -0.04703831 0.058013376 0.10751834
-0.05296436 -0.020553874 0.085983194 0.01793058 -0.049836513 -0.09382171 -0.012504972 0.0692585
0.13189296 -0.10095945 -0.13682273 -0.042250343 -0.1131191 0.13903905 -0.0686643 0.07422704
0.047835477 -0.16370204 -0.0077432664 0.119084306 0.09005072 0.102635495 -0.04775648 0.06406774
00000000: 1bc5 aa3d a0aa 0fbe 6a24 073e d1ae 84bd
00000010: 93be bb3d a3a1 cdbc 61c8 a7bd 6d53 b3bd
00000020: 2f21 ec3c 81d6 623d 575b 8fbd 6ea9 fe3b
00000030: 8c39 ba3d 51a4 2f3d a6b1 cbbd 774a ff3d
00000040: 770f ed3d d3ec 913d 8af4 023d c5e3 26bd
00000050: 3fe2 c5bd 6dff 8a3d 072a 06bc 5fd5 b83d
00000060: df2e a33d 6d65 1ebe 151d c93d b830 15bd
00000070: 39e8 79bd ccfb 48bd 86d3 99bb 7a2f b93d
00000080: cfea 84bd 27e6 253d 1aed 02be dc05 f33d
00000090: 098a 58bd 3eab 40bd 6f9f 6d3d 9332 dc3d
000000a0: 28f1 58bd 9960 a8bc f517 b03d 27e3 923c
000000b0: 5f21 4cbd 9925 c0bd a7e1 4cbc 67d7 8d3d
000000c0: f30e 073e d4c3 cebd 421b 0cbe b20e 2dbd
000000d0: fdaa e7bd 4160 0e3e de9f 8cbd 5904 983d
000000e0: 22ef 433d 82a1 27be 3abb fdbb 79e2 f33d
000000f0: 836c b83d 8f32 d23d 4c9c 43bd f335 833d

decoder.l1.2.weight f4 [128, 64]
0.02191861 -0.017930236 -0.09858907 0.04768237 0.46966007 -0.36474904 0.11243263 0.025441542
-0.08792742 0.09256491 -0.11621401 -0.092178866 -0.0005027208 -0.2942244 -0.11365807 -0.076252446
-0.008464734 0.104216956 -0.10674875 0.10712558 0.03662212 0.08803643 0.2598 -0.12559435
0.056889404 0.041889817 0.0048833005 -0.08728884 -0.0065258895 -0.07443767 0.0200704 -0.0816796
0.0063574826 -0.23505723 -0.06986314 0.22418807 0.15026066 -0.060718805 -0.11005642 0.25604555
-0.032350343 -0.07634446 0.089788705 0.0090678185 -0.018212752 0.10415797 0.1440273 -0.0017360017
0.008372104 0.15164296 -0.10515718 0.08057105 -0.06065866 0.17864624 -0.09962903 0.1462109
0.026630444 0.13599673 0.12755407 -0.4191919 0.12714954 -0.16312724 0.13376464 0.03460608
0.25001213 -0.056786243 0.16410628 0.04082559 0.022434859 0.020065155 -0.003161392 0.046164606
-0.075709656 0.13442804 0.037100293 0.12570572 -0.4090107 -0.09992025 -0.0070995963 0.23979512
0.0988907 0.078729466 0.14453216 -0.44575042 -0.034545228 0.07023169 0.061971895 -0.03930002
0.09762374 -0.07034292 0.21603431 -0.12377337 0.31638235 0.00813606 -0.046996832 0.011863702
-0.034506124 -0.07815044 0.06116852 0.06531303 -0.014492621 0.0074284384 -0.38934544 -0.032456048
0.18491502 0.010226225 -0.016025346 0.25030053 0.043729965 0.024713442 -0.10908711 -0.18989895
0.18511409 0.3183929 0.040673938 -0.026447311 0.08209521 0.11223728 -0.009075982 0.015202357
-0.000800415 -0.051174242 0.113829985 0.2357559 -0.14210533 0.1854962 0.0792622 -0.038632534
-0.06254119 0.03195906 0.02209498 -0.032684516 0.27612603 -0.037100576 -0.09368605 -0.017202547
0.11171955 -0.18479888 0.09618349 0.024397422 0.014666119 -0.08539254 0.051885802 0.04544772
0.24177885 0.06310612 -0.11402414 0.07639437 -0.097104944 0.10848046 0.09707147 -0.046195798
0.23586284 0.032899983 -0.07764131 0.058211997 0.1924392 -0.15490934 0.027499089 -0.036430184
-0.078767955 -0.24488252 -0.02408387 0.11393011 -0.18074135 0.061373502 0.023445578 0.13971569
-0.14759828 0.13348098 0.11307492 -0.0731818 -0.39336464 -0.10411743 0.16252173 0.04346098
0.08293676 0.07655355 -0.00055119436 0.13457955 -0.066149354 -0.07467202 -0.114253916 0.15672484
-0.029547112 0.015171268 0.012857774 0.39066195 -0.1880817 0.13867949 0.1302839 -0.018340109
0.042328976 0.039832804 0.14707771 0.059636038 -0.12928419 -0.29927927 -0.09037693 0.05407996
0.10499104 0.058362193 -0.051569056 0.1422264 -0.0140628535 0.17104024 -0.10408344 -0.24850392
0.018185027 -0.0039286595 0.2811346 0.11912655 -0.05905125 0.22154084 0.0031105443 0.12608287
0.28704643 0.08307657 -0.059289422 -0.08948336 -0.09819533 -0.077943794 -0.002265476 -0.08074906
0.00958941 -0.14381881 -0.041120283 -0.053508524 -0.17452726 0.11046082 0.03269902 0.17940713
0.15353388 -0.016518759 -0.033980235 0.2122219 0.040656585 0.029410323 -0.10782781 -0.5136296
0.009282068 -0.040484592 0.019242948 0.27938345 0.066393584 0.07411059 0.07524881 -0.009931493
0.107152686 0.015539314 -0.018920626 -0.090384394 0.1811365 0.1584378 0.12950742 -0.05692958
00000000: a88e b33c 6ee2 92bc 11e9 c9bd 974e 433d
00000010: 4977 f03e 63c0 babe 1443 e63d c86a d03c
00000020: 4b13 b4bd ac92 bd3d 9c01 eebd 46c8 bcbd
00000030: 06c9 03ba 95a4 96be 90c5 e8bd 3e2a 9cbd
00000040: abaf 0abc b36f d53d 179f dabd a864 db3d
00000050: 1301 163d 724c b43d 8104 853e ce9b 00be
00000060: dd04 693d a894 2b3d 1804 a03b 7ec4 b2bd
00000070: 21d7 d5bb c772 98bd ae6a a43c a247 a7bd
00000080: 6e52 d03b d8b2 70be 6814 8fbd 8f91 653e
00000090: eedd 193e 48b4 78bd 4365 e1bd 6718 833e
000000a0: cb81 04bd 7c5a 9cbd 24e3 b73d 3091 143c
000000b0: e932 95bc c650 d53d e47b 133e 8d8a e3ba
000000c0: 262b 093c 4b48 1b3e a65c d7bd 6f02 a53d
000000d0: 3775 78bd 0aef 363e 4e0a ccbd 4fb8 153e
000000e0: 1728 da3c ba42 0b3e 899d 023e 52a0 d6be
000000f0: 7d33 023e d40a 27be 99f9 083e 1bbf 0d3d
00000100: 9701 803e b198 68bd 7a0b 283e bc38 273d
00000110: 4fc9 b73c ae5f a43c 5b2f 4fbb 1917 3d3d
00000120: aa0d 9bbd 81a7 093e 7af6 173d 00b9 003e
00000130: da69 d1be fda2 ccbd bba3 e8bb da8c 753e
00000140: 3587 ca3d ea3c a13d 3d00 143e 6639 e4be
00000150: 4c7f 0dbd a2d5 8f3d 3ed6 7d3d 0ff9 20bd
00000160: f5ee c73d f30f 90bd 1938 5d3e e57c fdbd
00000170: defc a13e 1c4d 053c c07f 40bd f95f 423c
00000180: 4b56 0dbd 560d a0bd d88b 7a3d d6c2 853d
00000190: 7572 6dbc 426a f33b 4958 c7be a2f0 04bd
000001a0: 5d5a 3d3e e58b 273c 9647 83bc 6427 803e
000001b0: 311e 333d d873 ca3c 1069 dfbd df74 42be
000001c0: 8c8e 3d3e 6504 a33e b799 263d 08a8 d8bc
000001d0: 8921 a83d a9dc e53d 6db3 14bc 4f13 793c
000001e0: f1d2 51ba 159c 51bd b21f e93d ff69 713e
000001f0: 0f84 11be b7f2 3d3e 3854 a23d 263d 1ebd
00000200: 9815 80bd 81e7 023d 8800 b53c 33e0 05bd
00000210: 6460 8d3e c6f6 17bd 79de bfbd 5bec 8cbc
00000220: 38cd e43d eb3b 3dbe d9fb c43d 1add c73c
00000230: 294a 703c 49e2 aebd 3586 543d 6327 3a3d
00000240: e094 773e c83d 813d 7d85 e9bd a774 9c3d
00000250: f5de c6bd 012b de3d 68cd c63d ce37 3dbd
00000260: 0786 713e 22c2 063d 6802 9fbd b46f 6e3d
00000270: c80e 453e 8ea0 1ebe c545 e13c d137 15bd
00000280: 1851 a1bd 7cc2 7abe 894b c5bc 3154 e93d
00000290: 4314 39be c862 7b3d f110 c03c a111 0f3e
000002a0: 0124 17be 3daf 083e d393 e73d 57e0 95bd
000002b0: 1767 c9be 853b d5bd 196c 263e 2404 323d
000002c0: bfda a93d 1cc8 9c3d 077e 10ba 39cf 093e
000002d0: 5079 87bd a5ed 98bd f5fd e9bd 7a7c 203e
000002e0: c90c f2bc e990 783c 6aa9 523c d804 c83e
000002f0: 7d98 40be ff01 0e3e 2569 053e ff3d 96bc
00000300: 2661 2d3d b927 233d 8a9b 163e eb44 743d
00000310: 1363 04be 223b 99be 8a17 b9bd f382 5d3d
00000320: 8b05 d73d 320d 6f3d 133a 53bd cca3 113e
00000330: e267 66bc 2c25 2f3e b329 d5bd d077 7ebe
00000340: c4f8 943c fcbb 80bb e0f0 8f3e 9ff8 f33d
00000350: b9df 71bd 9adb 623e 46da 4b3b de1b 013e
00000360: c0f7 923e 0c24 aa3d 77d9 72bd 0d43 b7bd
00000370: a21a c9bd ffa0 9fbd 6178 14bb c35f a5bd
00000380: e71c 1d3c 3d45 13be be6d 28bd c12b 5bbd
00000390: 46b7 32be 4839 e23d 68ef 053d 81b6 373e
000003a0: fc37 1d3e 5952 87bc dc2e 0bbd b350 593e
000003b0: 8587 263d ebed f03c d4d4 dcbd 3b7d 03bf
000003c0: d113 183c 2cd3 25bd 63a3 9d3c 590b 8f3e
000003d0: 5cf9 873d 4bc7 973d 0c1c 9a3d b3b7 22bc
000003e0: de72 db3d 9b98 7e3c 6eff 9abc 741b b9bd
000003f0: d97b 393e 853d 223e 989d 043e fe2e 69bd

decoder.l1.2.bias f4 [128]
0.08219647 -0.054267466 -0.06596387 0.12012934 -0.09647102 -0.085223906 0.0615476 -0.005438805
-0.010286804 -0.092410505 -0.11578156 -0.023137152 0.013296656 0.01919361 0.15345691 0.068459995
-0.012389175 0.05107415 -0.08198112 0.055719774 0.15357217 0.030985873 -0.10254514 0.03981012
0.10601367 0.08066181 -0.07137246 0.008419532 0.0772208 -0.03159503 0.107304454 -0.051416516
0.055889037 -0.07048864 -0.070048735 -0.033285655 -0.07891217 -0.12944531 0.03585108 0.008284526
0.08774345 -0.034479912 0.12870161 -0.077200696 -0.05859865 -0.04198919 -0.08847021 -0.027550645
0.020531708 0.008999226 0.0943257 0.05931737 0.07379811 -0.04822388 0.023927303 -0.051350497
-0.003737676 -0.026919127 0.037560645 -0.042391144 -0.0049287747 0.10404256 -0.032432787 -0.12419368
0.118912555 -0.024875203 0.11073011 -0.067437634 0.084567554 0.028614003 -0.07730124 -0.02849867
-0.11012366 0.11760169 -0.07836428 -0.067281246 0.03205199 0.12503605 0.03247293 0.12444437
0.009532484 0.06397883 0.117252514 -0.03573827 -0.0045682816 0.04298811 0.03138438 0.15141028
0.10050281 0.1190813 -0.04193488 -0.13249902 -0.12639864 -9.289328e-05 0.0069992905 0.054298595
-0.02245433 -0.013412794 0.12157481 0.0639495 0.0011629121 0.15550613 0.1059158 0.057594724
0.11005214 0.044031803 -0.048443794 -0.07048433 -0.03278199 0.010013489 -0.08569538 -0.11263497
0.05198751 0.14709172 0.044759635 0.094376415 0.13964169 0.042619158 -0.01001426 0.08613571
-0.069277786 -0.12970224 0.026722942 0.084740974 -0.10564203 0.040247764 0.05444974 0.061360177
00000000: 9f56 a83d 9047 5ebd 1118 87bd 5f06 f63d
00000010: 9992 c5bd df89 aebd 5619 7c3d 0138 b2bb
00000020: fc89 28bc b841 bdbd e21e edbd 208a bdbc
00000030: 38da 593c eb3b 9d3c cf23 1d3e c134 8c3d
00000040: f7fb 4abc 2133 513d b8e5 a7bd 6b3a 643d
00000050: 0642 1d3e 16d6 fd3c 3003 d2bd f00f 233d
00000060: b21d d93d 0532 a53d b92b 92bd 14f2 093c
00000070: f025 9e3d ca69 01bd 70c2 db3d 209a 52bd
00000080: e7eb 643d 595c 90bd b675 8fbd 8a56 08bd
00000090: b49c a1bd 508d 04be 95d8 123d d2bb 073c
000000a0: d7b2 b33d cf3a 0dbd 5bca 033e 661b 9ebd
000000b0: 2305 70bd dbfc 2bbd df2f b5bd e4b1 e1bc
000000c0: 1d32 a83c 7d71 133c d52d c13d c5f6 723d
000000d0: 7723 973d 6786 45bd 3103 c43c e654 52bd
000000e0: ccf3 74bb 8085 dcbc 31d9 193d 56a2 2dbd
000000f0: 8f81 a1bb 4414 d53d 3ed8 04bd 4259 febd
00000100: 6d88 f33d 15c7 cbbc 78c6 e23d be1c 8abd
00000110: c131 ad3d ea67 ea3c 1d50 9ebd 0b76 e9bc
00000120: 8388 e1bd 28d9 f03d 747d a0bd c0ca 89bd
00000130: f348 033d 7309 003e 5602 053d b1dc fe3d
00000140: 232e 1c3c 5507 833d 1622 f03d 4b62 12bd
00000150: 86b1 95bb 4d14 303d e88c 003d 4c0b 1b3e
00000160: 6bd4 cd3d e6e0 f33d e9c3 2bbd d3ad 07be
00000170: a56e 01be b3cf c2b8 4e5a e53b 3468 5e3d
00000180: 25f2 b7bc 56c1 5bbc 37fc f83d f5f7 823d
00000190: db6c 983a 003d 1f3e 62ea d83d 72e8 6b3d
000001a0: 0463 e13d b15a 343d 006d 46bd 175a 90bd
000001b0: 6846 06bd 9e0f 243c 0f81 afbd 2aad e6bd
000001c0: dbf0 543d 369f 163e e155 373d 6c48 c13d
000001d0: 3bfe 0e3e 6d91 2e3d da12 24bc eb67 b03d
000001e0: 83e1 8dbd aad0 04be 12ea da3c ad8c ad3d
000001f0: d95a d8bd d7da 243d b106 5f3d cf54 7b3d

exp_avg f4 [64, 128]
-5.87612e-05 -9.3732095e-05 -7.9322985e-05 -8.44918e-05 -1.4947564e-05 -4.2523963e-05 -5.714338e-05 -5.1701536e-05
-0.00015292424 -4.1666215e-05 -4.124786e-05 -6.966715e-05 -5.2746487e-05 -6.403117e-05 -2.1815655e-05 -4.501706e-05
-3.4017703e-05 -3.3887114e-05 3.8195735e-06 -6.2381674e-05 -4.5291432e-05 -4.9209448e-05 -5.1739233e-05 -5.913378e-05
-2.011791e-05 -3.4696463e-05 -2.277483e-05 -4.9606868e-05 -3.158863e-05 -1.6701066e-05 -5.585504e-05 -4.804119e-05
-4.277054e-05 -5.4091783e-05 -3.261383e-05 -3.972538e-05 -1.8415643e-05 -3.5557093e-06 -6.412081e-05 -5.1453746e-05
-2.0330574e-05 -4.539121e-05 -5.3630178e-05 -1.5525982e-05 -5.063897e-06 -4.0641342e-05 -5.100683e-05 -5.383402e-05
-6.3603155e-05 -5.3888245e-05 -7.3349147e-06 -1.891281e-05 -4.957115e-05 -7.4979514e-05 -5.4271608e-05 -3.604982e-05
-5.5286746e-05 -1.5346617e-05 -5.07349e-05 -9.886773e-06 -6.513143e-05 -2.1066715e-05 -3.419207e-05 -1.5822754e-05
-9.450959e-05 -3.2762135e-05 -3.789595e-05 -4.8018384e-05 -4.3450505e-05 -3.3076856e-05 -1.5055166e-05 -5.0067403e-05
-2.8716651e-05 7.919682e-06 -6.3047924e-06 -1.722655e-05 -4.3402197e-06 -2.0197569e-05 -2.326835e-05 2.5200766e-06
-7.61545e-06 -6.832834e-05 -8.231737e-05 -5.287173e-06 -4.9947274e-05 -4.5584922e-05 -2.4989947e-06 -3.631027e-05
-7.14353e-06 -3.888724e-05 -2.2096925e-05 -2.400053e-05 -8.7358974e-05 -1.8272181e-06 -2.6464788e-05 -1.1002796e-05
4.631307e-06 -1.5125385e-05 -1.1829113e-05 -9.193764e-06 -7.114194e-05 -3.2596115e-05 -4.378815e-05 -2.8013405e-05
-9.087707e-06 -4.993067e-05 -6.663566e-05 -2.5072559e-05 7.843243e-06 -2.030074e-05 -4.3205346e-05 -1.7452314e-05
-6.2488536e-05 -7.261521e-05 -2.0525074e-05 7.2895173e-06 -7.0572416e-05 1.0409788e-05 -1.96601e-05 -9.807727e-06
-5.465713e-05 -3.8153503e-05 -2.6246955e-05 -3.773773e-05 -4.1988293e-05 -1.1314919e-05 -7.543298e-06 -2.6271078e-05
3.0075806e-11 -8.592091e-13 3.3728628e-11 3.675632e-11 6e-45 2.4254538e-11 3.9320634e-11 1.8357824e-11
6.1246924e-11 -3.8353e-13 -1.6193729e-13 3.842564e-11 -2.725609e-13 6e-45 2.4670719e-11 -1.7793105e-12
6e-45 -2.3433577e-12 -4.5948493e-13 4.0559736e-11 1.8663005e-11 -4.2714934e-13 -1.4945065e-18 2.4502048e-11
-2.9754782e-13 2.4573097e-11 6e-45 1.8587975e-11 -4.840395e-13 -5.69665e-13 1.7737756e-11 2.5097875e-11
1.8663005e-11 -2.725625e-13 -3.1624077e-13 2.4943558e-11 -1.3785722e-12 -1.2414965e-12 -1.8895734e-12 2.3789071e-11
-2.3698015e-18 -2.2159267e-13 -4.58756e-13 -1.5430348e-13 -9.252549e-13 -2.293314e-13 1.843368e-11 -1.0871933e-12
1.8366387e-11 1.7354281e-11 -3.8353145e-13 2.5097875e-11 -2.725609e-13 2.3719285e-11 -1.3521203e-12 6e-45
1.8366387e-11 6e-45 2.4943558e-11 -1.352405e-12 -1.5430348e-13 -3.1624077e-13 6e-45 -1.5430348e-13
2.31515e-11 -3.0445256e-13 1.8501067e-11 2.7885643e-11 -3.1624077e-13 -3.1624223e-13 6e-45 3.3767097e-11
-9.252549e-13 -3.8363464e-13 6e-45 -3.8353e-13 -5.268792e-13 6e-45 1.7670466e-11 6e-45
6e-45 3.1478337e-11 1.744638e-11 -2.293314e-13 -3.1624077e-13 -1.5569659e-12 -4.941537e-13 -1.4513006e-12
-1.6193729e-13 3.4112265e-11 1.843368e-11 -1.5430348e-13 1.739752e-11 -2.293314e-13 6e-45 -1.5430348e-13
6e-45 6e-45 -1.5430348e-13 -3.8363683e-13 1.8512856e-11 1.8817314e-11 -2.6521211e-13 -1.4945065e-18
-3.8363464e-13 -1.3087861e-12 3.1816497e-11 2.8402749e-11 -1.543049e-13 -6.832139e-13 -1.5430348e-13 6e-45
1.8433777e-11 2.731814e-11 1.8323159e-11 -3.8353e-13 3.553964e-11 -1.3521193e-12 -1.5430348e-13 -1.2414965e-12
-3.8363464e-13 6e-45 -1.1545863e-12 -1.6193928e-13 1.8501067e-11 1.8817314e-11 1.8663005e-11 -1.6193729e-13
00000000: 5c76 76b8 0992 c4b8 345a a6b8 3131 b1b8
00000010: 4cc7 7ab7 c25b 32b8 3dad 6fb8 1ada 58b8
00000020: 4a5a 20b9 c2c2 2eb8 8d01 2db8 441a 92b8
00000030: 1c3c 5db8 7948 86b8 c300 b7b7 b3d0 3cb8
00000040: 3bae 0eb8 0322 0eb8 e329 8036 e8d2 82b8
00000050: 4ef7 3db8 3e66 4eb8 9402 59b8 6a06 78b8
00000060: e2c2 a8b7 0b87 11b8 930c bfb7 f810 50b8
00000070: 087e 04b8 4419 8cb7 e445 6ab8 d67f 49b8
00000080: 8564 33b8 9ce0 62b8 d5ca 08b8 cd9e 26b8
00000090: 4b7b 9ab7 9f9e 6eb6 9978 86b8 0ad0 57b8
000000a0: 938b aab7 7162 3eb8 f7f0 60b8 cb3d 82b7
000000b0: 8bea a9b6 4f76 2ab8 2bf0 55b8 d7cb 61b8
000000c0: af62 85b8 1006 62b8 701e f6b6 f3a6 9eb7
000000d0: 9eea 4fb8 523e 9db8 b2a1 63b8 3334 17b8
000000e0: b1e3 67b8 9cbc 80b7 2fcc 54b8 5edf 25b7
000000f0: 2c97 88b8 6db8 b0b7 7569 0fb8 1bbb 84b7
00000100: 7333 c6b8 136a 09b8 77f2 1eb8 5967 49b8
00000110: a03e 36b8 01bc 0ab8 7295 7cb7 77ff 51b8
00000120: 8ae4 f0b7 c6de 0437 c18d d3b6 bc81 90b7
00000130: 34a2 91b6 f36d a9b7 6730 c3b7 961e 2936
00000140: 3888 ffb6 804b 8fb8 cda1 acb8 7868 b1b6
00000150: 7a7e 51b8 7032 3fb8 67b4 27b6 db4b 18b8
00000160: 75b2 efb6 db1a 23b8 c95c b9b7 bf54 c9b7
00000170: 7e34 b7b8 bc3e f5b5 b300 deb7 a698 38b7
00000180: a066 9b36 09c3 7db7 a775 46b7 ea3e 1ab7
00000190: 0a32 95b8 d0b7 08b8 2ba9 37b8 54fe eab7
000001a0: 6877 18b7 a66c 51b8 bfbe 8bb8 e952 d2b7
000001b0: 7996 0337 824b aab7 6337 35b8 8f66 92b7
000001c0: 470c 83b8 fe48 98b8 432d acb7 7a98 f436
000001d0: 4700 94b8 b3a5 2e37 beeb a4b7 de8b 24b7
000001e0: a53f 65b8 0307 20b8 e82c dcb7 9448 1eb8
000001f0: 961c 30b8 35d5 3db7 701c fdb6 b660 dcb7
00000200: 5946 042e 8ad8 71ab 0f57 142e f0a7 212e
00000210: 0400 0000 5d58 d52d 19ef 2c2e 257a a12d
00000220: f4ae 862e 80e8 d7aa 3f53 36aa 6dff 282e
00000230: 2a70 99aa 0400 0000 8501 d92d 6b6a faab
00000240: 0400 0000 2ee6 24ac 6155 01ab 3462 322e
00000250: 5a29 a42d b576 f0aa dc8c dca1 b585 d72d
00000260: 2981 a7aa b225 d82d 0400 0000 6680 a32d
00000270: b93e 08ab b058 20ab e005 9c2d 64c3 dc2d
00000280: 5a29 a42d 6570 99aa 1907 b2aa e667 db2d
00000290: 4c04 c2ab a0b9 aeab 87f7 04ac 3a40 d12d
000002a0: 49dc 2ea2 bd7d 79aa db20 01ab f3ba 2daa
000002b0: d237 82ab 231a 81aa f524 a22d 4402 99ab
000002c0: 6d8d a12d 5ea6 982d b5e8 d7aa 64c3 dc2d
000002d0: 2a70 99aa 15a3 d02d 454b beab 0400 0000
000002e0: 6d8d a12d 0400 0000 e667 db2d 8655 beab
000002f0: f3ba 2daa 1907 b2aa 0400 0000 f3ba 2daa
00000300: 8ba4 cb2d 3d64 abaa b3bc a22d e348 f52d
00000310: 1907 b2aa 4f07 b2aa 0400 0000 5f82 142e
00000320: d237 82ab 94f7 d7aa 0400 0000 80e8 d7aa
00000330: a64d 14ab 0400 0000 5a6e 9b2d 0400 0000
00000340: 0400 0000 7571 0a2e c175 992d 231a 81aa
00000350: 1907 b2aa 9c1f dbab 8717 0bab 9d40 ccab
00000360: 3f53 36aa ff06 162e f524 a22d f3ba 2daa
00000370: bb07 992d 231a 81aa 0400 0000 f3ba 2daa
00000380: 0400 0000 0400 0000 f3ba 2daa e5f7 d7aa
00000390: 3fd7 a22d d384 a52d 184d 95aa dc8c dca1
000003a0: 94f7 d7aa fd31 b8ab 31ee 0b2e 4ed5 f92d
000003b0: 5cbb 2daa c04e 40ab f3ba 2daa 0400 0000
000003c0: 2d25 a22d fc4a f02d 162c a12d 80e8 d7aa
000003d0: 144e 1c2e 3b4b beab f3ba 2daa a0b9 aeab
000003e0: 94f7 d7aa 0400 0000 5b7e a2ab d253 36aa
000003f0: b3bc a22d d384 a52d 5a29 a42d 3f53 36aa

exp_avg_sq f4 [64, 128]
8.7983176e-07 1.7103762e-06 8.594787e-07 7.9998966e-07 2.0119793e-07 7.273784e-07 7.2654626e-07 4.6799673e-07
4.9778505e-06 1.3645132e-07 2.0871724e-07 6.8843894e-07 2.4308713e-07 6.8423145e-07 1.4693846e-07 1.9360479e-07
2.0534675e-07 4.21128e-07 2.5767903e-07 7.5776154e-07 2.2620054e-07 4.814349e-07 2.2153002e-07 7.568316e-07
3.4048128e-07 3.5541274e-07 2.4568934e-07 3.7177668e-07 3.7715662e-07 1.6946807e-07 3.9390736e-07 2.6645267e-07
1.6561714e-07 2.7747504e-07 1.7332769e-07 1.3664365e-07 6.537568e-08 9.549451e-08 7.7533576e-07 3.8119967e-07
1.2029055e-07 2.5401695e-07 5.938052e-07 1.6399402e-07 2.2026114e-07 2.8527916e-07 2.9265675e-07 1.6339594e-07
3.2432783e-07 4.0945005e-07 1.3011251e-07 2.8415374e-07 6.9407434e-07 1.0634703e-06 1.802318e-07 3.0769985e-07
4.6212452e-07 4.699602e-07 3.737627e-07 1.6029585e-07 2.2684723e-07 1.3301919e-07 2.1019015e-07 2.8492244e-07
8.011181e-07 2.102184e-07 4.285008e-07 4.2303682e-07 1.9656204e-07 9.8994704e-08 4.1944978e-07 1.1957201e-07
2.0159112e-07 1.8296404e-07 5.2824948e-08 1.6543098e-07 1.6801204e-07 1.3849072e-07 1.5247333e-07 1.7032744e-07
1.2055752e-07 6.3005194e-07 6.028395e-07 8.315693e-08 3.9563378e-07 7.900792e-07 2.0331922e-07 4.124014e-07
7.644652e-08 1.09907525e-07 1.9377522e-07 1.296528e-07 6.1425374e-07 1.4491873e-07 1.1293541e-07 9.2917794e-08
1.4845963e-07 1.3599232e-07 2.9590439e-07 2.2159992e-07 6.313451e-07 1.8082734e-07 3.2945582e-07 1.3420815e-07
1.2671198e-07 2.1110372e-07 9.949325e-07 1.1444342e-07 1.5321635e-07 5.450283e-07 2.5031156e-07 7.588709e-08
3.67397e-07 1.103904e-06 1.7770665e-07 2.8948138e-08 5.3091014e-07 1.07558904e-07 8.9853046e-08 9.2187406e-08
5.3486855e-07 8.68383e-08 1.7598775e-07 1.2585325e-07 1.2882256e-07 1.2506274e-07 1.4849634e-07 2.1447558e-07
1.5820298e-10 1.0737379e-10 1.6727449e-10 4.2959414e-11 4.6789527e-11 1.2797445e-10 5.476306e-11 4.1908494e-11
5.7531163e-10 1.4039972e-11 7.479015e-12 4.981769e-11 1.6449333e-11 3.101636e-11 1.30074606e-11 4.7018223e-11
1.8405496e-11 7.5612634e-11 1.897363e-11 1.2081816e-10 9.778815e-12 3.460961e-11 2.2417158e-11 5.7819808e-11
2.362228e-11 4.5196884e-11 7.9218914e-12 5.4828152e-11 2.7946976e-11 1.2139874e-11 4.7951563e-11 5.4011743e-11
2.5052006e-11 2.200292e-11 1.982842e-11 4.0332997e-11 2.9579575e-11 1.2724582e-11 7.5597646e-11 2.5659837e-11
5.1386218e-11 2.101936e-11 2.6297941e-11 1.4751046e-11 1.9783663e-11 1.9595152e-11 1.3993494e-11 2.604812e-11
2.897233e-11 4.1746277e-11 2.3928241e-11 1.6114264e-11 3.0881134e-11 7.727645e-11 4.370298e-11 1.6220478e-11
2.1996066e-11 2.1768767e-11 1.3492544e-11 1.7338108e-11 1.685532e-11 6.7556624e-12 1.2310808e-11 1.5265999e-11
8.40855e-11 8.7185745e-12 1.678154e-11 8.5707066e-11 9.735926e-12 2.7113362e-11 3.2076567e-11 1.4019376e-11
1.966939e-11 1.5347824e-11 7.965046e-12 7.8118735e-12 1.732113e-11 1.2755381e-11 5.7838574e-11 1.0024661e-11
7.283803e-12 4.2486334e-11 8.9173446e-11 2.0532235e-12 2.1305194e-11 4.9043904e-11 2.3936613e-11 2.807085e-11
4.415591e-12 1.0208897e-10 1.4669021e-11 8.8810365e-12 5.6659618e-11 6.5248857e-12 1.0997052e-11 7.641276e-12
5.230065e-12 7.468309e-12 1.5947481e-11 4.363257e-11 3.3001116e-11 1.14106944e-11 1.7566717e-11 2.8977183e-11
2.5244177e-12 3.527687e-11 7.778699e-11 1.0721412e-11 2.3589748e-11 3.9212966e-11 1.008181e-11 6.7027733e-12
4.0164615e-11 7.0147825e-11 2.2546675e-11 1.3572744e-11 5.310172e-11 1.0154931e-11 6.8811606e-12 1.7008606e-11
3.2211886e-11 1.2012691e-12 1.7634227e-11 3.0464267e-11 8.859905e-12 2.930778e-12 1.1399225e-11 1.0139051e-11
00000000: 942d 6c35 1490 e535 edb6 6635 dfbe 5635
00000010: de08 5834 1041 4335 e107 4335 fb40 fb34
00000020: 6907 a736 7483 1234 c21b 6034 2acd 3835
00000030: a481 8234 07ac 3735 23c6 1d34 aee1 4f34
00000040: 497d 5c34 6417 e234 2357 8a34 fa68 4b35
00000050: 88e1 7234 f43b 0135 b5dd 6d34 1229 4b35
00000060: 64cb b634 8ecf be34 49e7 8334 9998 c734
00000070: 037c ca34 07f7 3534 377a d334 fa0c 8f34
00000080: 7ed4 3134 e1f7 9434 f41b 3a34 52b8 1234
00000090: a964 8c33 a912 cd33 ab20 5035 afa7 cc34
000000a0: 3729 0134 d35f 8834 fc65 1f35 5516 3034
000000b0: ec80 6c34 7828 9934 701e 9d34 ef71 2f34
000000c0: 471f ae34 63d2 db34 0eb5 0b34 cb8d 9834
000000d0: 6d50 3a35 90bc 8e35 bd85 4134 f231 a534
000000e0: e919 f834 d74e fc34 8ea9 c834 ca1d 2c34
000000f0: 4b93 7334 09d4 0e34 a1b0 6134 71f7 9834
00000100: 6b0c 5735 65b8 6134 b40c e634 bd1d e334
00000110: 900e 5334 ea96 d433 bd30 e134 b463 0034
00000120: f274 5834 c674 4434 a5e1 6233 52a1 3134
00000130: cc66 3434 0ab4 1434 8db7 2334 40e3 3634
00000140: 9972 0134 d720 2935 d1d2 2135 0194 b233
00000150: 7e67 d434 d415 5435 f64f 5a34 0468 dd34
00000160: eb2a a433 4d06 ec33 8710 5034 b136 0b34
00000170: 32e3 2435 f59a 1b34 e686 f233 198a c733
00000180: 4668 1f34 4905 1234 cadc 9e34 ecf0 6d34
00000190: b479 2935 7129 4234 10e0 b034 db1a 1034
000001a0: 530e 0834 c0ab 6234 9f89 8535 efc3 f533
000001b0: ca83 2434 0f4e 1235 8f62 8634 5ef7 a233
000001c0: a93e c534 da29 9435 a2cf 3e34 a1a9 f832
000001d0: de83 0e35 22fb e633 3cf5 c033 90f8 c533
000001e0: e393 0f35 dc7b ba33 25f7 3c34 4722 0734
000001f0: 7a52 0a34 fc48 0634 5d72 1f34 994a 6634
00000200: 2ef2 2d2f 121e ec2e 95eb 372f 00f0 3c2e
00000210: 53c8 4d2e 9bb5 0c2f b9d9 702e c550 382e
00000220: f523 1e30 6afe 762d 7d92 032d bc19 5b2e
00000230: 9bb0 902d 5169 082e 65d4 642d d0c9 4e2e
00000240: 7ee5 a12d 2146 a62e d1e4 a62d 4ad7 042f
00000250: de07 2c2d f536 182e f42e c52d 514b 7e2e
00000260: a5c8 cf2d 2bc7 462e 075d 0b2d 0323 712e
00000270: ffd2 f52d 2291 552d a9e4 522e d18b 6d2e
00000280: 1a5c dc2d 2c8a c12d a269 ae2d eb62 312e
00000290: a417 022e 6cda 5f2d b13d a62e d1b4 e12d
000002a0: bdff 612e 64e3 b82d b351 e72d 67c0 812d
000002b0: d904 ae2d 5c5c ac2d 182d 762d 271f e52d
000002c0: e3d7 fe2d 219a 372e 9c79 d22d 19be 8d2d
000002d0: 11d1 072e c6ee a92e 2e35 402e 45ad 8e2d
000002e0: bd7a c12d e87a bf2d 045d 6d2d f381 982d
000002f0: ce42 942d 99b1 ed2c f392 582d f947 862d
00000300: eee7 b82e f860 192d ab9c 932d ca78 bc2e
00000310: b646 2b2d dd7d ee2d 0113 0d2e a8a1 762d
00000320: 8703 ad2d 3a00 872d 611f 0c2d 8d6d 092d
00000330: b85b 982d 2165 602d 7260 7e2e 0f5b 302d
00000340: 5523 002d 5cdb 3a2e 3018 c42e 967b 102c
00000350: 0867 bb2d 87b2 572e 768c d22d efe9 f62d
00000360: 1c5c 9b2c fb7e e02e b307 812d a23c 1c2d
00000370: 0f31 792e f292 e52c 5276 412d 3f6d 062d
00000380: 3d04 b82c 4662 032d 8946 8c2d e8e5 3f2e
00000390: f423 112e 33bd 482d bb84 9a2d d1e2 fe2d
000003a0: dea3 312c 3a26 1b2e 2f0e ab2e f29c 3c2d
000003b0: 647f cf2d e075 2c2e 705c 312d 37d5 eb2c
000003c0: 56a5 302e b741 9a2e 9952 c62d 34c6 6e2d
000003d0: 398b 692e bea5 322d fc1b f22c fa9b 952d
000003e0: 5cab 0d2e 4810 a92b c01c 9b2d b7fb 052e
000003f0: 77dd 1b2d 343c 4e2c 8c89 482d 3a5e 322d

exp_avg f4 [64]
-2.504337e-05 9.593592e-12 5.386202e-05 -1.3281779e-13 2.1177606e-05 6e-45 -5.5742435e-06 -1.2226875e-05
9.912507e-06 -2.3978513e-05 2.6386653e-05 3.0796185e-05 -3.6765356e-05 5.9141057e-06 6e-45 -1.7230015e-05
5.9978097e-06 -4.2893225e-07 2.7291731e-05 4.438723e-05 6.964005e-19 -2.0093352e-05 -2.9789953e-05 -8.628212e-06
6e-45 9.215517e-06 -1.4997346e-09 6e-45 7.309271e-06 -3.5317898e-06 -2.0272746e-05 -4.2334043e-05
-2.2039632e-05 6.040423e-11 -2.267959e-05 1.602248e-05 -1.1201907e-05 -5.372856e-06 1.6138873e-08 -2.7964545e-05
-1.9739823e-06 6e-45 -5.70876e-06 6.0660973e-06 6.6997194e-07 -9.012392e-06 2.7490347e-05 -1.5116384e-05
5.037939e-06 5.51774e-06 2.0542878e-16 4.6265694e-05 -3.403521e-05 6e-45 -6.400032e-06 6e-45
-1.5172104e-06 7.670996e-06 -6.9340226e-06 1.700672e-05 -5.7558813e-05 4.608635e-06 1.4131878e-10 8.948256e-06
00000000: 3a14 d2b7 b3c5 282d e7e9 6138 1f8a 15aa
00000010: 90a6 b137 0400 0000 630a bbb6 0722 4db7
00000020: e54d 2637 7725 c9b7 e858 dd37 272b 0138
00000030: 8034 1ab8 c871 c636 0400 0000 2d89 90b7
00000040: cb40 c936 0048 e6b4 8cf0 e437 6d2c 3a38
00000050: 898a 4d21 258e a8b7 70e5 f9b7 e3c1 10b7
00000060: 0400 0000 589c 1a37 381f ceb0 0400 0000
00000070: 2942 f536 b003 6db6 640f aab7 d58f 31b8
00000080: c0e1 b8b7 8fd4 842e 0c40 beb7 0468 8637
00000090: d3ef 3bb7 7b48 b4b6 c2a1 8a32 6795 eab7
000000a0: c278 04b6 0400 0000 e08d bfb6 618b cb36
000000b0: 1fd8 3335 ee33 17b7 129b e637 609c 7db7
000000c0: 910b a936 0725 b936 e0d7 6c25 690d 4238
000000d0: 07c1 0eb8 0400 0000 dbbf d6b6 0400 0000
000000e0: f4a2 cbb5 adb2 0037 cdaa e8b6 a7a9 8e37
000000f0: 4e6b 71b8 e0a3 9a36 b361 1b2f 7820 1637

exp_avg_sq f4 [64]
1.882054e-07 1.7147936e-11 1.0138774e-07 7.156017e-09 1.204635e-07 8.0097414e-13 1.3210229e-07 1.3678643e-07
1.5663281e-07 7.977979e-08 1.498197e-07 1.6722441e-07 1.8911024e-07 1.4172211e-07 2.2335753e-11 1.3298727e-07
2.7371243e-07 1.3095125e-10 1.0254041e-07 1.3774215e-07 3.2933742e-09 1.4647307e-07 2.6648107e-07 2.4549894e-07
1.6860492e-18 1.03670075e-07 4.8206927e-09 2.1664563e-10 1.9523728e-07 1.0386161e-07 1.7521945e-07 1.0999978e-07
1.4753903e-07 7.406805e-10 1.0332051e-07 9.007494e-08 1.0971903e-07 3.3237754e-07 1.3138202e-08 1.2107289e-07
1.845871e-07 4.282915e-12 1.5760848e-07 8.8190774e-08 2.5672613e-09 1.1468604e-07 1.727708e-07 3.6719663e-07
1.3436193e-07 1.3234296e-07 3.953265e-09 3.3887935e-07 1.6583733e-07 2.4873511e-13 1.03763355e-07 2.973413e-12
1.0377545e-07 1.2420273e-07 8.4880945e-08 1.9759557e-07 2.528509e-07 1.3145606e-07 4.454858e-09 1.5364158e-07
00000000: 8215 4a34 b8d5 962d 80ba d933 fee0 f531
00000010: c158 0134 4574 612b 00d8 0d34 91df 1234
00000020: e62e 2834 6753 ab33 20de 2034 4c8e 3334
00000030: 3a0e 4b34 472c 1834 a577 c42d 43cb 0e34
00000040: c0f2 9234 80fb 0f2f 3034 dc33 46e6 1334
00000050: a751 6231 3646 1d34 e110 8f34 1ecd 8334
00000060: 23d1 f821 3aa1 de33 43a3 a531 5334 6e2f
00000070: 6aa2 5134 860a df33 f523 3c34 0539 ec33
00000080: 386b 1e34 c298 4b30 0de1 dd33 396f c133
00000090: ad9e eb33 9f71 b234 6cb6 6132 4300 0234
000000a0: ea32 4634 12b1 962c 173b 2934 6463 bd33
000000b0: bd6b 3031 5149 f633 e082 3934 1f23 c534
000000c0: 2045 1034 281a 0e34 49d5 8731 39ef b534
000000d0: 0511 3234 8206 8c2a 82d4 de33 3f3c 512c
000000e0: 28db de33 965c 0534 cb47 b633 a82a 5434
000000f0: 90bf 8734 5e26 0d34 5811 9931 adf8 2434
