src/projects/scrnaseq_project/lightning_logs/ae_experiment/version_0/checkpoints/epoch=3-step=2788.ckpt (torch, 310195 bytes, 24 tensors)

encoder.l1.0.weight f4 [64, 128]
000000 0e c1 3a 3e 9a da 23 3e e3 ab 15 bd 6c 3f e0 3d
       0.18237707 0.16001359 -0.036540877 0.10949597
000010 75 6d a7 3c 49 36 85 3d 27 00 fe 3d ee f7 9c 3a
       0.020437935 0.06504495 0.12402373 0.0011975744
000020 c6 08 9a bd 6f 22 15 3c 82 c5 42 3c cb 14 49 3d
       -0.07521205 0.009102448 0.01188791 0.049092095
000030 83 d5 b2 3c 92 ed 37 3d fb 1f 37 3d a9 93 09 bd
       0.021830326 0.0449043 0.044708233 -0.033588085
000040 7b 12 25 be e5 4d 5c 3d 12 a0 06 3e 1e 25 fd 3d
       -0.16120331 0.053785224 0.13147 0.12360595
000050 e7 f5 9a 3d bc c9 c9 3d d8 a1 3e bb 0f ff a0 bd
       0.075664334 0.09852931 -0.0029088166 -0.078611486
000060 f3 7c d7 3d a6 b7 03 be 30 6b 01 3e 5a b1 0c 3e
       0.10521879 -0.12863025 0.12638545 0.13739529
000070 f6 14 a2 3d 62 a3 31 3b eb d4 92 3d 6e 5a 52 bd
       0.07914154 0.002710544 0.07169517 -0.05135577
000080 22 f9 13 3e 5a 75 4e 3b 81 47 d1 bd c4 f5 de bd
       0.14450505 0.0031503052 -0.102187164 -0.1088672
000090 cb 06 0d 3d 6d 4d 98 bd 25 be 12 bd c3 ce a8 bd
       0.034430306 -0.07436643 -0.035825867 -0.08242562
0000a0 91 87 2d bd a9 07 cb 3d c1 a1 86 3c a3 a6 02 3e
       -0.042365614 0.099135704 0.016434552 0.1275888
0000b0 fd 0e b2 bd 08 57 c7 bc 02 49 c6 3b 3c 03 eb bd
       -0.08694265 -0.024333492 0.0060511837 -0.11475226
0000c0 11 94 e2 bd 02 0a 00 be ea 4b e8 3c 91 3e df 3c
       -0.11063398 -0.12503818 0.028356511 0.027251514
0000d0 a5 16 ef 3d d3 38 bb 3c e9 9e be bd 7e d2 c9 3d
       0.11674241 0.022854244 -0.093076535 0.09854601
0000e0 9f 2c ed bc 30 9a cc bd 5f c7 0a 3e 2c cf 93 3d
       -0.028951941 -0.099903464 0.13552617 0.07217249
0000f0 11 86 21 3e 36 a2 8e 3e 29 d6 ca bd f2 b9 24 3d
       0.15773799 0.27858132 -0.09904129 0.040216394
000100 66 5c 93 3d 88 fe 2c bd a2 46 9b 3c e0 c1 94 bd
       0.07195358 -0.042234927 0.018954579 -0.07263541
000110 90 c6 dd bd e6 c3 c1 3c 60 d5 c7 3d 44 d7 22 be
       -0.108288884 0.023652982 0.09757495 -0.1590243
000120 99 f3 43 3e 04 07 91 3d db 06 bc 3c 26 55 42 3d
       0.19135894 0.07081416 0.022952488 0.047444485
000130 f3 80 57 3d 89 69 65 bc 59 e9 61 3d 81 2d 81 bd
       0.05261321 -0.014002212 0.05515418 -0.06307507
000140 16 78 07 be 0b 6e e9 bc b4 b7 c2 3c 42 23 81 3e
       -0.13229403 -0.028494855 0.023769237 0.25222212
000150 55 40 bb 3d 56 26 be bd da 59 b3 3d fa 9b 60 3d
       0.0914313 -0.09284656 0.08757372 0.05483625
000160 63 73 09 be 1f 1d c5 3d e8 3e f2 3d fa 26 da bd
       -0.13422923 0.09624695 0.11828405 -0.106519654
000170 6d 85 ac 3c 5d 53 34 be e9 30 86 3d 29 7f 6e bd
       0.021059716 -0.17609926 0.065522976 -0.058226738
000180 10 22 07 be 11 a9 90 3d e7 df d7 bd 43 da 10 bd
       -0.13196588 0.07063497 -0.10540753 -0.0353644
000190 10 f7 b3 bc 47 29 c0 bc fc ca 8e 3e ab e5 08 be
       -0.021968395 -0.023457183 0.2788924 -0.13368861
0001a0 8c 9b 9e bc ae 76 42 3b 87 97 bc bd 03 42 a1 3c
       -0.01936128 0.002967279 -0.09208589 0.019684797
0001b0 8b 26 97 3d e5 6f 88 3d a5 97 9c bd bd ce 69 bd
       0.07380398 0.06661967 -0.076461114 -0.057081927
0001c0 86 3d 25 3d 20 d8 0b 3d 79 07 06 be e9 be 64 3e
       0.040341876 0.03414166 -0.13088788 0.22338451
0001d0 20 f6 5f bd f6 0b af 3d dd 8c 00 be dc 32 03 3e
       -0.054678082 0.08547203 -0.12553735 0.1281237
0001e0 49 5c 1d bb b3 3c 4c 3e 3b 5b 46 bd 3e 54 07 3e
       -0.0024011305 0.1994503 -0.048426848 0.1321573
0001f0 be d6 73 3d 68 82 d3 3c ba df ff 3d 93 31 8c bd
       0.059530966 0.025819018 0.12493844 -0.06845393
000200 41 14 00 bc 25 f9 01 3c b2 04 b5 bd eb 64 a2 bc
       -0.007817329 0.007932936 -0.08838786 -0.019823512
000210 16 8f 54 3d 3d 63 6a bc 5f a0 2d 3d 96 7f 92 bd
       0.05189427 -0.014305887 0.04238927 -0.07153241
000220 a4 e4 88 3c 94 3b 77 bc 98 b8 75 bd 00 a0 ab 3b
       0.016710587 -0.015089888 -0.059990495 0.0052375793
000230 4c 0a d6 3b 16 1a ba bd 40 05 a9 bd 5c d7 87 3c
       0.006531989 -0.09087007 -0.082529545 0.016582184
000240 96 30 fd bc c9 27 fa bc 64 4d bd bc 07 f8 4c bd
       -0.030906957 -0.03053655 -0.023108192 -0.050041225
000250 c1 d3 14 bd b0 4c 8c 3d 3d 52 98 bd 5c f0 97 bd
       -0.036334757 0.068505645 -0.07437561 -0.07418892
000260 dd 8c ca bd 98 37 a5 3c d4 b0 89 bb 1b 30 57 bd
       -0.09890149 0.02016811 -0.0042019878 -0.05253611
000270 b8 46 4e 3c 04 b1 bf 3c 7d 46 58 3d 46 34 8e bd
       0.012590103 0.023399837 0.052801598 -0.06943564
000280 79 c6 ed bc cd ff 08 3d 14 01 30 bd 8f ab 1f 3d
       -0.029025303 0.033447076 -0.04296978 0.03898197
000290 67 14 8d bd 88 22 65 3c 7c f7 c0 bd d5 8a b8 bc
       -0.06888657 0.013985284 -0.09422204 -0.022527138
0002a0 2a 48 3e 3d 7b 71 65 3c b3 e6 26 bd 38 63 c4 bd
       0.04645554 0.014004107 -0.040747356 -0.09589237
0002b0 ff d9 6f bd e2 7f 8c bc 37 19 c0 bd fa b0 89 bd
       -0.058557507 -0.017150823 -0.09379809 -0.06723209
0002c0 40 a5 b6 bd fb b9 89 3c 8a 18 89 bd 1e 7a b9 3c
       -0.08918238 0.016812315 -0.066941336 0.022641238
0002d0 5b c0 75 3d 03 ae 1f bd 1e e0 d8 bc b8 78 6c 3d
       0.059997898 -0.03898431 -0.026474055 0.057732314
0002e0 87 5c 15 bd b1 40 bb bc cb 3b 26 3d df 7a 73 3d
       -0.036465194 -0.022857996 0.040584367 0.05944335
0002f0 57 cc 36 bd 4a d9 15 3d 9c 79 96 bd d4 48 99 bd
       -0.044628467 0.036584176 -0.07347414 -0.07484594
000300 55 b9 bc bd 47 07 b5 bd d9 f9 3a bd 8b 8d c0 bd
       -0.09215037 -0.08839279 -0.04564843 -0.09401997
000310 e1 49 13 bd 2b 5d da bc a3 41 a7 bb f3 0c 95 3d
       -0.03595913 -0.026655754 -0.00510426 0.072778605
000320 b2 3c 90 3c 57 e2 a7 bd fa 94 8d bd 2f c3 a1 bc
       0.017607067 -0.08197468 -0.06913181 -0.019746391
000330 e3 1c 81 bd b4 83 b0 bd 75 39 94 3c 78 87 8e 3c
       -0.06304338 -0.086188704 0.018093804 0.01739858
000340 79 1a 1a 3d 91 ee 99 bd 0f 97 9c 3d 4f 54 2e 3c
       0.037622903 -0.07516206 0.07646 0.010640218
000350 98 82 16 3d 40 21 a2 bd 93 8e 42 3d df 32 41 bd
       0.036745638 -0.07916498 0.04749925 -0.047167655
000360 8d 5f 8b bd 2c a6 4f bd 43 93 90 3d b9 6c 89 bd
       -0.06805334 -0.050695583 0.07059338 -0.0671019
000370 44 73 53 3d 56 f3 e8 3b 6c 1e e8 3b 03 0b 13 bc
       0.051623598 0.007109086 0.0070837047 -0.008974793
000380 c5 ec 24 3d 19 a9 10 3d 03 1e 80 bd 1a 00 d3 bc
       0.040264864 0.035317514 -0.06255724 -0.025756884
000390 e3 e0 5e 3c 2a 4f 93 bd 49 62 5c 3c d3 59 05 bc
       0.013603422 -0.07192834 0.013451167 -0.008139092
0003a0 8d 97 c5 bd d8 f7 4d 3d 80 04 56 3d b1 90 7b bd
       -0.09648047 0.05028519 0.052250385 -0.061417285
0003b0 e3 c5 8b bd 29 db 96 3a 0c ed 93 3d e7 15 a1 3d
       -0.06824853 0.0011509407 0.072229475 0.07865506
0003c0 7d 44 6d 3c 0f 55 8c 3c 99 c3 3a bd 20 87 4d bd
       0.014481661 0.017130403 -0.045596693 -0.050177693
0003d0 85 ce c2 bb 2a 3b b2 bd 81 90 a8 bd 5c a6 88 bd
       -0.005945029 -0.08702691 -0.08230687 -0.066723555
0003e0 a9 07 88 3d 49 76 8d bd a4 9e 67 3d 7e 30 cb 3c
       0.06642086 -0.06907327 0.056547776 0.024803396
0003f0 ed aa 68 3d f7 f1 85 bd 33 62 09 3d ea 3d 5a bd
       0.056803633 -0.06540292 0.033540916 -0.053281702

encoder.l1.0.bias f4 [64]
000000 0b 87 f1 bc 1e 5c 82 3d 3f 4c fe bb 54 ec 30 3d
       -0.029483339 0.06365226 -0.007760554 0.04319413
000010 12 f5 35 3c 13 22 b1 3d 9b 00 8d 3d ff 85 7d bd
       0.011105793 0.08649077 0.06884881 -0.061895367
000020 b3 53 03 bd 2a 78 95 3d f3 8f 19 bd 8d f6 8e 3d
       -0.032062244 0.0729831 -0.037490796 0.069806196
000030 a0 01 99 3d 5a ad 68 3d 91 ba 1c 3d 8f b0 1a bd
       0.07471013 0.056805946 0.03826386 -0.037766036
000040 e1 c0 99 3c 95 16 bd 3c 1f cb 1b 3c 00 5c 83 3d
       0.01876873 0.023082057 0.009508877 0.06414032
000050 45 a4 40 3d 80 f8 fa 3c b3 6c a5 3d 63 8f b8 3c
       0.04703166 0.030636072 0.08077373 0.02252931
000060 62 c4 86 3c 27 b3 95 bd eb 3f 08 3d be b3 35 bd
       0.016451064 -0.07309561 0.033264082 -0.04436087
000070 ff 5e 3c bc 5b dc 12 bd 15 47 f4 bc d8 f3 54 3d
       -0.011497258 -0.03585468 -0.02981905 0.05199036
000080 fd 03 7d 3d 7d ca 6c 3c 4a 58 55 bd 72 c7 b3 b8
       0.06177138 0.014452574 -0.052086152 -8.572535e-05
000090 d7 cd 18 3d f5 44 10 3e 13 11 8c bd 16 3d 9a bd
       0.03730568 0.14088805 -0.06839194 -0.075311825
0000a0 12 d6 47 3d b5 be 89 3d d2 15 dc 3d ce 96 af 3d
       0.048788138 0.067258276 0.107463494 0.085736856
0000b0 cd a0 01 3d 3b a2 97 bc 3c 0a 59 3d a7 05 11 bd
       0.031647492 -0.018509975 0.052988276 -0.03540578
0000c0 57 dd ef bb 09 2f 4c 3d 0b ea 22 3e cb f5 50 b9
       -0.007320087 0.049849544 0.15909593 -0.00019927991
0000d0 c9 e6 77 3c cd 55 be 3d ad 31 7a 3d 27 c2 34 bd
       0.015130707 0.09293709 0.06108253 -0.04413047
0000e0 65 f4 42 3d c6 38 2f bd f0 27 7c 3d fc 9e 72 ba
       0.047596354 -0.042778753 0.061561525 -0.0009255258
0000f0 40 f2 84 bd 5c 3f 9d bc bc d4 47 bc c1 d0 a1 3d
       -0.06491518 -0.019195251 -0.012196716 0.07901145

encoder.l1.2.weight f4 [64, 64]
000000 16 0a 38 be e7 c0 bf bc 60 c1 8f 3d c3 f8 8c 3d
       -0.17972597 -0.023407413 0.07019305 0.06883385
000010 3b a8 21 bc a1 30 84 bd f3 65 ed 3d 5b 67 98 bd
       -0.009866769 -0.06454588 0.11591711 -0.074415885
000020 32 ff e9 ba 28 5d e6 3d a7 28 aa bb 7f 24 6a be
       -0.0017852543 0.11248237 -0.0051928344 -0.22865485
000030 be e2 8f 3e 27 d5 67 3e 05 5e 51 be d9 cd 0b bd
       0.28102678 0.22639905 -0.20446022 -0.03413186
000040 57 e5 0f 3e 36 ab 66 3e 1e 4d 2c bc 2b 4b 2d 3d
       0.1405233 0.2252625 -0.010516433 0.042308014
000050 ef ad 8c 3d 75 4a 18 be 5f 23 03 be c2 13 ce 3b
       0.06869113 -0.14872153 -0.12806462 0.0062889764
000060 c6 fd 36 bd d9 ab b3 bd ea bb 01 3e fb b7 bd 3d
       -0.04467561 -0.08773012 0.1266934 0.09263607
000070 47 b5 4e be a2 6d 8f bd 46 81 84 3c 8b 71 cc bd
       -0.2018634 -0.07003333 0.016174924 -0.09982594
000080 c8 78 8f 3c a0 48 82 3d 10 c1 39 be 85 72 6b bd
       0.017513648 0.06361508 -0.18140054 -0.05748226
000090 23 38 1c 3e 02 67 fe 3c 1b 04 01 3c c6 cf 06 bd
       0.1525579 0.031054977 0.007874514 -0.032912992
0000a0 a5 6e 43 be 43 ec b1 3d 2a da 04 bd 3e a7 b8 bd
       -0.19085176 0.086876415 -0.03243462 -0.09016274
0000b0 7e 58 27 3d e4 d4 1b 3e 3f 37 b2 3d 41 97 dd bd
       0.040855877 0.1521793 0.087019436 -0.10819865
0000c0 f3 2e cd 3c 43 81 2d 3d 5b e2 1c be bc 29 9e bd
       0.025046801 0.0423596 -0.15320723 -0.07722804
0000d0 bc 36 f5 bc aa 92 36 be 1e 9a ba bc d0 06 28 3e
       -0.029933326 -0.17829385 -0.022778567 0.16408849
0000e0 ff 19 e8 bd 08 23 81 bd dc 63 ab 3b df 4c 01 be
       -0.11333083 -0.0630551 0.00523041 -0.1262698
0000f0 33 69 b9 bd fb 22 e5 bd 47 d7 b1 bd 91 b8 23 3d
       -0.09053268 -0.111883126 -0.08683639 0.039970938
000100 56 09 dd 3d 6f 6f 3a 3d 91 eb 38 3e 48 ac b8 bd
       0.10792796 0.045516428 0.18058611 -0.09017235
000110 94 1b 4d bc eb eb 1e 3d 9b 25 56 3e aa 96 fb 3b
       -0.012518782 0.038799208 0.20912783 0.0076778727
000120 bb c0 d7 bd 53 1b 97 3d b8 cf 9b bd a7 0c 88 3d
       -0.10534807 0.073782586 -0.076079786 0.06643038
000130 e3 e5 7a bd 39 94 f2 bd b7 d9 33 3e 6e 2a 12 3d
       -0.061254393 -0.118446775 0.1756352 0.035684995
000140 b4 6f d9 3d 3d 1a bd bc 6d c9 2c 3d b3 f1 65 bc
       0.10617009 -0.0230838 0.042184282 -0.014034676
000150 90 f8 07 3e 79 3e 88 3c 2f 1c f6 bd 2f b0 09 3d
       0.13278413 0.016631352 -0.12017094 0.033615287
000160 39 87 ac bd c7 f2 a6 bd cd 87 e9 3c 8f ec fb 3d
       -0.08424229 -0.08151775 0.028507138 0.12300979
000170 54 f5 26 be 5d b6 b0 3c 07 84 95 3d 9b d6 84 3d
       -0.16304523 0.021571333 0.07300573 0.06486245
000180 bd 84 0c be 4e 6c 21 be d4 44 ce bd 85 4e c7 3d
       -0.1372251 -0.15763971 -0.10071722 0.09731773
000190 26 40 8c 3c 6f a0 1f be 9b 07 2e 3d 85 cb eb 3d
       0.017120432 -0.15588544 0.042487722 0.11513428
0001a0 4d 03 c2 bd a9 38 6e bd 6b 65 6b 3d 8e a9 18 3d
       -0.09473286 -0.058159504 0.057469767 0.037271075
0001b0 f1 38 97 bc 1a a1 0a 3e b8 ef 9f 3d 97 65 91 bd
       -0.018459769 0.13538018 0.078093946 -0.07099455
0001c0 27 af 09 be 1a c7 7d bd ec 82 20 3e 76 98 be bb
       -0.13445722 -0.061957456 0.15674943 -0.0058165146
0001d0 79 5d 7b 3c fe 3c 95 be 9d 6d 29 be 54 54 50 3d
       0.01534211 -0.29148096 -0.1654572 0.05086167
0001e0 05 2c 3d 3e 2e 52 25 3e 62 28 5f 3d 2e 62 ff 3a
       0.18473823 0.1614463 0.05448187 0.0019484216
0001f0 dc 0e de bd ef e3 3d 3d da 94 27 be 12 ca 0d 3e
       -0.10842678 0.046359953 -0.16365376 0.13846615
000200 b5 d6 6f 3e cf ba b1 bd 71 69 67 bd d0 81 06 3d
       0.23421748 -0.08678209 -0.05649704 0.032838643
000210 ce 99 c0 bd cf 77 dd 3b 23 12 23 be 54 91 5f 3c
       -0.09404336 0.006758667 -0.15924887 0.013645489
000220 1f 22 96 bd 52 b8 66 be bd 9e ce bd 84 99 d2 3d
       -0.07330727 -0.2253125 -0.10088871 0.10283187
000230 35 65 68 bc b3 01 fc 3d 59 5b 90 3d 51 ad ca 3d
       -0.014184286 0.123050116 0.07048673 0.09896339
000240 77 bc bf 3d 46 56 8c bd 2a b5 a4 3d ee 67 16 3e
       0.09362119 -0.06852393 0.08042367 0.14688084
000250 28 46 2d 3c a1 83 0a be ba ae b8 bd af 61 08 be
       0.010575809 -0.13526775 -0.090177014 -0.13318513
000260 d7 d0 ac 3d 57 41 7e 3d 6f 1d 46 3d ab 08 69 3b
       0.084382705 0.06207403 0.048367914 0.0035558145
000270 06 a1 1f 3e f8 fd 06 be 9f 91 0a bd 5c 08 c8 bb
       0.1558877 -0.13182819 -0.03383028 -0.006104512
000280 59 82 0e bd e9 65 c9 3c bf cd ff 3b 95 73 58 bd
       -0.034792278 0.024584727 0.0078065093 -0.052844603
000290 8b 16 7f bd cd 36 30 bd f5 09 94 3d 21 eb 8d 3c
       -0.062277358 -0.043021012 0.07228462 0.017324032
0002a0 21 20 81 3d 7b 66 0a bd 3e 52 27 be fa e4 13 bd
       0.06304956 -0.03378914 -0.16339967 -0.03610704
0002b0 ad 09 88 bd ad ea a5 bc 83 78 0f 3d 69 34 f3 3c
       -0.066424705 -0.020253504 0.03502704 0.029688077
0002c0 f1 e6 3a bd 25 cc b0 bd a4 c3 08 3e 81 ff ee 3c
       -0.0456304 -0.086326875 0.13355881 0.029174568
0002d0 8f df 07 be 04 82 a9 3d e8 0a b1 36 42 cf b7 bd
       -0.13268875 0.08276752 5.2762807e-06 -0.08975078
0002e0 97 92 ba 3c 9b 0a a3 bd 77 5e e7 bd 25 b3 3a be
       0.022774978 -0.07961007 -0.112973146 -0.182324
0002f0 71 5c 02 3d 25 8d 6f 3d 7e 2b 0b bd dc 1f 5d 3d
       0.03182644 0.058484215 -0.033977024 0.05398546
000300 ba 70 1c 3e be ef 2e 3d 9d 91 98 bb c5 d8 1d bc
       0.15277377 0.042709105 -0.0046560303 -0.009634201
000310 d0 64 05 be e8 1e 11 be c3 07 cd 3d c4 87 c4 3d
       -0.13026738 -0.14171946 0.10011246 0.09596208
000320 69 87 9a 3d 48 54 3e be 43 9f d4 3d a2 e5 b1 3d
       0.07545359 -0.18586838 0.10381939 0.08686377
000330 24 8f aa bd 22 e9 c2 bc ea bf c4 bd ec 0a e0 3d
       -0.08328083 -0.023792807 -0.09606917 0.10939583
000340 bf 62 c3 3d b3 fe 0a be 7a 14 b9 bd 00 4e ca bd
       0.09540319 -0.13573723 -0.09037109 -0.098781586
000350 bb 8b ed bc 36 58 e4 3d 1a 70 a0 3d 13 41 e1 3d
       -0.028997293 0.111496374 0.07833882 0.1099874
000360 5a df 0a 3d f3 dc 1e bd 45 8a a5 bd 71 00 3b bc
       0.03390441 -0.038784932 -0.080830134 -0.011413679
000370 b0 e4 05 be 0f 09 d2 bc a7 54 5e bd 99 ed e8 bd
       -0.13075519 -0.025639085 -0.05427995 -0.11373443
000380 08 45 57 3d d3 7e 30 be e3 17 d4 bd 34 74 d7 bb
       0.052556068 -0.1723588 -0.103561185 -0.006575132
000390 3b ab e4 bc 86 8b c0 3d 5d 4a 06 3d e4 98 a6 3c
       -0.02791368 0.09401612 0.032785762 0.020336576
0003a0 98 fa 66 bc 97 ec ed 3c 71 5c c6 bd 67 79 a1 3c
       -0.014097832 0.029043479 -0.096856005 0.01971121
0003b0 d8 9a 9e bd 02 e3 30 bd c7 29 23 3d 7c 65 04 3e
       -0.07744378 -0.04318524 0.039834764 0.12929338
0003c0 93 0a c8 bd 4d 36 9b 3d 33 03 44 3d bd 79 94 3d
       -0.09767642 0.075787164 0.047854614 0.07249782
0003d0 03 18 b6 bd ee 7f f6 3d 3f 3d 32 be 3c fa d5 3b
       -0.088912986 0.120361194 -0.17406176 0.0065300744
0003e0 c8 99 a5 3d 5b 80 51 3e a1 de e4 bd 71 51 1e be
       0.08085972 0.2045912 -0.111752756 -0.15460755
0003f0 ef 99 b7 3d 7c 8e 19 3d 3d eb da 3d 86 33 5b 3c
       0.089649074 0.0374894 0.106893994 0.013378983

encoder.l1.2.bias f4 [64]
000000 44 80 02 3e a2 d5 62 3c c7 ec 7f bd 39 7f 91 bd
       0.12744242 0.013844879 -0.062481668 -0.07104344
000010 0b 0a 18 bd 97 39 09 3d 8a db bf 3b c4 4b 5a 3c
       -0.037118953 0.033502188 0.0058550285 0.013323728
000020 26 28 11 bd ce dc f4 bb c1 5d eb bd 51 f5 41 3d
       -0.03543868 -0.007472611 -0.114924915 0.047353093
000030 16 fc 77 bc ac 82 19 3d f0 2c 63 3d 81 8b 87 3d
       -0.015135786 0.037478134 0.055462778 0.06618405
000040 37 e5 4d bd f9 ff df 3d b8 63 bb 3d 3b 6b b7 bc
       -0.050267424 0.10937495 0.09149879 -0.022389999
000050 84 03 94 bd 6c 94 2f 3d 05 4a dc 3d 1a b0 bd 3d
       -0.07227233 0.042866156 0.107563056 0.09262104
000060 c5 6c d2 bd f8 22 b4 bd 2b f9 68 bd 62 94 a8 bd
       -0.102746524 -0.08795732 -0.05687825 -0.08231427
000070 0f 6b ac bd 2e 9f 20 bd 58 44 94 bd 78 35 75 3d
       -0.08418857 -0.039214306 -0.07239598 0.059865445
000080 21 73 47 bc f7 36 92 3d 92 76 65 bd c1 b9 a0 3d
       -0.012173445 0.0713939 -0.05602128 0.0784793
000090 86 18 32 3d 9a 6e 5c bd fd 62 c1 bc e5 f0 c3 bd
       0.04348042 -0.053816415 -0.023606772 -0.09567431
0000a0 c9 29 4f 3c 24 6d c4 3c 3a 2b e9 3d 09 55 b0 ba
       0.01264424 0.023977824 0.11385198 -0.0013453077
0000b0 eb 67 a9 3d e6 28 4a bd 8b 1b a1 bc de cd cc bd
       0.08271774 -0.04935541 -0.019666454 -0.100002035
0000c0 9e 72 29 3d 67 ba 0f bd a0 58 3b 3d d7 d3 94 bd
       0.041369073 -0.035089877 0.045738816 -0.07266968
0000d0 3b 13 9b bc 97 3c de 3d af c0 b0 bd cc c9 88 3d
       -0.018930068 0.108514 -0.086305015 0.06679115
0000e0 f9 5c a6 3c 60 2a 95 bd 14 a7 98 3d 66 0b f6 bc
       0.020308005 -0.07283473 0.074537426 -0.030034732
0000f0 c7 03 24 3b dc 8e af bd 78 95 96 bc 47 4b ea bc
       0.0025026666 -0.0857217 -0.01838182 -0.028600348

decoder.l1.0.weight f4 [64, 64]
000000 eb 55 f1 3d d0 67 b8 3d 68 2b a3 bd f4 66 35 3c
       0.11783966 0.09004176 -0.079672635 0.011071909
000010 7f 24 c4 3c 6d e2 80 be 13 f6 f2 3d 00 2f f2 3d
       0.023943184 -0.2517275 0.11863341 0.11825371
000020 af a0 b6 3d 43 ea 05 3e de bc 86 3c cd ec 6e bd
       0.08917367 0.13077645 0.01644748 -0.0583313
000030 14 f6 f5 3c 60 6f 98 bd 76 8d de bd cc 32 71 bd
       0.030024566 -0.07443118 -0.10866825 -0.058886334
000040 14 71 2c be ad 69 78 3c 0c a6 50 3d a6 b3 4f 3c
       -0.16840011 0.015161914 0.050939605 0.012677109
000050 ee de a7 bd 7e 08 05 be 07 ba 08 be 0f 1b ef 3d
       -0.08196817 -0.12991521 -0.13352214 0.11675083
000060 e1 f6 21 be 62 34 03 be 75 9e 01 3d 9b 0d 22 3e
       -0.15816833 -0.12812951 0.031645257 0.15825503
000070 7c 9c 22 3e 5c 08 2e be bd 90 ed 3d 76 4e 02 3e
       0.15880007 -0.16995376 0.11599872 0.12725243
000080 09 74 c3 bd a4 28 0b bd 7b 94 4b be be 90 49 3e
       -0.09543616 -0.033974305 -0.1988086 0.19684121
000090 38 cd cf bd ff ce 09 be 55 4a d2 3d d9 eb b2 3d
       -0.10146564 -0.13457869 0.10268084 0.087363906
0000a0 ad de 8c bd dc f5 89 bd ad 66 0d 3d 88 ae 12 be
       -0.068784095 -0.06736347 0.034521747 -0.14324391
0000b0 c6 e9 58 3c 11 f3 7f bc 35 10 4e be ab 04 2c bd
       0.01323933 -0.015621916 -0.2012337 -0.04199664
0000c0 5d fd 14 be c8 90 59 3e 02 d1 63 bd d1 32 5e bd
       -0.14549775 0.21246636 -0.055619247 -0.05424768
0000d0 b5 0d 23 3e ff 40 25 bc 78 9c 80 3d df 33 03 be
       0.15923198 -0.010086297 0.06279844 -0.12812756
0000e0 39 84 01 be f3 30 8e 3d bf 04 09 be 16 dd bb 3d
       -0.12648095 0.0694293 -0.13380717 0.09173028
0000f0 e5 92 63 3d 11 19 49 3d fe dc b2 3d b6 d1 37 3e
       0.05556001 0.04909617 0.08733557 0.17951092
000100 64 60 a2 bd 86 75 45 3d 75 48 c6 bd 36 dd c1 3c
       -0.07928541 0.048207782 -0.09681789 0.023665052
000110 5e 70 ec 3c 0f 11 71 3d 87 1d e5 3d 20 2c b4 b9
       0.028862175 0.05885416 0.111872725 -0.0003436515
000120 22 09 d9 3d f4 a6 23 be 8c b2 64 3d fd 47 94 bd
       0.10597445 -0.15981656 0.055834338 -0.07240293
000130 b1 3b 5a 3d 75 06 d2 3d 6f 18 2e 3d 6d 2d 3b be
       0.053279582 0.10255138 0.04250377 -0.18279047
000140 bb 99 92 3d be fe ca 3c 7c 9e 9c bc ff 95 aa bd
       0.07158228 0.024779674 -0.01911854 -0.08329391
000150 78 ea 77 bb 5c 51 38 3d ec ab 6a bd bd 88 f1 3d
       -0.0037828963 0.044999465 -0.057292864 0.11793659
000160 ad 2b 85 3e b7 fe 1f 3e 88 df 8b 3d f4 d4 47 3d
       0.26009884 0.1562451 0.068297446 0.048787072
000170 d9 56 e5 3b c1 ee 39 3e d6 dd f8 3c a9 1f c1 3d
       0.0069988784 0.18157484 0.030379217 0.09429867
000180 7a 71 69 bd 87 aa 80 bd c0 2b e2 3d 0a 38 2b 3e
       -0.056992985 -0.062825255 0.11043501 0.16720596
000190 68 17 25 3e 40 e3 8a 3c c3 25 bb bd 25 56 b2 3d
       0.1612221 0.016954064 -0.09138062 0.08707837
0001a0 a1 cf 26 3c 1d 2b 36 3e e9 85 33 3e 88 cf 88 bd
       0.0101813385 0.17789884 0.17531551 -0.066802084
0001b0 27 16 4a be bc 78 4e bd b1 f3 8f be 81 6d d9 bb
       -0.19735013 -0.05040811 -0.2811561 -0.0066353683
0001c0 cd e6 22 bd 16 61 26 be 57 59 1b be fc 03 a2 3d
       -0.03977089 -0.16247973 -0.15170799 0.07910916
0001d0 94 ff b8 bd 1b 96 cd bc 7a 3c ab bd 8e d1 a1 bd
       -0.09033123 -0.02509599 -0.08361144 -0.079012975
0001e0 aa f2 b3 bd af 77 23 bd 85 bb 1b 3e cb d0 50 3d
       -0.08786519 -0.03990906 0.15208252 0.05098037
0001f0 b8 26 1a bd cf 24 e4 3d 1a 9f 22 3e 59 7a 12 3d
       -0.03763458 0.11139833 0.15881005 0.03576121
000200 89 6d fb bc 55 59 3f 3c c0 46 21 bc fe cb 60 3e
       -0.030691879 0.011679013 -0.009843528 0.21952817
000210 03 3b dc b9 f2 ad 66 be 2e 46 d6 3b 23 94 10 bd
       -0.00042005637 -0.22527292 0.006539128 -0.035297524
000220 78 6e fb bd 0e de 37 3e e6 96 cf bd 57 e8 5c be
       -0.122769296 0.17955801 -0.101362035 -0.21573006
000230 44 17 c3 bd 98 5c e5 bd e0 f9 aa bc a4 2d 2a be
       -0.09525922 -0.111993015 -0.020871103 -0.16618973
000240 3a 62 6a bd 28 3e 44 3e 6a eb dc bd 7f b0 28 be
       -0.057222582 0.19164336 -0.10787089 -0.16473578
000250 94 47 ab bd 4d 0c 1a be d5 4e 3b 3e 10 df 7c bd
       -0.08363262 -0.15043755 0.18291791 -0.061736166
000260 57 16 02 3e 45 c5 3c 3e 5b 93 40 3c 2e 32 41 be
       0.12703834 0.18434627 0.011753882 -0.18866798
000270 eb b1 02 be 0b 02 a2 be 0f e1 fc bb a7 87 87 bd
       -0.12763183 -0.31642184 -0.0077172588 -0.066176705
000280 68 3a 4a 3e b0 ec db bd 56 79 8a bc 6e 29 c1 3c
       0.19748843 -0.10738504 -0.01690356 0.023579326
000290 a1 83 b7 bd 87 58 ea 3d 9a 9b b4 3c eb 1d 31 be
       -0.08960653 0.114426665 0.022046853 -0.17296569
0002a0 ce 9f 41 be d6 c3 90 bd 8c e4 19 be b1 62 ce bd
       -0.18908617 -0.07068603 -0.1502859 -0.10077418
0002b0 e2 aa 4b be b1 f0 05 be c0 8d 77 3d a2 da 0e be
       -0.19889405 -0.13080098 0.060437918 -0.1395059
0002c0 da 7e 7d 3d df ba ea bd 00 36 0e be 88 0a 13 3e
       0.061888553 -0.11461424 -0.13887787 0.14359486
0002d0 c3 68 65 bd dd c6 6d bd 4e 56 88 3d 75 27 f3 3c
       -0.05600811 -0.05805098 0.06657086 0.0296819
0002e0 09 97 97 3d b7 5d 5b bd 1b 41 33 3d 72 6f 1b be
       0.074018545 -0.05355617 0.04376326 -0.15179232
0002f0 e2 4b 61 3c f6 54 c5 3a 06 a0 76 3e fa ac 1e 3e
       0.013751002 0.0015055228 0.24084482 0.15495673
000300 9e 1a 2d bd 95 c9 8f bd 0e 6c 85 3d 67 7c 32 bd
       -0.042261712 -0.070208706 0.065147504 -0.04357567
000310 6c 7c 60 3d 0f cc 35 3e 9c 99 2c 3d 1f e8 e7 3d
       0.054806158 0.17753623 0.04213868 0.113235705
000320 b9 4a a9 bd 31 df 30 bd 18 3a 3b 3d ed 4a e9 bd
       -0.08266205 -0.043181602 0.0457097 -0.11391244
000330 34 be f5 3d d2 2e 9b 3b 84 f8 18 3e 3b d7 8b bd
       0.11999169 0.004735806 0.14938551 -0.06828161
000340 6d 97 e6 3d 34 91 bf bc d8 c4 71 bd 1b aa b3 bd
       0.11259351 -0.023384668 -0.059025615 -0.087726794
000350 64 c6 c7 3b 96 13 0b 3e 5f a4 64 bc ed d5 08 be
       0.006096648 0.1358169 -0.013955205 -0.13362856
000360 13 ce 9c 3d 54 66 dd 3d 38 f4 13 3e 44 ac 9e 3d
       0.07656493 0.10810533 0.14448631 0.07747701
000370 60 8f 76 3d 11 c1 21 3e da c5 d1 bd fa 0a 4d 3d
       0.060195327 0.15796305 -0.10242815 0.050059296
000380 e4 f5 18 3e 7c 9a 05 be 50 30 01 be f7 29 e1 3d
       0.1493755 -0.13047212 -0.12616086 0.10994332
000390 28 9d e4 bd c3 cf a3 bc ff fa b3 3c 0f 9d 06 be
       -0.11162788 -0.01999653 0.02197027 -0.1314585
0003a0 a5 d2 c3 bc 78 89 8f 3d 69 11 e8 3d 04 34 86 bd
       -0.023904154 0.07008642 0.11331446 -0.0655289
0003b0 d5 9d 08 3e b4 06 c0 3c 87 a8 05 be 58 48 09 bd
       0.13341458 0.023440696 -0.1305257 -0.033516258
0003c0 bd 85 db 3d 52 2c a2 3d 96 81 9b bd 08 d9 c6 bb
       0.10718868 0.0791861 -0.07593076 -0.0060683526
0003d0 c6 1a 49 3d 4b dc b1 bd 76 95 98 3d d5 43 71 bd
       0.0490978 -0.08684596 0.074503824 -0.05890258
0003e0 e9 0e 2b 3d 61 5e 93 bd 2c a1 9a 3d 57 78 04 bc
       0.041762266 -0.07195736 0.07550272 -0.008085332
0003f0 ee 64 d8 bd 6f 71 8f bd 9d cb 3a 3d 1e 32 ee bd
       -0.10566126 -0.070040576 0.045604337 -0.11630653

decoder.l1.0.bias f4 [64]
000000 6d 94 0c 3e 15 27 ab 3d ff a9 e5 3d eb 9b ec bd
       0.13728495 0.08357064 0.11214065 -0.115531765
000010 9b af 39 bd 7c 6a 87 bd 14 8b bf 3d 3a c2 92 3d
       -0.045333486 -0.06612107 0.09352699 0.07165952
000020 10 77 9a bd 79 9b 55 bd 83 ba 33 3d e9 fa cc 3d
       -0.075422406 -0.052150223 0.043879043 0.10008795
000030 fa 95 ae bd 6a 47 19 bd 7a 2a ad bd 70 fa e9 3b
       -0.085246995 -0.03742162 -0.084553674 0.00714045
000040 28 b7 6d 3d 8e 51 2f bd e0 9b ca 3d 10 d5 a8 bd
       0.058036 -0.042802386 0.09893012 -0.082437634
000050 5a b3 a7 3d 8a 73 d9 bd de 3f 8c bd 5f 94 fc 3c
       0.081885055 -0.106177405 -0.06848119 0.030832468
000060 fe 9d 85 3d ca 45 88 bd d7 19 48 bd 7c 71 ca 3c
       0.06524275 -0.06653936 -0.048852768 0.024712317
000070 f8 4f c7 bd fe 23 ac 3d 5b af f7 bb 31 05 25 ba
       -0.0973205 0.084053025 -0.007558746 -0.0006295024
000080 15 41 3c bd f8 9d c9 3d 3e c1 c0 3d 03 95 34 bd
       -0.045960505 0.09844583 0.09411858 -0.04408742
000090 c7 fb 82 3d 22 3b d4 3d 24 c0 c3 3d 9e 40 ea 3b
       0.06395679 0.10362841 0.09558132 0.0071488163
0000a0 55 66 b4 bd 81 e4 aa bd 0e bb 33 3d de 83 f4 b9
       -0.08808581 -0.08344365 0.04387956 -0.00046637555
0000b0 35 7a 7e bd ee f5 db 3d 0a 1e 6b 3d a7 28 36 bd
       -0.062128264 0.10740267 0.057401694 -0.044472363
0000c0 8a 56 14 3e 0e 1f 21 3c 65 83 35 3d 9b 79 c4 3c
       0.14486137 0.009834064 0.04431476 0.023983767
0000d0 51 e5 8c bc 2a bb a1 bc cf 04 ce 3d bc 5c 50 3d
       -0.01719919 -0.019742567 0.10059511 0.05086969
0000e0 38 47 a3 bd 4b 75 76 bd 3a 37 87 bd 59 38 dc 3d
       -0.07972568 -0.060170453 -0.066023305 0.10752935
0000f0 b8 32 6a bd 08 c8 f3 bd 67 7f 85 3d bd 82 96 3d
       -0.057177275 -0.11903387 0.06518441 0.07349155

decoder.l1.2.weight f4 [128, 64]
000000 19 5c 1a be 51 a3 0d 3e 61 20 06 3f 08 a7 be 3d
       -0.15074195 0.13831832 0.52393156 0.093092024
000010 77 b6 b9 3d 7e ad c4 3d 08 1f 5c be c2 40 20 3c
       0.090680055 0.096034035 -0.21496212 0.009781064
000020 56 02 b2 3d ed 93 5d be f6 8b 1f 3d 84 53 17 3a
       0.08691852 -0.2163846 0.038951837 0.00057726377
000030 10 00 78 3d f7 e5 20 3d 30 2a e7 3d 69 3b 6c 3e
       0.060546935 0.03928181 0.112873435 0.23069538
000040 0e b5 a4 3d a4 93 bd bd 31 3d 99 be 84 3e 18 bd
       0.08042346 -0.09256676 -0.29929498 -0.037168995
000050 b8 c0 27 3e 78 bc b9 3c d8 88 e2 bb a7 c6 64 3d
       0.1638211 0.022672877 -0.0069132857 0.055853512
000060 4c 11 66 bd 2f a2 53 bd 60 fa d2 bd fa b9 1a 3e
       -0.05616884 -0.051668342 -0.103016615 0.15110007
000070 b0 90 b4 be b6 2c 16 3e 42 2a 8c bd 96 e6 07 3d
       -0.35266638 0.14665493 -0.068439975 0.03317889
000080 24 6f 8e bb 4c 3c d4 3d b5 00 63 3e b5 1a aa bc
       -0.004346745 0.10363063 0.22168238 -0.020764688
000090 75 74 dc 3d dd 33 23 bd 66 42 7a 3d 7a 43 d5 3e
       0.107644 -0.039844383 0.06109848 0.41653043
0000a0 75 35 39 be bc 7d 62 be 77 78 97 3d 3e f9 8e be
       -0.18086798 -0.22118276 0.07396024 -0.27924532
0000b0 b0 40 31 3e 9e 13 24 3e 10 b6 de bd 69 75 a5 bd
       0.17309833 0.16023108 -0.108745694 -0.08079035
0000c0 fa 6c c9 bd 69 ee bd bd 0f 2f 44 3e fc d1 01 3e
       -0.09835239 -0.09273989 0.19158576 0.12677759
0000d0 3c 4a b5 3d 10 7c a8 bd 0f 6c d5 bc af 84 e7 bc
       0.0885205 -0.08226788 -0.026052503 -0.02826151
0000e0 f6 2e 12 3e c5 e8 2a bc a5 f8 34 3e df fb 3b 3d
       0.14275727 -0.010431473 0.17672975 0.0458945
0000f0 ee 5e 60 3e 0e 2a aa bd 5b 56 ba 3d 5c 49 1e bd
       0.21911213 -0.083088025 0.09098502 -0.03864418
000100 75 47 11 3e 48 64 57 3d ab f2 2f bd 78 f7 82 3d
       0.14187415 0.05258587 -0.042956036 0.06394857
000110 55 c2 da be 19 23 1a bd d8 53 39 be 05 bf 00 3e
       -0.4272639 -0.037631128 -0.1809839 0.12572868
000120 c3 e5 44 3d 47 cc 09 3e ec a4 6a bd c7 3a 39 3e
       0.04807068 0.13456832 -0.057286188 0.18088828
000130 7c 08 c9 3a 93 56 96 3d bf e1 7f bd c1 1c fc bd
       0.0015337612 0.073407315 -0.062471148 -0.12310172
000140 a3 96 65 3e a4 e2 9e bd c7 ec b9 be 00 74 f3 3d
       0.22420745 -0.07758072 -0.3631346 0.118873596
000150 20 53 8f 3e f6 2d 39 3e e3 a4 0c bd c3 34 21 3e
       0.27993107 0.18083939 -0.034336936 0.15742783
000160 dc 09 fc b9 fe 7d 5f bd 52 c0 3c 3d 86 53 7d 3d
       -0.0004807253 -0.054563515 0.04608185 0.061847232
000170 4b 64 e2 3d c0 5a dd be 07 39 83 3d 26 ac 9f bd
       0.110542856 -0.432333 0.064073615 -0.077965066
000180 f2 af c5 3d 79 ae 01 bd 9f 23 3b be 4b 52 95 b9
       0.096526995 -0.03166053 -0.18275307 -0.00028480808
000190 a9 d5 fd 3d 4f 26 10 3e ba f2 be bd 29 cc 3a 3d
       0.12394268 0.14077114 -0.0932364 0.04560486
0001a0 33 ec f5 3d ca 37 eb bd ae ad 88 3e 02 02 11 3e
       0.12007942 -0.1148525 0.26695007 0.14160922
0001b0 2a 95 9c bc 48 d1 31 3c e3 b2 5a 3e 05 6b 2f 3b
       -0.019114096 0.010853119 0.21357302 0.002676667
0001c0 15 07 7f 3e 39 f2 72 bb 8b 93 92 bc e1 65 38 3e
       0.24905045 -0.0037070645 -0.01789262 0.18007614
0001d0 b4 fd a6 bc 1f e4 09 3c 00 6f 14 3e e8 18 86 3d
       -0.020384647 0.008416205 0.14495468 0.06547719
0001e0 5c 25 b8 3d 39 4a 54 bc f5 99 4b bc 68 75 b5 bc
       0.08991501 -0.012957149 -0.012426843 -0.02215071
0001f0 10 c3 a4 bc 0f 82 b9 bd 92 af 1b 3e 80 9d d1 ba
       -0.020112544 -0.0905801 0.15203694 -0.0015992373
000200 85 a5 13 3e 13 07 f2 3d 02 5d 93 be 61 f7 f8 bb
       0.1441861 0.118177556 -0.28781897 -0.0075978492
000210 4f 39 40 3e cd 87 c0 3d 09 c8 26 be ee cf 7e bc
       0.18771861 0.09400902 -0.16287245 -0.015552504
000220 2d 4f 3b bd 6c bc 83 bd f5 cb 88 bd 28 40 05 3e
       -0.045729805 -0.06432423 -0.06679527 0.13012755
000230 df 6d fb 3c cf 6b 72 bc 4b 9f 11 3c ad 76 81 3e
       0.030692039 -0.014796211 0.008888076 0.25285855
000240 58 ec 5e 3d 6c c0 25 be 92 db 18 bd 0f bb c0 bd
       0.054424614 -0.16186684 -0.037318774 -0.094106786
000250 14 65 dd 3d 47 b0 0b 3e 7d 28 a7 bc 3b 41 ec 3d
       0.10810295 0.13641463 -0.020405049 0.11535879
000260 60 bd 99 bd c0 2a b0 bc 21 55 cc bd 4f f5 0a 3e
       -0.075068235 -0.02150476 -0.099771746 0.1357014
000270 f3 b0 f3 3d 6b bd 72 bd 5c 5e 0d 3e 77 26 ea 3d
       0.11898985 -0.059262674 0.13805526 0.11433118
000280 36 97 6c 3d 78 fc fc 3d 82 59 83 3e 70 23 f6 3c
       0.057761393 0.12352842 0.25654227 0.030046195
000290 a5 1a 17 3c f8 ec f1 3d 56 e3 49 3c 26 5a 54 3e
       0.009222661 0.11812776 0.0123222675 0.20737514
0002a0 c1 a3 16 3e 2c 49 a6 be 94 c1 a5 be b4 57 c9 bd
       0.14710905 -0.324777 -0.3237425 -0.09831181
0002b0 8f 6d c1 bc ad b1 31 3c 96 fc c1 bd 2d 5c 5c 3e
       -0.023611812 0.010845584 -0.09472005 0.21519537
0002c0 05 3b 5d be 5a 20 0a 3d 74 c0 1e be 3a e1 d5 3d
       -0.21604545 0.03372226 -0.15503103 0.10443349
0002d0 02 c3 dc ba 25 4b 0a 3d 01 0d 43 3e 07 c4 98 3d
       -0.0016842785 0.03376307 0.1904793 0.07459264
0002e0 38 06 18 3e da b4 d7 bd 72 3a 7c 3e fc ae 07 3d
       0.14846122 -0.105325416 0.2463167 0.033125862
0002f0 ea b2 76 bd 7c 0d b1 3d 09 af 10 be 9d 4c 97 3d
       -0.06022922 0.0864515 -0.1412927 0.0738766
000300 85 c0 15 3e 9c 97 49 3e 55 a9 05 3d 12 9c be 3c
       0.14624222 0.1968674 0.03263219 0.02326778
000310 f3 7b 95 bd 3e 42 41 3d 94 12 14 3e 91 81 0c be
       -0.07299032 0.047182314 0.14460212 -0.137213
000320 f0 1e 10 3e 1b de 5c bd 90 a8 c7 bd cd 70 0b be
       0.14074302 -0.053922754 -0.097489476 -0.13617249
000330 93 2c f0 3d 2e ad 8d 3b 7b 3f ac bd 17 52 0c 3e
       0.11727252 0.004323623 -0.084105454 0.1370319
000340 0c 38 07 3e 8a 82 3b 3e 4b 22 8f be eb 2d b3 3d
       0.13204974 0.18311515 -0.2795585 0.087489925
000350 f8 8a 99 be 79 38 58 bd 44 3a c0 bb d5 bd 2e 3e
       -0.29988837 -0.05278823 -0.005866321 0.17064603
000360 3c 0f f1 3c b9 0e 11 3d c1 06 c0 bc e6 93 0f be
       0.02942621 0.03541443 -0.02344072 -0.14021263
000370 ab f0 13 bd d1 e6 bd 3e 9b 41 cd 3d 6c 87 8d 3d
       -0.03611819 0.3709016 0.10022279 0.06910595
000380 20 73 04 3e f4 d9 9f 3d d7 ca 3f be 35 29 b5 bd
       0.12934542 0.07805243 -0.18729721 -0.0884575
000390 b4 26 a1 3d 9d 3a a6 bc 07 28 96 bd 9e bd 7b bd
       0.0786871 -0.02029162 -0.07331853 -0.06146013
0003a0 9f c8 32 3c 80 88 82 bb 70 49 8e 3e aa 3a 5d 3d
       0.01091209 -0.003983557 0.27790403 0.054011025
0003b0 2d ea ae bd 5e 47 ce 3d 7a d9 2b 3e 39 03 f0 3d
       -0.08540759 0.10072206 0.1678218 0.11719365
0003c0 c3 90 57 be 77 93 88 3d ef a0 27 be 23 57 c2 3d
       -0.21051316 0.06668752 -0.16369985 0.09489276
0003d0 b0 87 80 bd 89 7e 02 be 48 18 bc 3e 7c ec 2f 3d
       -0.0627588 -0.12743582 0.36737275 0.04295014
0003e0 e5 00 cd 3e 8b b2 cf bd 8b 50 9b 3d 6a c7 b7 3d
       0.40039745 -0.10141476 0.07583722 0.08973582
0003f0 86 e9 37 bd ed 98 55 3d b7 90 92 be 97 fe 64 bd
       -0.04490044 0.052147795 -0.28626034 -0.05590686

decoder.l1.2.bias f4 [128]
000000 b0 07 89 bb 3d bc 96 bb 8f 06 b0 3d 6a eb 93 bc
       -0.0041818246 -0.0046000765 0.08595001 -0.01805659
000010 37 c7 8d 3d 4e b1 ac ba 58 e6 55 3c b0 a5 01 3e
       0.06922763 -0.00131754 0.0130554065 0.12660861
000020 89 50 3f 3e d7 cb 29 3d a3 df 82 3d fd ad 0d 3e
       0.18683065 0.041454162 0.063903116 0.13835903
000030 a2 0c d2 bd 19 e0 81 3d 8e 8a 4a bd 2d d4 07 be
       -0.10256316 0.06341571 -0.049448542 -0.13264532
000040 79 35 f3 3d 55 db 08 be 06 74 25 bd 2c d9 d0 bc
       0.118754335 -0.13364919 -0.04039385 -0.02549418
000050 e5 ed 8c 3d cf 0a df 3d a8 fa dd bd 24 06 be bc
       0.06881312 0.108907335 -0.108388245 -0.023196287
000060 e1 27 5a 3d e7 50 ff bb eb 39 31 be 29 f2 b1 3b
       0.053260688 -0.0077916267 -0.1730725 0.005430479
000070 b8 63 5f bd 79 72 ba 3d 70 fd 98 bd c4 4e e0 3d
       -0.05453846 0.09103865 -0.07470214 0.10952523
000080 17 55 d6 bc a6 b8 98 bd d6 16 7e bd b5 a5 6f 3d
       -0.02616362 -0.07457094 -0.062033497 0.05850764
000090 a6 d3 9e bc cc cd 1b bd 1c ba 1e 3e 9e 3b 0d bd
       -0.019388031 -0.03803806 0.15500683 -0.034480684
0000a0 96 6d e9 3c f8 37 3b bd a0 e5 a3 3d de 88 5d 3d
       0.028494637 -0.045707673 0.08002782 0.054085605
0000b0 f5 75 51 bd 77 a2 61 bd 30 4b 82 bd e7 79 bb 3d
       -0.051137883 -0.05508658 -0.06361997 0.091541104
0000c0 12 96 81 3d 24 1f 8b bd 3a 80 8c 3d de 66 57 3b
       0.06327452 -0.06793049 0.06860395 0.003286771
0000d0 eb 12 20 3e f0 e1 a2 3b 0c 8b 67 3d 22 0e a7 bd
       0.15632217 0.0049707815 0.05652909 -0.081569925
0000e0 d0 a7 9e 3d bb 81 1f bd 36 f6 5c bd 96 85 4b 3d
       0.077468514 -0.03894208 -0.053945743 0.049687944
0000f0 eb 08 e6 3c a1 f7 5b 3d 4a 5e 7c bd 89 77 db 3c
       0.028080424 0.053702954 -0.06161336 0.026790397
000100 cc 35 a8 3d 82 e8 28 bd 7f 4c aa 3d 6f 46 24 bd
       0.08213386 -0.04123736 0.08315372 -0.040106233
000110 d9 88 bd bd b7 10 aa 3d ce 1a 69 bc f9 ad 5a 3d
       -0.09254617 0.08303969 -0.014227582 0.05338857
000120 6f 5e e3 3d 7e 08 81 3c 73 cb dc 3c cc 22 00 3d
       0.11101996 0.01575112 0.02695248 0.031283185
000130 96 03 c9 3d c6 34 3f bd 3c 39 ba 3d 50 87 2a 3c
       0.09815137 -0.046681188 0.09092948 0.010408238
000140 aa 0a 3b bd e0 6d c9 bd f9 e5 b0 3c fb b5 0f 3d
       -0.045664467 -0.0983541 0.021594035 0.03508566
000150 23 4c 92 bc c5 6e 8a bd b2 6e 39 bc bf db aa bd
       -0.01785857 -0.06759409 -0.011317896 -0.083426945
000160 cb e3 48 3d c0 60 ab bb 76 cf 0d bc 55 64 c7 bd
       0.049045365 -0.0052300394 -0.00865542 -0.09735934
000170 46 ee bc 3d 25 ca a8 bd 5e 8a 02 3c f4 83 5c bb
       0.092251346 -0.08241681 0.00796756 -0.0033647986
000180 e6 04 0c bd 49 ea 48 3d 3c 62 37 bb 0d 79 8b bc
       -0.03418436 0.049051557 -0.0027982136 -0.017025495
000190 54 ef 6f bd 97 c6 fe 3d 7d 26 56 bd 82 ef ab bd
       -0.05857785 0.12440222 -0.0522828 -0.08395292
0001a0 c8 9c 9a bd b4 a9 0e be d9 c1 1f bd 59 cf 9e bd
       -0.07549435 -0.13931924 -0.039003227 -0.07754392
0001b0 66 e7 5b bd 42 89 bc 3d 40 17 cd 3d 2a c7 c7 bd
       -0.053687476 0.09205867 0.100142 -0.097547844
0001c0 cd 1f 9a 3d 58 2c 2d 3e 08 cc 64 bd ac df 07 3c
       0.07525597 0.16911447 -0.055858642 0.008293074
0001d0 4c 2d ca 3d 47 81 83 3d 56 f6 c6 bd fb 04 ef 3c
       0.09871921 0.06421142 -0.097149536 0.02917718
0001e0 07 12 91 3c 7e e1 0c be 12 4d c9 3d 3f 54 84 3b
       0.017708791 -0.13757893 0.09829153 0.004038363
0001f0 e9 49 4a 3d 84 a9 e4 bd ec 82 8d 3d 95 b9 f9 3c
       0.049386892 -0.11165145 0.06909737 0.030484

exp_avg f4 [64, 128]
000000 c8 49 97 b8 39 8e dc b8 88 dd 72 b8 ed 1c ca b7
       -7.213984e-05 -0.000105169085 -5.7903613e-05 -2.4093746e-05
000010 9c 0c ac b4 14 0e 50 b8 c8 8e 7c b8 3d a8 f4 b7
       -3.204667e-07 -4.9604176e-05 -6.0214457e-05 -2.9165409e-05
000020 12 88 37 b9 9c b0 e7 b6 3e e0 a6 b6 25 5c 26 b8
       -0.0001750293 -6.9048965e-06 -4.9732907e-06 -3.96633e-05
000030 e9 64 83 b7 21 de a3 b8 57 e4 d1 b7 dc e5 04 b8
       -1.5663407e-05 -7.8138204e-05 -2.502107e-05 -3.1685326e-05
000040 d8 8c 81 b7 33 6a 93 b7 e1 24 61 b8 c8 f9 43 b8
       -1.5443584e-05 -1.7573218e-05 -5.3678526e-05 -4.672425e-05
000050 cc e4 29 b8 28 fc 25 b8 f2 53 88 b7 de 7f 17 b8
       -4.0505824e-05 -3.9573904e-05 -1.6251553e-05 -3.612029e-05
000060 70 5d 98 b7 8e d2 cd b7 a0 63 cd b7 ae ac 7b b8
       -1.8163322e-05 -2.4535952e-05 -2.4484296e-05 -6.0003884e-05
000070 e8 e0 4a b8 81 ba 91 b6 8e 9b 72 b8 c7 8c cb b7
       -4.8370013e-05 -4.3430487e-06 -5.7842168e-05 -2.426504e-05
000080 28 64 b5 b7 7c ba e8 b7 6a de 22 b8 92 87 9c b7
       -2.162352e-05 -2.7743394e-05 -3.883095e-05 -1.8659779e-05
000090 67 ba d4 b7 ef 34 a4 b7 e5 c0 a2 b8 96 be d0 b7
       -2.535917e-05 -1.9574973e-05 -7.7606914e-05 -2.488428e-05
0000a0 6f d2 b5 b6 ee 0a d9 b7 50 b0 03 b8 b0 5f f5 b6
       -5.418718e-06 -2.5873505e-05 -3.1397038e-05 -7.3127085e-06
0000b0 d2 87 19 b8 e2 bc 42 b8 61 1e 84 b8 90 c3 c1 b7
       -3.6604535e-05 -4.6429115e-05 -6.299909e-05 -2.3098459e-05
0000c0 0d a4 16 b8 70 a1 45 b8 40 bd b1 b7 62 19 f2 b7
       -3.591557e-05 -4.711881e-05 -2.118817e-05 -2.8860468e-05
0000d0 42 04 43 b8 3f bb 59 b8 ae 11 af b6 b1 4a 02 b8
       -4.649559e-05 -5.1911218e-05 -5.2174646e-06 -3.1063977e-05
0000e0 e5 ad f9 b7 d0 4a 93 b8 9d da 4c b8 77 cd f5 b7
       -2.9764089e-05 -7.023441e-05 -4.884099e-05 -2.9301953e-05
0000f0 ae d0 d2 b7 d6 be 3a b8 6f 32 70 b8 c6 6f f4 b7
       -2.5131125e-05 -4.4523586e-05 -5.726743e-05 -2.9139115e-05
000100 4d 7b 82 b8 97 44 5f b8 7a 35 5e b8 ee 54 26 b8
       -6.2218496e-05 -5.3231222e-05 -5.297873e-05 -3.965658e-05
000110 60 33 27 b8 44 e8 25 b7 64 e2 16 b8 d9 14 d5 b7
       -3.986375e-05 -9.888845e-06 -3.597363e-05 -2.5401287e-05
000120 36 cc 4a b8 3c 14 8d b7 16 f8 da b7 82 82 1c b8
       -4.835074e-05 -1.6817932e-05 -2.610315e-05 -3.7314843e-05
000130 fe 85 4c b7 08 8f 4b b8 ae 1b bc b7 de a4 0d b8
       -1.2190545e-05 -4.853218e-05 -2.2424236e-05 -3.3770564e-05
000140 20 ce 78 b8 72 c9 62 b8 15 88 54 b8 f1 cf 14 b8
       -5.9319776e-05 -5.407021e-05 -5.0671475e-05 -3.547961e-05
000150 dc 36 2c b8 7a 92 44 b8 ae 21 34 b8 7e 0f 43 b8
       -4.1059087e-05 -4.686646e-05 -4.294671e-05 -4.650605e-05
000160 8f 86 15 b7 f1 10 60 37 8c 2e c6 b7 87 70 09 b8
       -8.912421e-06 1.3355385e-05 -2.3625114e-05 -3.2768145e-05
000170 af ec ae b7 d9 7d d2 b7 61 0f e3 b7 a2 19 09 b8
       -2.085263e-05 -2.5092553e-05 -2.706767e-05 -3.2687218e-05
000180 32 21 c6 b7 3a c8 24 b8 8f e2 1d b8 ac 4d 81 b7
       -2.3618897e-05 -3.9287122e-05 -3.7642716e-05 -1.5414167e-05
000190 88 d5 6f b8 a1 9a dc b7 1d ef 2d b8 3c 0f e1 b7
       -5.7180907e-05 -2.6298048e-05 -4.1469106e-05 -2.6829184e-05
0001a0 e2 bb 12 b8 bf d2 ef b7 c3 ce b9 b8 d8 1d b3 b7
       -3.4984092e-05 -2.8589156e-05 -8.86e-05 -2.135236e-05
0001b0 5a b3 d9 b7 d0 ff 2f b8 21 5f 7b b7 60 5f 2a b7
       -2.5951933e-05 -4.1961495e-05 -1.4982915e-05 -1.0154996e-05
0001c0 4d af 1c b8 31 d1 a8 b8 5a 7e 03 b8 d6 5d 6c b7
       -3.735656e-05 -8.049829e-05 -3.1350508e-05 -1.4088544e-05
0001d0 0b 94 da b7 59 58 80 b7 3a d2 9c b7 fb 52 96 b7
       -2.6056563e-05 -1.529993e-05 -1.8694544e-05 -1.7920034e-05
0001e0 51 0d 30 b8 82 4a 3f b7 63 9e 53 b5 06 21 a7 b7
       -4.197407e-05 -1.1401835e-05 -7.883411e-07 -1.992333e-05
0001f0 5a ff a8 33 eb 90 62 b8 80 32 f1 b7 71 32 0b b8
       7.869558e-08 -5.4017564e-05 -2.8752955e-05 -3.318716e-05
000200 04 00 00 80 04 00 00 00 04 00 00 00 04 00 00 00
       -6e-45 6e-45 6e-45 6e-45
000210 04 00 00 00 04 00 00 80 04 00 00 00 04 00 00 00
       6e-45 -6e-45 6e-45 6e-45
000220 04 00 00 00 04 00 00 00 04 00 00 80 04 00 00 00
       6e-45 6e-45 -6e-45 6e-45
000230 04 00 00 80 04 00 00 80 00 00 00 00 04 00 00 00
       -6e-45 -6e-45 0.0 6e-45
000240 00 00 00 00 04 00 00 00 04 00 00 00 04 00 00 00
       0.0 6e-45 6e-45 6e-45
000250 04 00 00 00 04 00 00 00 04 00 00 00 04 00 00 00
       6e-45 6e-45 6e-45 6e-45
000260 04 00 00 00 04 00 00 00 04 00 00 00 04 00 00 80
       6e-45 6e-45 6e-45 -6e-45
000270 04 00 00 80 04 00 00 80 04 00 00 00 04 00 00 80
       -6e-45 -6e-45 6e-45 -6e-45
000280 04 00 00 00 04 00 00 00 04 00 00 00 04 00 00 00
       6e-45 6e-45 6e-45 6e-45
000290 04 00 00 00 04 00 00 00 04 00 00 00 04 00 00 80
       6e-45 6e-45 6e-45 -6e-45
0002a0 04 00 00 00 04 00 00 00 04 00 00 00 04 00 00 00
       6e-45 6e-45 6e-45 6e-45
0002b0 04 00 00 80 04 00 00 00 04 00 00 00 00 00 00 00
       -6e-45 6e-45 6e-45 0.0
0002c0 04 00 00 00 04 00 00 00 04 00 00 00 04 00 00 00
       6e-45 6e-45 6e-45 6e-45
0002d0 04 00 00 80 04 00 00 00 04 00 00 00 04 00 00 80
       -6e-45 6e-45 6e-45 -6e-45
0002e0 04 00 00 00 04 00 00 00 04 00 00 80 04 00 00 80
       6e-45 6e-45 -6e-45 -6e-45
0002f0 04 00 00 80 04 00 00 80 04 00 00 00 04 00 00 00
       -6e-45 -6e-45 6e-45 6e-45
000300 04 00 00 00 04 00 00 00 04 00 00 00 04 00 00 00
       6e-45 6e-45 6e-45 6e-45
000310 04 00 00 00 04 00 00 00 04 00 00 80 04 00 00 00
       6e-45 6e-45 -6e-45 6e-45
000320 04 00 00 00 04 00 00 00 04 00 00 00 04 00 00 80
       6e-45 6e-45 6e-45 -6e-45
000330 04 00 00 00 04 00 00 00 04 00 00 00 04 00 00 00
       6e-45 6e-45 6e-45 6e-45
000340 04 00 00 80 04 00 00 80 04 00 00 00 04 00 00 00
       -6e-45 -6e-45 6e-45 6e-45
000350 04 00 00 00 04 00 00 00 04 00 00 00 04 00 00 00
       6e-45 6e-45 6e-45 6e-45
000360 04 00 00 00 04 00 00 00 04 00 00 00 04 00 00 00
       6e-45 6e-45 6e-45 6e-45
000370 04 00 00 00 04 00 00 00 04 00 00 00 04 00 00 00
       6e-45 6e-45 6e-45 6e-45
000380 04 00 00 00 04 00 00 80 04 00 00 00 04 00 00 80
       6e-45 -6e-45 6e-45 -6e-45
000390 04 00 00 00 04 00 00 00 04 00 00 00 04 00 00 80
       6e-45 6e-45 6e-45 -6e-45
0003a0 04 00 00 00 04 00 00 00 04 00 00 80 04 00 00 00
       6e-45 6e-45 -6e-45 6e-45
0003b0 04 00 00 80 04 00 00 00 04 00 00 00 04 00 00 80
       -6e-45 6e-45 6e-45 -6e-45
0003c0 04 00 00 00 04 00 00 00 04 00 00 00 04 00 00 00
       6e-45 6e-45 6e-45 6e-45
0003d0 04 00 00 80 04 00 00 00 04 00 00 00 00 00 00 00
       -6e-45 6e-45 6e-45 0.0
0003e0 04 00 00 00 04 00 00 00 04 00 00 00 04 00 00 00
       6e-45 6e-45 6e-45 6e-45
0003f0 04 00 00 00 04 00 00 00 04 00 00 00 04 00 00 80
       6e-45 6e-45 6e-45 -6e-45
